models/classifier_143features_200x300x100_0.001lr_50e_0.4dropout_64bs_orthogonal.pth (torch_old, 485023 bytes, 8 tensors)

weight f4 [200, 143]
0.07352546 -0.03064807 0.18694885 0.09301836 0.07795472 0.029351033 -0.0493895 -0.034603905
0.10695865 -0.19461681 0.030075116 -0.10324792 0.039460476 -0.04235307 0.07451114 -0.01836149
0.08044091 0.027345996 0.09861037 0.056120876 -0.030302683 -0.09246764 -0.06833252 0.1172949
-0.010406093 -0.15250283 -0.02280779 -0.011818631 -0.08999123 -0.025296846 -0.00027195187 0.03770646
0.07555791 -0.035549525 -0.050064348 -0.027640192 -0.13715114 -0.031842135 -0.041513845 -0.039252322
0.16678253 0.015560321 -0.01941989 -0.0009339017 0.08742796 0.0561715 -0.05325059 -0.014838989
-0.015622817 -0.03534713 -0.10099873 0.04192944 -0.080752924 -0.012835921 -0.018544164 -0.08045327
-0.007691211 -0.04339725 -2.6154836e-05 -0.11617996 0.050780635 0.083565295 0.12127808 -0.0042612837
-0.13797325 -0.02266008 -0.07288904 -0.014358266 -0.2306654 -0.11702029 -0.06716292 -0.032616317
0.013005369 0.010263011 0.011227199 0.029434849 -0.12956898 -0.03684442 0.058511134 -0.042276796
-0.056000866 0.12999444 -0.0920647 0.048098784 -0.065974884 -0.023264317 -0.037481878 0.05170714
0.07870064 0.08548328 -0.042746827 -0.08093664 0.04568914 -0.015358881 -0.06905712 -0.013373221
0.1409242 -0.0070602726 -0.057695128 0.06939519 0.054315772 -0.11354132 0.075394124 0.029824527
0.11555406 0.033353668 0.14296444 -0.09483668 0.024122376 -0.101394534 0.048632704 -0.005855658
-0.094790876 0.13514113 0.062787615 -0.17151667 -0.12390575 -0.078303054 -0.07423938 0.013946288
0.008226925 -0.03443223 0.042204812 -0.05026082 -0.0022895872 -0.08731724 0.027958902 0.06988482
0.13746667 0.04194877 -0.035333905 0.014821523 -0.00799703 0.09750501 -0.0019065738 -0.0048382906
-0.04557798 0.038549352 0.02770635 0.061863884 0.0030434676 0.01597583 -0.024070842 -0.1961614
0.19735603 0.043958038 0.032137014 0.009054954 -0.08686267 0.080910474 0.019834837 0.18266787
-0.011505638 -0.013646696 0.03324426 0.008378653 0.032743428 -0.020505883 0.08681326 -0.026020383
0.04042585 -0.09516047 -0.010750819 0.07916979 -0.024285212 0.044406023 0.071950555 -0.11855506
0.054850277 0.0010569042 0.03443362 0.002193298 -0.0611813 -0.04697767 -0.037797946 -0.015276759
0.029637987 -0.043785088 0.024137812 -0.11265769 0.005084517 -0.021157814 0.20648834 0.035760604
0.0024523898 -0.11327265 -0.12757675 0.24763998 -0.016768478 -0.013701944 0.018038722 -0.09394951
0.07314883 -0.034641504 0.012695957 0.01625912 0.014430653 0.007092997 0.15201151 0.059742242
-0.008648069 0.06210061 0.18255256 -0.0040262192 0.047260255 -0.046952806 0.10133577 -0.030222572
0.042882618 -0.04168994 -0.057089083 0.25630578 -0.11759326 -0.049834497 0.046173155 -0.020257248
0.060402654 0.115650855 0.04778187 -0.014411076 -0.12478364 -0.037475314 -0.0025830478 0.0092959395
0.101849645 -0.03311392 -0.032549627 -0.031595625 -0.12153098 0.08309472 -0.03981036 0.043214824
0.116545066 0.007927697 -0.009957613 0.11683428 0.039704695 0.109423205 0.13717036 0.07421675
0.058578927 0.10572726 0.008336492 0.13506678 0.01884821 -0.027330877 -0.0930873 -0.05440134
0.36906192 0.009833544 0.019873003 -0.06023727 0.019420903 0.009040694 0.018529188 -0.0815088
00000000: 8494 963d a911 fbbc 856f 3f3e 6980 be3d
00000010: b9a6 9f3d 9471 f03c a54c 4abd d3bc 0dbd
00000020: 230d db3d a149 47be 1760 f63c a573 d3bd
00000030: 4fa1 213d 6a7a 2dbd 4c99 983d d66a 96bc
00000040: 34be a43d b604 e03c 3cf4 c93d 01df 653d
00000050: 553d f8bc ad5f bdbd ecf1 8bbd 4f38 f03d
00000060: 517e 2abc b429 1cbe 67d7 babc eea2 41bc
00000070: 524d b8bd 553b cfbc c394 8eb9 1772 1a3d
00000080: 1bbe 9a3d 619c 11bd 4610 4dbd af6d e2bc
00000090: 5971 0cbe e66c 02bd 6c0a 2abd 0bc7 20bd
000000a0: 0ac9 2a3e b7f0 7e3c 7616 9fbc 15d1 74ba
000000b0: 6e0d b33d 1614 663d 4a1d 5abd 3b1f 73bc
000000c0: d8f6 7fbc 27c8 10bd 6cd8 cebd 34be 2b3d
000000d0: ca61 a5bd c14d 52bc eee9 97bc afc4 a4bd
000000e0: 8e06 fcbb 51c1 31bd 1567 dbb7 c2ef edbd
000000f0: 5bff 4f3d 4824 ab3d a460 f83d 3da2 8bbb
00000100: dc48 0dbe a2a1 b9bc d946 95bd ef3e 6bbc
00000110: 8d33 6cbe 55a8 efbd b78c 89bd b098 05bd
00000120: 7914 553c 3026 283c 49f2 373c 5a21 f13c
00000130: bbad 04be 2dea 16bd 5fa9 6f3d 6f2a 2dbd
00000140: 2a61 65bd 431d 053e 6b8c bcbd 3b03 453d
00000150: d71d 87bd cf94 bebc 9986 19bd deca 533d
00000160: cd2d a13d dc11 af3d 4c17 2fbd 1cc2 a5bd
00000170: 8924 3b3d d1a3 7bbc d26d 8dbd 5b1b 5bbc
00000180: 6f4e 103e dc59 e7bb ba51 6cbd 111f 8e3d
00000190: 377a 5e3d 5a88 e8bd 3c68 9a3d 9152 f43c
000001a0: 9ba7 ec3d db9d 083d 4565 123e bc39 c2bd
000001b0: 4a9c c53c f0a7 cfbd 1633 473d d2e0 bfbb
000001c0: b821 c2bd 7062 0a3e cb96 803d 11a2 2fbe
000001d0: 4cc2 fdbd 5a5d a0bd d10a 98bd f97e 643c
000001e0: 39ca 063c cf08 0dbd f4de 2c3d 4ade 4dbd
000001f0: e60c 16bb 62d3 b2bd 110a e53c c61f 8f3d
00000200: 10c4 0c3e 79d2 2b3d 49ba 10bd f9d5 723c
00000210: fa05 03bc b5b0 c73d 00e6 f9ba 868a 9ebb
00000220: faaf 3abd ede5 1d3d 6df8 e23c fc64 7d3d
00000230: ea74 473b bedf 823c 3730 c5bc 89de 48be
00000240: b317 4a3e 580d 343d 1aa2 033d 3b5b 143c
00000250: 0ee5 b1bd 64b4 a53d ab7c a23c 490d 3b3e
00000260: 2582 3cbc 6496 5fbc 222b 083d 9e46 093c
00000270: f91d 063d f4fb a7bc 27cb b13d b328 d5bc
00000280: 9395 253d 7ee3 c2bd 3424 30bc c523 a23d
00000290: c8f1 c6bc 17e3 353d d05a 933d ffcc f2bd
000002a0: afaa 603d d287 8a3a 440a 0d3d 6fbd 0f3b
000002b0: 3e99 7abd a86b 40bd 05d2 1abd 5f4b 7abc
000002c0: 5dcb f23c fe57 33bd a9bc c53c 13b9 e6bd
000002d0: 059c a63b 2753 adbc ae71 533e b679 123d
000002e0: 46b8 203b 7efb e7bd 7ba3 02be 5695 7d3e
000002f0: 0c5e 89bc 1e7e 60bc f1c5 933c 9a68 c0bd
00000300: 0ecf 953d 40e4 0dbd b402 503c d931 853c
00000310: 8c6e 6c3c 5f6c e83b e8a8 1b3e 48b4 743d
00000320: a1b0 0dbc 365d 7e3d 0fef 3a3e 60ee 83bb
00000330: f893 413d 9651 40bd 2189 cf3d 5495 f7bc
00000340: afa5 2f3d 12c3 2abd 3ed6 69bd 833a 833e
00000350: bcd4 f0bd 421f 4cbd 1020 3d3d 87f2 a5bc
00000360: c668 773d 5bda ec3d ecb6 433d 6f1c 6cbc
00000370: 918e ffbd b77f 19bd 5a48 29bb ff4d 183c
00000380: 8c96 d03d 76a2 07bd c252 05bd 6a6a 01bd
00000390: 3ce5 f8bd 912d aa3d 3010 23bd 0702 313d
000003a0: 2eaf ee3d 2ce3 013c 4225 23bc d046 ef3d
000003b0: 64a1 223d 4619 e03d 6376 0c3e f4fe 973d
000003c0: 75f0 6f3d 8987 d83d c895 083c f24e 0a3e
000003d0: 9067 9a3c 01e5 dfbc 8ea4 bebd f1d3 5ebd
000003e0: aff5 bc3e df1c 213c b5cc a23c 5bbb 76bd
000003f0: 9618 9f3c 6b1f 143c 86ca 973c 16ee a6bd

bias f4 [200]
-0.022755131 0.030495664 -0.035652813 -0.101651825 0.02688818 -0.032221913 -0.07830675 -0.052454036
-0.19597472 -0.045331392 -0.025247147 -0.08302246 -0.11321849 0.02965187 -0.087311335 -0.06796799
0.009200573 -0.039041195 -0.05644236 -0.019578746 -0.0014617804 -0.0044499193 -0.07146857 0.003614929
-0.07917811 0.051367264 0.069564395 -0.20590068 -0.082207195 -0.088558875 -0.035420172 -0.021395978
0.06490545 -0.043252833 0.108320974 -0.054336343 -0.040055867 -0.039951656 -0.25037977 -0.08412224
0.07093059 -0.045595717 -0.07879148 -0.020587882 0.03337585 -0.043650743 -0.11742659 -0.10049667
-0.073219806 -0.06121931 -0.0053810906 -0.015719093 0.04317168 -0.10991151 -0.14534616 -0.07936584
-0.08732096 -0.015066628 -0.08557783 -0.06928953 0.026138125 -0.035878886 0.008508319 -0.049515557
-0.06957844 -0.11093697 0.003492681 -0.04551197 -0.02503145 0.012595855 -0.09173337 -0.077259995
-0.021763422 -0.112208955 -0.08516858 -0.01848731 -0.07860626 -0.09394714 -0.04245999 -0.050580416
-0.09268561 -0.042321112 0.026801018 -0.03634201 0.032877523 -0.07234453 -0.035638988 -0.05549425
0.02973714 -0.047571924 -0.054045707 -0.02246907 -0.033386424 -0.12573524 -0.047953084 0.04076794
-0.013167119 -0.0707654 -0.061024368 0.024664864 -0.045734275 -0.051469382 0.020802282 0.025358425
-0.061129365 0.03735563 0.05745426 -0.07600207 0.07616023 -0.0040878225 -0.1217142 -0.13649759
-0.02409615 -0.0097370865 -0.031564433 0.07552704 0.048851613 -0.062037054 -0.082639195 -0.050341558
-0.101690166 -0.08138896 0.032223195 0.057023622 0.0041166726 -0.054113865 -0.07075836 -0.05884449
-0.096457325 -0.08481357 -0.09141326 -0.06121424 -0.121268995 0.0018482252 -0.08501756 -0.0067989714
-0.08203446 -0.010279483 -0.053545956 -0.08093894 -0.030981977 0.08744889 -0.038627326 0.006262965
0.0057502543 -0.08433587 -0.10494776 -0.06709288 -0.021643253 -0.07911883 -0.0044245194 -0.03676862
-0.045911986 -0.06175042 -0.052901447 0.12121717 -0.04390159 -0.16745093 0.03526066 0.041911192
-0.052075677 -0.00013070127 0.040701166 -0.059758022 -0.032408014 0.060875017 -0.025935682 0.045618188
-0.042982485 -0.028493932 -0.056484345 0.04460258 -0.121854275 -0.052916124 -0.09609071 -0.045908652
-0.063402176 -0.032683235 -0.088564835 -0.054036446 -0.052143756 -0.057011552 0.018182172 -0.028077919
0.035146654 -0.15951853 0.0008496644 -0.07385196 0.07852172 -0.03942308 0.021327075 0.04660809
-0.019727185 -0.0015508868 0.059112627 -0.026237886 0.019303171 -0.20594418 -0.07216752 -0.024273515
00000000: f868 babc 0bd2 f93c af08 12bd d52e d0bd
00000010: 9a44 dc3c 20fb 03bd 4a5f a0bd 0bda 56bd
00000020: 99ad 48be 69ad 39bd 1bd3 cebc ae07 aabd
00000030: 18df e7bd 7ae8 f23c 49d0 b2bd cd32 8bbd
00000040: 00be 163c a9e9 1fbd 1b30 67bd 9b63 a0bc
00000050: 3699 bfba a1d0 91bb 1d5e 92bd 72e8 6c3b
00000060: 2228 a2bd 7b66 523d c777 8e3d a1d7 52be
00000070: 3f5c a8bd 5b5e b5bd be14 11bd 9e46 afbc
00000080: 26ed 843d e229 31bd 63d7 dd3d c98f 5ebd
00000090: 9f11 24bd 59a4 23bd c731 80be 4848 acbd
000000a0: 0f44 913d 93c2 3abd 6d5d a1bd eba7 a8bc
000000b0: 1eb5 083d 1fcb 32bd 5a7d f0bd 33d1 cdbd
000000c0: 44f4 95bd 19c1 7abd dc53 b0bb 54c5 80bc
000000d0: cad4 303d 4919 e1bd a0d5 14be 8f8a a2bd
000000e0: 55d5 b2bd 05da 76bc 6e43 afbd abe7 8dbd
000000f0: 9f1f d63c bdf5 12bd 7a66 0b3c d3d0 4abd
00000100: 247f 8ebd ec32 e3bd 77e5 643b c26a 3abd
00000110: c10e cdbc d85e 4e3c b5de bbbd 7d3a 9ebd
00000120: 3449 b2bc cfcd e5bd dd6c aebd b372 97bc
00000130: 52fc a0bd 5c67 c0bd 87ea 2dbd 692d 4fbd
00000140: f4d1 bdbd e758 2dbd cf8d db3c 5cdb 14bd
00000150: 95aa 063d 5e29 94bd 30fa 11bd f04d 63bd
00000160: 4d9b f33c c7da 42bd 085f 5dbd 0e11 b8bc
00000170: 34c0 08bd bdc0 00be 746a 44bd 49fc 263d
00000180: e6ba 57bc 73ed 90bd b0f4 79bd f80d ca3c
00000190: dd53 3bbd 8fd1 52bd 8c69 aa3c 79bc cf3c
000001a0: c962 7abd 3802 193d 2855 6b3d f9a6 9bbd
000001b0: e5f9 9b3d 24f3 85bb 4b45 f9bd 06c6 0bbe
000001c0: 4a65 c5bc 4d88 1fbc b549 01bd ecad 9a3d
000001d0: a118 483d 911a 7ebd bd3e a9bd f332 4ebd
000001e0: ef42 d0bd 41af a6bd 78fc 033d 9a91 693d
000001f0: 27e5 863b 80a6 5dbd c2e9 90bd ec06 71bd
00000200: 6b8b c5bd bdb2 adbd e036 bbbd c8bb 7abd
00000210: e15b f8bd 2640 f23a b01d aebd e8c9 debb
00000220: af01 a8bd 476b 28bc 0153 5bbd 51c3 a5bd
00000230: eacd fdbc 6718 b33d b037 1ebd 8f39 cd3b
00000240: a16c bc3b 49b8 acbd daee d6bd fe67 89bd
00000250: 314d b1bc 0e09 a2bd 8ffb 90bb b19a 16bd
00000260: 350e 3cbd 02ee 7cbd 30af 58bd b540 f83d
00000270: 27d2 33bd 4278 2bbe 7b6d 103d 12ab 2b3d
00000280: 4e4d 55bd db0c 09b9 44b6 263d d4c4 74bd
00000290: 44be 04bd 1558 793d 1177 d4bc 23da 3a3d
000002a0: 670e 30bd 1b6c e9bc 215c 67bd 32b1 363d
000002b0: bc8e f9bd 94be 58bd 35cb c4bd b60a 3cbd
000002c0: 00d9 81bd dbde 05bd 7b61 b5bd 5255 5dbd
000002d0: b194 55bd f284 69bd c7f2 943c aa03 e6bc
000002e0: f0f5 0f3d d358 23be 03bc 5e3a b23f 97bd
000002f0: ffcf a03d 187a 21bd 1eb6 ae3c 20e8 3e3d
00000300: e89a a1bc 2047 cbba 1520 723d d6f0 d6bc
00000310: af21 9e3c 08e3 52be 91cc 93bd 40d9 c6bc

weight f4 [300, 200]
-0.07641857 0.065209724 -0.055736177 0.10176699 -0.054909907 0.13634534 -0.112540506 -0.04870741
-0.09004457 -0.025956012 -0.0003331505 -0.00479561 0.09871849 -0.040931378 0.06426374 -0.0635621
0.040362768 -0.036297705 0.066695586 -0.087049656 0.035420176 -0.016072636 -0.12510636 -0.0028748773
0.017633103 0.06455476 0.01680787 -0.06023821 -0.075857595 0.026951892 0.0013304598 0.025989546
-0.056191333 -0.16424587 -0.04135434 -0.047510996 -0.02433593 -0.0032810657 0.002230396 -0.0007021422
0.033301983 -0.041895434 -0.025471395 0.015472925 -0.010741631 -0.009186913 0.08254764 -0.040158533
-0.14822023 0.010031227 -0.11792549 -0.05566479 0.010213572 -0.0574964 0.0430239 -0.10059952
-0.009762022 0.0043135933 -0.033859573 -0.07295097 0.0050533037 -0.014644939 -0.036733616 -0.108594395
-0.107330196 0.015194199 -0.11551047 0.041350175 0.12837644 -0.058882963 0.05049729 -0.04819717
0.00573164 -0.03500198 -0.09263297 -0.14730264 0.011864976 -0.09812422 -0.007909586 -0.07578325
0.001072747 -0.056794062 -0.0827562 0.0368882 -0.051530004 0.03182229 0.04053673 -0.028655367
-0.033225566 -0.03901963 -0.031233499 -0.06461613 -0.041970916 -0.008567937 -0.047803532 -0.037024274
-0.0481387 0.062570915 -0.06671343 -0.08067664 0.026339754 -0.03814512 -0.12582359 -0.09552263
-0.055074085 -0.012651699 -0.0029193817 -0.07904195 -0.104633085 -0.005328969 0.047212426 -0.07809239
0.044998027 -0.06138454 0.07273619 -0.07599422 0.012802767 0.02601726 0.03537743 -0.051732723
0.022526821 -0.0014187796 -0.023273705 0.027206764 0.0014999437 0.02162004 -0.115347914 0.027828217
-0.058878645 -0.059805024 0.06908328 -0.040217094 -0.045630243 -0.07825675 -0.037233986 -0.060522836
0.013168698 -0.013760145 0.048791017 -0.012933552 -0.026066579 -0.00865142 -0.014757695 -0.06134099
-0.04124784 0.05954775 -0.093530886 0.01803075 -0.030263858 0.051467553 0.08884337 -0.04980465
-0.028524837 -0.10235872 0.011693877 0.030986553 -0.034091804 0.004025036 -0.018759592 -0.04585062
0.03566215 -0.016332088 -0.086075306 0.059338752 -0.076021716 -0.10782539 0.04936209 0.03398495
-0.03301727 -0.091338485 0.09075248 -0.022237865 -0.031128252 0.012935645 -0.03340851 -0.020922802
-0.055770878 -0.040709045 -0.01362999 -0.0023187108 -0.084516115 -0.005038657 -0.055170394 -0.06878287
0.0309264 -0.088945575 -0.0742306 -0.09091481 0.031249963 -0.033951815 -0.09144309 -0.052571673
-0.005447878 -0.03846281 -0.019247212 -0.028290093 -0.015582882 -0.042913184 -0.051199522 -0.08768911
0.0141289625 -0.014692493 -0.077439204 -0.010938152 0.006631883 0.014129417 -0.03582629 0.07279379
-0.02778029 0.009110582 -0.11705061 -0.109530166 0.08875253 -0.085623756 0.024536453 0.065966174
0.08198847 0.022499058 -0.0993116 -0.0024122726 0.0336053 -0.024048164 0.02212061 -0.06141666
0.0074509447 0.01413951 0.014657112 0.013710281 0.037723683 -0.061238475 -0.04001207 0.026189383
-0.10119101 0.09596047 -0.12720229 -0.0026214644 0.024176696 -0.015477753 -0.021401297 -0.09477123
0.056612402 -0.13810708 0.053050507 0.039405257 -0.05388366 0.027760314 0.04424658 0.020506777
0.056924514 -0.07442213 0.018396016 0.012606243 -0.029960983 -0.06339492 0.019727644 -0.05257499
00000000: 5781 9cbd ad8c 853d 9e4b 64bd 366b d03d
00000010: 36e9 60bd 1d9e 0b3e a37b e6bd 6c81 47bd
00000020: 4a69 b8bd b4a1 d4bc b4aa aeb9 7e24 9dbb
00000030: eb2c ca3d a9a7 27bd b59c 833d d92c 82bd
00000040: 6e53 253d e7ac 14bd b297 883d 1747 b2bd
00000050: bf14 113d c3aa 83bc e21b 00be 7068 3cbb
00000060: 4c73 903c 4935 843d a8b0 893c 57bc 76bd
00000070: 3a5b 9bbd 37ca dc3c d362 ae3a 07e8 d43c
00000080: e228 66bd 1230 28be 2b63 29bd e49a 42bd
00000090: 255c c7bc 2607 57bb d62b 123b f70f 38ba
000000a0: a967 083d 8c9a 2bbd 63a9 d0bc 2782 7d3c
000000b0: aafd 2fbc b584 16bc bd0e a93d 467d 24bd
000000c0: 0bc7 17be 045a 243c eb82 f1bd c300 64bd
000000d0: d356 273c 5881 6bbd d439 303d 1f07 cebd
000000e0: e3f0 1fbc 0b59 8d3b 56b0 0abd 5167 95bd
000000f0: 2f96 a53b 54f1 6fbc fd75 16bd bd66 debd
00000100: efcf dbbd 17f1 783c c190 ecbd cd5e 293d
00000110: 1d75 033e 432f 71bd 3fd6 4e3d 656a 45bd
00000120: 7bd0 bb3b 3c5e 0fbd 5bb6 bdbd 81d6 16be
00000130: 5165 423c 5af5 c8bd 3597 01bc 4034 9bbd
00000140: 6b9b 8c3a e4a0 68bd 157c a9bd 1518 173d
00000150: 2011 53bd 1758 023d d809 263d a9be eabc
00000160: 8817 08bd 0cd3 1fbd 65dd ffbc 7655 84bd
00000170: b2e9 2bbd 8860 0cbc a3cd 43bd c4a6 17bd
00000180: 162d 45bd 2e25 803d 0da1 88bd cb39 a5bd
00000190: 78c6 d73c 0f3e 1cbd e6d7 00be 5ea1 c3bd
000001a0: 5d95 61bd 1249 4fbc 1953 3fbb bfe0 a1bd
000001b0: df49 d6bd a29e aebb d161 413d e7ee 9fbd
000001c0: da4f 383d 5b6e 7bbd b6f6 943d dca2 9bbd
000001d0: b2c2 513c 2622 d53c ede7 103d b1e5 53bd
000001e0: 2b8a b83c 58f6 b9ba 7fa8 bebc b8e0 de3c
000001f0: c299 c43a 831c b13c 873b ecbd 00f8 e33c
00000200: bc2a 71bd 1df6 74bd 897b 8d3d aeba 24bd
00000210: c7e6 3abd 1345 a0bd aa82 18bd cbe6 77bd
00000220: 86c1 573c 3b72 61bc 17d9 473d 40e7 53bc
00000230: 9489 d5bc afbe 0dbc 42ca 71bc b140 7bbd
00000240: 7ff3 28bd 57e8 733d 1f8d bfbd 39b5 933c
00000250: e9eb f7bc a4cf 523d 83f3 b53d f6ff 4bbd
00000260: ebac e9bc 73a1 d1bd ad97 3f3c 83d7 fd3c
00000270: d9a3 0bbd 73e4 833b b7ad 99bc dccd 3bbd
00000280: 7912 123d dfca 85bc 4048 b0bd 310d 733d
00000290: 46b1 9bbd 8fd3 dcbd e72f 4a3d ce33 0b3d
000002a0: 1e3d 07bd ac0f bbbd 70dc b93d 2f2c b6bc
000002b0: ad00 ffbc 07f0 533c 5dd7 08bd 4c66 abbc
000002c0: 0170 64bd 87be 26bd 5250 5fbc 83f5 17bb
000002d0: c916 adbd 521b a5bb 5afa 61bd 09de 8cbd
000002e0: 5d59 fd3c 1929 b6bd 3606 98bd 8b31 babd
000002f0: ecff ff3c 0f11 0bbd 8446 bbbd 6555 57bd
00000300: 1d84 b2bb 2e8b 1dbd 54ac 9dbc a0c0 e7bc
00000310: 584f 7fbc bcc5 2fbd 97b6 51bd 5996 b3bd
00000320: 2a7d 673c c8b8 70bc 7298 9ebd ef35 33bc
00000330: 4450 d93b 127f 673c 96be 12bd e914 953d
00000340: 7e93 e3bc 8d44 153c 3bb8 efbd 5a51 e0bd
00000350: e3c3 b53d 825b afbd ac00 c93c 4619 873d
00000360: 92e9 a73d f24f b83c e163 cbbd 3817 1ebb
00000370: b6a5 093d a800 c5bc 4836 b53c 0990 7bbd
00000380: 0e27 f43b 67a9 673c 6224 703c 16a1 603c
00000390: 2684 1a3d 32d5 7abd b2e3 23bd 1e8b d63c
000003a0: 3b3d cfbd ec86 c43d 5141 02be e0cc 2bbb
000003b0: 350e c63c 6796 7dbc c651 afbc 6b17 c2bd
000003c0: 68e2 673d f16b 0dbe 7d4b 593d 6867 213d
000003d0: 1db5 5cbd 9969 e33c e73b 353d d4fd a73c
000003e0: ae29 693d a16a 98bd 3eb3 963c 6a8a 4e3c
000003f0: bc70 f5bc 32d5 81bd de9b a13c df58 57bd

bias f4 [300]
-0.025874898 -0.0065433434 -0.13919705 -0.21537343 0.06583613 -0.13344914 -0.017829902 0.044257276
0.054834664 0.01087755 -0.15474601 0.040723328 0.06559178 0.01370916 -0.002320027 0.021715678
-0.021491485 -0.03238275 0.002662311 -0.09186392 0.044619903 -0.14210209 0.02309504 0.012392032
-0.06910705 -0.12794103 0.059914097 0.03879678 0.015383641 0.055548508 -0.008471593 -0.06118096
0.039753243 0.042294957 0.0131704295 -0.018868951 -0.12620707 0.013108166 0.042682756 -0.08456867
-0.030689033 -0.09324235 0.033567306 0.019434934 0.044005398 -0.008426366 0.015954126 -0.025889179
0.01221834 0.0547656 0.05824793 0.01908705 0.036899146 -0.024167852 0.010526325 -0.03056311
0.01464242 -0.02876569 0.06716284 0.056813557 0.040857125 0.027920023 0.049656216 0.04586369
0.049222827 -0.013423277 0.02306961 0.048746157 0.0015254597 -0.02811888 -0.21273749 0.035723567
-0.010443976 0.022595976 0.03366168 -0.13293082 -0.0102628255 0.0049077338 0.022308314 -0.16243498
0.01719312 0.011171896 0.011869978 -0.008765776 0.026785832 0.041263524 0.018120805 0.05358423
0.012212706 -0.15158604 0.054327775 0.021868533 0.043898996 -0.014614267 -0.003781554 0.011126708
0.006899539 -0.02848976 0.016372222 0.017176358 0.065507784 0.058954403 -0.0627049 -0.2042912
0.024843963 -0.07316136 0.053829893 0.060492985 0.046748348 0.026379451 0.037870772 0.006593592
-0.067250945 0.038938407 0.019764727 0.047217965 0.044281796 0.005095775 0.055988282 -0.13554159
0.02448585 0.024649613 0.03533548 -0.0015088515 0.012676929 0.0567788 -0.21737723 0.0260369
0.017169522 -0.10802819 0.058632646 -0.0937696 0.024754312 0.04301346 0.031611823 0.0110616125
0.0430106 0.0074335854 -0.21171802 0.056170568 -0.059572287 0.011423806 0.0053828876 0.039773807
0.031568926 0.030619727 0.021789 0.054006647 0.0355534 0.010298171 0.04751689 -0.0024452177
0.024634857 0.050575543 0.046853162 0.032309018 -0.03233483 0.00484795 0.04548845 0.06098905
0.010097035 -0.0007707774 0.011335444 0.041647963 -0.06289805 -0.036765147 0.01875718 -0.0152415745
0.035858158 0.064460404 0.0149561735 0.037231967 0.017677436 -0.08206107 0.04955373 0.033686217
0.047538288 -0.0070360503 -0.01168613 0.027304748 0.04331215 0.032371663 -0.03056336 0.022881934
0.030369647 0.034329742 0.035917427 -0.048830125 0.071115546 0.023817997 0.03996335 0.04219813
0.020605106 0.03447825 0.047303397 0.024949044 0.0031646925 -0.020976264 -0.13366702 0.052482236
0.011949191 0.017318936 -0.095088996 0.049597517 -0.015279971 -0.11150808 -0.05842807 -0.23248862
0.05614852 0.054652084 0.02070427 0.022178598 -0.18036842 0.026434425 -0.075045414 0.030191464
0.039802726 0.0071794447 0.029349158 -0.03858826 0.047351703 0.06220344 -0.033506136 0.01404601
0.06762226 0.032731168 -0.101634204 -0.013262263 -0.005555008 -0.15182553 0.018344283 -0.108346775
-0.027227215 0.024504261 0.023878256 0.0534893 0.05015593 -0.016024329 0.027931599 0.012003874
0.016973093 0.02836595 0.020744035 0.027122008 0.028293118 0.044053573 0.03502153 0.06260952
0.0026896903 0.0034378562 0.0062141707 0.06953411 0.053788528 -0.09893979 -0.007120043 0.000436208
00000000: 98f7 d3bc 8b69 d6bb ac89 0ebe da8a 5cbe
00000010: 18d5 863d e4a6 08be 0410 92bc 1e47 353d
00000020: 509a 603d c037 323c bd75 1ebe 81cd 263d
00000030: fc54 863d 629c 603c 980b 18bb 14e5 b13c
00000040: e90e b0bc c6a3 04bd 2b7a 2e3b 2723 bcbd
00000050: 5cc3 363d 3683 11be cf31 bd3c f307 4b3c
00000060: ff87 8dbd f902 03be 7c68 753d 5fe9 1e3d
00000070: ab0b 7c3c d586 633d 70cc 0abc e398 7abd
00000080: 4cd4 223d 7a3d 2d3d c9c8 573c 0f93 9abc
00000090: 6d3c 01be a2c3 563c 1dd4 2e3d 5732 adbd
000000a0: 9167 fbbc d8f5 bebd df7d 093d 0336 9f3c
000000b0: 013f 343d be0e 0abc 3ab2 823c 8b15 d4bc
000000c0: 6f2f 483c e551 603d 6295 6e3d 725c 9c3c
000000d0: 8f23 173d a9fb c5bc 9b76 2c3c 7d5f fabc
000000e0: c3e6 6f3c 06a6 ebbc ac8c 893d 55b5 683d
000000f0: cd59 273d 88b8 e43c 5164 4b3d 91db 3b3d
00000100: e09d 493d 4eed 5bbc 7bfc bc3c 0daa 473d
00000110: eff1 c73a 9159 e6bc dbd7 59be e052 123d
00000120: 361d 2bbc 321b b93c d4e0 093d 041f 08be
00000130: 6925 28bc 0ed1 a03b edbf b63c 5b55 26be
00000140: 96d8 8c3c 540a 373c 4c7a 423c 549e 0fbc
00000150: f66d db3c f103 293d 1572 943c 237b 5b3d
00000160: cd17 483c 5f39 1bbe cd86 5e3d a325 b33c
00000170: 6fcf 333d ae70 6fbc f3d3 77bb cc4c 363c
00000180: 8715 e23b 5b63 e9bc 0a1f 863c 6fb5 8c3c
00000190: f228 863d 2c7a 713d 6d6b 80bd b631 51be
000001a0: 9185 cb3c a0d5 95bd bc7c 5c3d 7ec7 773d
000001b0: 327b 3f3d b819 d83c 621e 1b3d 0f0f d83b
000001c0: ddba 89bd e17d 1f3d a3e9 a13c a067 413d
000001d0: d460 353d 75fa a63b f853 653d 6acb 0abe
000001e0: 8d96 c83c fced c93c f0bb 103d a8c4 c5ba
000001f0: e5b2 4f3c e390 683d 2398 5ebe 564b d53c
00000200: 19a7 8c3c e23d ddbd c928 703d 470a c0bd
00000210: 8ec9 ca3c e22e 303d 667b 013d c43b 353c
00000220: e22b 303d 6f95 f33b 9ccc 58be 1c13 663d
00000230: 1202 74bd ea2a 3b3c ef62 b03b dce9 223d
00000240: 6b4e 013d 39d6 fa3c d87e b23c 1336 5d3d
00000250: 71a0 113d a9b9 283c 12a1 423d f23f 20bb
00000260: 0acf c93c 4d28 4f3d 1ae9 3f3d 7656 043d
00000270: 8771 04bd 8ddb 9e3b 1952 3a3d a7cf 793d
00000280: 096e 253c ff0d 4aba 4cb8 393c 0e97 2a3d
00000290: b1d0 80bd 0d97 16bd a8a8 993c ccb7 79bc
000002a0: 01e0 123d d103 843d bd0a 753c 8c80 183d
000002b0: 45d0 903c a20f a8bd daf8 4a3d 8ffa 093d
000002c0: 82b7 423d ab8e e6bb 2f77 3fbc 35ae df3c
000002d0: 1568 313d 2698 043d 0360 fabc e572 bb3c
000002e0: c4c9 f83c 589d 0c3d 271e 133d 1902 48bd
000002f0: 07a5 913d f61d c33c 9cb0 233d f2d7 2c3d
00000300: 0acc a83c 1139 0d3d 35c1 413d f061 cc3c
00000310: bb66 4f3b 6ad6 abbc 02e0 08be 9df7 563d
00000320: 8ac6 433c 71e0 8d3c 05be c2bd c426 4b3d
00000330: d858 7abc 595e e4bd 4652 6fbd 7f11 6ebe
00000340: fefb 653d ddda 5f3d 009c a93c e4af b53c
00000350: 80b2 38be 028d d83c 69b1 99bd 1754 f73c
00000360: 2f08 233d 8c41 eb3b a56d f03c b90e 1ebd
00000370: dcf3 413d 09c9 7e3d bb3d 09bd 3c21 663c
00000380: 8a7d 8a3d 1e11 063d 9825 d0bd f649 59bc
00000390: c906 b6bb 2778 1bbe c046 963c eae4 ddbd
000003a0: 9c0b dfbc 29bd c83c 559c c33c 9917 5b3d
000003b0: 4e70 4d3d 7445 83bc cfd0 e43c e6ab 443c
000003c0: 280b 8b3c b55f e83c 65ef a93c f92e de3c
000003d0: f8c6 e73c 8571 343d bc72 0f3d 6c39 803d
000003e0: 8445 303b a84d 613b 3ea0 cb3b e667 8e3d
000003f0: 5c51 5c3d f2a0 cabd 404f e9bb d9b2 e439

weight f4 [100, 300]
0.046733364 0.062788144 -0.073599726 -0.07546552 0.057949062 0.012306167 0.009956916 -0.049497187
0.03178003 -0.10241074 -0.07103932 0.054723762 -0.04977022 -0.13522147 -0.007035674 0.03528952
-0.07092912 0.07235708 0.014236307 -0.013408759 -0.004474612 0.09222462 -0.11903138 -0.03257411
0.054045618 -0.021615872 0.0013747134 0.033061676 0.017739307 0.02012955 -0.021340935 0.01049044
-0.060846005 -0.007719727 -0.14528784 -0.029565819 -0.030845786 -0.06526299 0.04327656 -0.00436014
-0.120570585 -0.09000173 -0.11320372 0.035693865 0.06270414 0.044104114 0.10564638 0.054722674
-0.06171527 0.052990798 0.16654706 -0.021051237 0.01678774 0.005530096 0.066387 -0.034590133
-0.08947127 3.1938864e-05 0.18661384 0.005579508 -0.14835244 -0.21775527 0.11013677 0.1329274
0.24665575 0.012352038 -0.100278884 -0.013838059 0.08299392 0.013024301 0.0063658105 0.02415316
-0.08024701 -0.018575663 -0.10120524 -0.033524223 -0.025546975 -0.001285121 -0.031755697 -0.011048616
-0.02399489 -0.02962957 0.04460069 0.03979589 -0.06974772 -0.0048184977 -0.094649665 0.12863459
-0.11765253 -0.014473356 0.09648287 0.056102093 0.0434925 -0.10237887 -0.03385955 -0.08438074
-0.009685856 -0.10183847 -0.043431714 -0.16105779 -0.08665539 0.013255243 -0.04253852 -0.027999988
-0.07654348 -0.13131404 0.072273806 0.12036989 0.2091694 -0.027025498 -0.1109427 -0.032585315
0.056561146 -0.029441886 0.07602798 0.08597413 -0.023815485 -0.041628335 -0.1592374 -0.05203295
-0.027807556 0.054315824 -0.003985392 -0.059917893 -0.021677403 0.21405104 -0.092583455 -0.032423414
-0.080301926 -0.005839295 0.107810356 0.11684929 -0.061942264 -0.08043162 -0.042920213 -0.045145344
-0.037561975 -0.014623148 -0.02284168 0.06034802 0.011392362 -0.060321663 -0.16436303 0.049644925
0.05973982 0.1394876 0.042341806 0.0025966659 -0.04871135 -0.042952925 0.04093165 -0.076927535
-0.07504995 0.26185673 0.085508145 -0.106331095 0.054918762 -0.077359974 0.027461898 -0.077169366
-0.037066687 -0.09568889 -0.07313708 0.09303363 -0.05798671 -0.06352132 -0.1252783 0.009710825
0.03945248 0.26318952 -0.13836895 0.01571807 -0.05868142 0.037478056 -0.017478755 -0.03508357
0.0919703 -0.066989474 0.2082235 -0.076558985 -0.023413807 -0.070467174 -0.028008722 -0.06008348
-0.05926447 0.06884879 -0.060180448 0.05895286 0.12971115 -0.04442194 0.039056744 0.016095497
0.09773127 0.18621306 -0.014921783 -0.114434145 -0.0076136077 -0.04226729 -0.04620215 0.10219468
-0.04252603 -0.059260964 -0.022107532 -0.0062708557 -0.06267312 -0.018300103 0.052612297 0.012662766
0.04798136 0.05905256 -0.07518882 0.10860189 -0.032050688 -0.048446774 -0.028230522 0.004564563
0.14728802 -0.057863027 -0.14139147 -0.05975795 0.10510224 0.13133994 0.07821401 0.0066652847
0.24409546 -0.043790456 -0.021323252 0.007973189 0.0851973 -0.1062693 0.08350725 -0.002078602
-0.035594784 0.0058887335 0.048405085 0.17335041 -0.082825504 0.004064906 0.059729055 -0.08463812
-0.07353609 -0.05397693 -0.011436298 0.04608607 -0.15676592 0.021267004 -0.023315284 0.10275189
-0.029725421 -0.05414338 -0.059532363 -0.020062296 0.041878387 -0.13089189 -0.04460263 -0.12649873
00000000: 7c6b 3f3d 1297 803d 74bb 96bd ab8d 9abd
00000010: ff5b 6d3d ce9f 493c 5522 233c 90bd 4abd
00000020: c72b 023d b9bc d1bd 107d 91bd 0626 603d
00000030: dcdb 4bbd 7f77 0abe 838b e6bb be8b 103d
00000040: 4943 91bd f32f 943d 663f 693c 69b0 5bbc
00000050: c49f 92bb 43e0 bc3d b9c6 f3bd 6e6c 05bd
00000060: f05e 5d3d c513 b1bc ba2f b43a ae6b 073d
00000070: 0652 913c bae6 a43c 2fd3 aebc 18e0 2b3c
00000080: a939 79bd c3f5 fcbb 56c6 14be 0434 f2bc
00000090: 4db0 fcbc 9aa8 85bd c342 313d 81df 8ebb
000000a0: b6ed f6bd d452 b8bd 5ad7 e7bd bb33 123d
000000b0: 076b 803d 84a6 343d 215d d83d e224 603d
000000c0: 27c9 7cbd e10c 593d 508b 2a3e a573 acbc
000000d0: 7186 893c cf35 b53b e8f5 873d 62ae 0dbd
000000e0: b73c b7bd 18f6 0538 b317 3f3e 4ed4 b63b
000000f0: b4e9 17be 3dfb 5ebe 638f e13d 1f1e 083e
00000100: 5393 7c3e 3460 4a3c 045f cdbd 07b9 62bc
00000110: b7f8 a93d e163 553c 4a98 d03b d9dc c53c
00000120: 8b58 a4bd fd2b 98bc b144 cfbd b250 09bd
00000130: e447 d1bc 8171 a8ba 4312 02bd 4105 35bc
00000140: ee90 c4bc b6b9 f2bc 37af 363d 0401 233d
00000150: e5d7 8ebd 7de4 9dbb afd7 c1bd c9b8 033e
00000160: cff3 f0bd a821 6dbc d098 c53d 4fcb 653d
00000170: 3125 323d 03ac d1bd 50b0 0abd cfcf acbd
00000180: 6db1 1ebc b090 d0bd 74e5 31bd 55ec 24be
00000190: 6278 b1bd 852c 593c df3c 2ebd 3b60 e5bc
000001a0: d4c2 9cbd 3077 06be 4a04 943d 7d84 f63d
000001b0: 8130 563e 9464 ddbc ed35 e3bd 2e78 05bd
000001c0: a9ac 673d 1c30 f1bc 8fb4 9b3d 3413 b03d
000001d0: b118 c3bc 7982 2abd 210f 23be 8120 55bd
000001e0: accc e3bc 457a 5e3d e497 82bb 776c 75bd
000001f0: cf94 b1bc 3230 5b3e 659c bdbd 6ace 04bd
00000200: 5675 a4bd 8f57 bfbb adcb dc3d ae4e ef3d
00000210: 2cb7 7dbd 55b9 a4bd 1bcd 2fbd 53ea 38bd
00000220: 96da 19bd ee95 6fbc 7a1e bbbc 7c2f 773d
00000230: 08a7 3a3c d913 77bd c84e 28be 7a58 4b3d
00000240: beb1 743d d6d5 0e3e 9a6e 2d3d d32c 2a3b
00000250: 8d85 47bd 68ef 2fbd f2a7 273d 2f8c 9dbd
00000260: cab3 99bd 1612 863e e51e af3d 1ec4 d9bd
00000270: 7ff2 603d e86e 9ebd c6f7 e03c f90a 9ebd
00000280: 3dd3 17bd 89f8 c3bd e5c8 95bd 6a88 be3d
00000290: 7983 6dbd 7717 82bd f448 00be 271a 1f3c
000002a0: ec98 213d c7c0 863e 97b0 0dbe 2fc3 803c
000002b0: ee5b 70bd 9782 193d 9b2f 8fbc cab3 0fbd
000002c0: ed5a bc3d c731 89bd 8b38 553e f5ca 9cbd
000002d0: 50ce bfbc 1851 90bd 8c72 e5bc 181a 76bd
000002e0: 4dbf 72bd 9800 8d3d c67f 76bd 8e78 713d
000002f0: 00d3 043e c8f3 35bd f7f9 1f3d b4da 833c
00000300: 5527 c83d a3ae 3e3e 7e7a 74bc 735c eabd
00000310: 927b f9bb 7720 2dbd 773e 3dbd 724b d13d
00000320: c62f 2ebd a0bb 72bd db1a b5bc c07b cdbb
00000330: c45a 80bd 19ea 95bc fe7f 573d 7d77 4f3c
00000340: 1a88 443d 19e1 713d 99fc 99bd ab6a de3d
00000350: 9547 03bd 2070 46bd b243 e7bc 5492 953b
00000360: acd2 163e c801 6dbd edc8 10be c1c4 74bd
00000370: d83f d73d fa7d 063e ab2e a03d 7668 da3b
00000380: 29f4 793e 9f5d 33bd 1aae aebc faa1 023c
00000390: ec7b ae3d b8a3 d9bd d905 ab3d 2839 08bb
000003a0: d6cb 11bd 47f6 c03b 6944 463d c582 313e
000003b0: 6ba0 a9bd e732 853b 74a6 743d c056 adbd
000003c0: 179a 96bd ea16 5dbd 4f5f 3bbc bfc4 3c3d
000003d0: 3f87 20be 2438 ae3c b2ff bebc 956f d23d
000003e0: ba82 f3bc 73c5 5dbd 35d8 73bd af59 a4bc
000003f0: ac88 2b3d 8608 06be 3fb1 36bd e288 01be

bias f4 [100]
0.085489966 0.07336673 0.036137033 0.009971478 0.075248614 0.048633672 0.08756897 0.02414683
0.10709942 0.046207994 -0.039951492 0.07087819 0.08316514 0.08276625 0.05348132 0.07220054
0.032426685 -0.047309592 0.04065208 0.09279814 0.07761257 0.0447044 -0.010112582 0.029355368
0.06709371 0.05227146 0.084653564 0.09323364 0.07096604 0.048988637 0.07051429 0.1282484
0.017399253 0.08825795 0.058821876 0.029820558 0.027326573 0.113442935 0.017966842 0.08062192
0.08631501 -0.011434429 0.01574777 0.09005588 -0.04400262 -0.019455273 0.04460441 0.04610512
0.07512735 0.050189007 0.086232185 0.019221198 0.062587336 0.08403427 0.048727952 0.079606384
0.00023258958 0.0616616 0.0880033 0.02702669 0.07330043 0.05016835 -0.047102284 0.060778823
0.03213564 0.097152606 0.05807603 0.06550894 -0.052919168 0.06561106 0.037383147 0.048350926
0.04678836 0.0021014158 0.09554 0.07315136 0.098357335 0.035276797 0.087054096 0.07092136
0.030531105 0.0655312 0.07808801 0.10463694 0.036734074 0.050251827 -0.05271302 -0.0215839
0.059056766 0.017227707 0.023470558 0.047942724 0.031983007 0.055786572 -0.010223692 -0.024947086
0.07810875 -0.017232088 0.060331423 0.026981872
00000000: 5d15 af3d 4c41 963d 6d04 143d 695f 233c
00000010: f21b 9a3d 1a34 473d 5c57 b33d 93cf c53c
00000020: f156 db3d 9844 3d3d 2da4 23bd 9628 913d
00000030: 7c52 aa3d 5a81 a93d 3b0f 5b3d e0dd 933d
00000040: d8d1 043d b4c7 41bd cc82 263d f40c be3d
00000050: 57f3 9e3d f61b 373d 3eaf 25bc ab7a f03c
00000060: 6d68 893d 991a 563d d95e ad3d 47f1 be3d
00000070: a556 913d 4fa8 483d cc69 903d 8c53 033e
00000080: e188 8e3c 96c0 b43d 35ef 703d 3e4a f43c
00000090: fadb df3c c554 e83d 332f 933c 1b1d a53d
000000a0: edc5 b03d 7957 3bbc 7801 813c 386f b83d
000000b0: 173c 34bd aa60 9fbc 1db3 363d b9d8 3c3d
000000c0: 5edc 993d fd92 4d3d 809a b03d c675 9d3c
000000d0: ca2d 803d 291a ac3d f696 473d ac08 a33d
000000e0: 4ae3 7339 e090 7c3d 133b b43d 1467 dd3c
000000f0: 891e 963d 547d 4d3d 53ee 40bd 37f3 783d
00000100: a9a0 033d f2f7 c63d 22e1 6d3d 8d29 863d
00000110: c5c1 58bd 175f 863d 121f 193d 9f0b 463d
00000120: 27a5 3f3d e8b7 093b 7aaa c33d 61d0 953d
00000130: 926f c93d 677e 103d 6b49 b23d 383f 913d
00000140: 5e1c fa3c 3935 863d 9bec 9f3d e44b d63d
00000150: 7876 163d dcd4 4d3d 9ce9 57bd b8d0 b0bc
00000160: 82e5 713d 1f21 8d3c 5445 c03c 975f 443d
00000170: 9d00 033d 7680 643d 4681 27bc d55d ccbc
00000180: 7bf7 9f3d 4f2a 8dbc 151e 773d 1609 dd3c

weight f4 [9, 100]
-0.32341307 0.049048703 0.12281349 0.073839284 0.236263 -0.14351533 -0.2131874 0.20957379
0.07212661 -0.003608776 0.04619137 0.20038672 0.097976334 -0.017514559 0.095476 0.13941981
0.18092756 -0.06556048 0.21542214 -0.12780805 0.34571275 -0.25215983 -0.027687697 -0.10693743
-0.21309674 -0.44546118 -0.10542934 -0.30686715 -0.044801727 0.056815736 -0.11742229 0.14500624
-0.2065926 -0.17172247 -0.43631014 -0.26070046 0.088560194 -0.33261397 0.024151642 -0.21747789
-0.15086836 -0.18958457 -0.08920438 0.20316577 -0.03006932 -0.022755506 -0.041998222 0.09995406
-0.33975106 0.25259152 0.07969164 -0.07294954 -0.28507492 0.16383564 -0.10588984 0.11353433
-0.06516888 0.2725231 0.22334969 0.052263528 -0.3018078 0.062464297 0.03129914 0.26832545
0.11746334 0.15849145 0.10964271 0.12731268 -0.05642814 0.22141676 0.11871841 0.17168657
-0.23503883 -0.08677533 0.2700971 -0.2951097 -0.093103915 -0.031148544 0.24516118 0.27630463
0.10005565 -0.026181048 0.256461 -0.17806336 -0.40729135 -0.23752776 -0.08654695 -0.07135522
-0.24371877 -0.18310161 -0.38923508 -0.19639127 -0.24870045 0.17861739 -0.14299661 -0.055156954
0.20125794 0.024717748 0.13350469 0.028471867 -0.09198303 0.04300231 -0.025956871 -0.029271735
-0.016156813 -0.09278978 -0.04810548 -0.2787329 0.024448628 0.02609121 0.023261113 0.05827946
-0.012667986 -0.023780268 -0.06977471 0.08247435 -0.056668863 -0.14784504 -0.10255981 0.101669684
0.08988692 -0.014846053 -0.19563286 -0.19811851 0.021168947 -0.14391565 0.0057150726 0.025201658
0.01827314 -0.0013856532 0.021842223 0.06529556 -0.09126323 0.045145396 -0.13753162 -0.20690174
0.01963345 -0.0640742 0.0022592936 0.013416874 -0.035505585 -0.10238634 0.040732857 0.098792516
0.08828011 -0.13413769 -0.09280575 0.020998241 -0.1694804 -0.03257673 -0.008304166 0.040926497
-0.06569121 0.09430967 -0.0893736 0.020751959 -0.1731332 0.13261175 0.1332996 -0.06548031
0.0038066679 0.0087153185 0.1257733 0.13391612 0.0037136197 0.1783179 -0.02662472 0.03308944
0.040708613 -0.025002452 0.02249553 0.09554928 -0.18518035 -0.061049197 0.027445396 -0.12067205
0.07628868 0.024519013 0.063500814 0.12270764 -0.044783518 0.03443443 -0.023952235 0.0054308036
-0.067064814 0.0967464 0.24941128 -0.17201349 -0.010946839 -0.0062547796 -0.2144478 -0.18064804
-0.04304014 0.09018371 0.024892773 -0.03720274 0.08672284 -0.008061095 0.10937781 0.09427985
0.0977219 0.071301915 0.0112619335 0.04224529 0.061899424 0.10116879 0.010912775 -0.14328678
-0.096076496 0.040923297 0.111320175 -0.05279124 -0.017820297 -0.049119763 -0.084538616 -0.10708904
0.07429666 -0.10065889 0.09586961 0.044497013 0.037800282 -0.11694282 -0.016017871 -0.19397402
-0.0068701846 0.0060968394 0.05362942 0.038869396 -0.011187394 0.08767964 0.03310272 0.017282324
-0.09470558 0.10513394 -0.038082935 -0.015541301 -0.07555283 0.025372196 0.03798852 -0.00058184564
-0.01050567 -0.17845707 0.16554642 -0.07809932 -0.008343059 -0.060532697 -0.030381037 0.039396424
-0.007016886 -0.1610155 -0.027447136 -0.013664165 -0.007074918 0.087166816 -0.095107034 -0.0518006
00000000: 6696 a5be 4be7 483d a485 fb3d 0d39 973d
00000010: eeee 713e aff5 12be cc4d 5abe 839a 563e
00000020: 1eb7 933d 3781 6cbb 2933 3d3d 2d32 4d3e
00000030: d1a7 c83d b17a 8fbc ec88 c33d 11c4 0e3e
00000040: 1345 393e 9344 86bd 9f97 5c3e 1de0 02be
00000050: 4301 b13e 181b 81be 4fd1 e2bc 0302 dbbd
00000060: 0836 5abe 7d13 e4be 56eb d7bd b11d 9dbe
00000070: 0482 37bd 9eb7 683d 197b f0bd 847c 143e
00000080: 038d 53be 04d8 2fbe 0b64 dfbe 887a 85be
00000090: 0c5f b53d 614c aabe aad9 c53c 86b2 5ebe
000000a0: 3c7d 1abe 7522 42be c9b0 b6bd b00a 503e
000000b0: ef53 f6bc c169 babc 5406 2cbd b7b4 cc3d
000000c0: daf3 adbe ad53 813e 5f35 a33d 9266 95bd
000000d0: 57f5 91be 88c4 273e c6dc d8bd b084 e83d
000000e0: 4377 85bd 2688 8b3e c8b5 643e 4812 563d
000000f0: 8d86 9abe 90da 7f3d 8733 003d f461 893e
00000100: 9f90 f03d 954b 223e 5b8c e03d 415e 023e
00000110: 3121 67bd 13bb 623e a322 f33d 9bce 2f3e
00000120: 05ae 70be 44b7 b1bd 2b4a 8a3e 9e18 97be
00000130: 44ad bebd 3b2b ffbc 880b 7b3e cd77 8d3e
00000140: fae9 cc3d a379 d6bc db4e 833e 3e56 36be
00000150: 7e88 d0be 7a3a 73be 873f b1bd b022 92bd
00000160: 6a91 79be fd7e 3bbe d249 c7be cb1a 49be
00000170: 55ab 7ebe 7ae7 363e b46d 12be 42ec 61bd
00000180: 9016 4e3e e07c ca3c 74b5 083e d53d e93c
00000190: 9961 bcbd 3123 303d 81a3 d4bc 47cb efbc
000001a0: 4b5b 84bc 9108 bebd 400a 45bd 14b6 8ebe
000001b0: 7d48 c83c 3cbd d53c 178e be3c 71b6 6e3d
000001c0: 628d 4fbc d6ce c2bc 0be6 8ebd 50e8 a83d
000001d0: 9c1d 68bd b164 17be e10a d2bd 3238 d03d
000001e0: a216 b83d dc3c 73bc fb53 48be 94df 4abe
000001f0: 806a ad3c a05e 13be 8145 bb3b b573 ce3c
00000200: 8db1 953c ce9e b5ba 76ee b23c aeb9 853d
00000210: 37e8 babd 61ea 383d 17d5 0cbe 0dde 53be
00000220: 54d6 a03c 5639 83bd a810 143b 73d2 5b3c
00000230: 4e6e 11bd eeaf d1bd 7fd7 263d bb53 ca3d
00000240: 34cc b43d 645b 09be f110 bebd 8104 ac3c
00000250: 458c 2dbe 2d6f 05bd 320e 08bc 8ba2 273d
00000260: 1d89 86bd 6e25 c13d 8209 b7bd 0300 aa3c
00000270: d449 31be 60cb 073e b17f 083e 8a1a 86bd
00000280: 4a79 793b b2ca 0e3c b7ca 003e 4f21 093e
00000290: 3360 733b f898 363e 161c dabc cb88 073d
000002a0: 13be 263d f1d1 ccbc 8c48 b83c 57af c33d
000002b0: eb9f 3dbe b90e 7abd 2bd5 e03c e822 f7bd
000002c0: 3d3d 9c3d 19dc c83c b70c 823d 254e fb3d
000002d0: ec6e 37bd 1e0b 0d3d 7a37 c4bc e2f4 b13b
000002e0: 4759 89bd fa22 c63d ac65 7f3e 4e24 30be
000002f0: 5f5a 33bc e5f4 ccbb 3498 5bbe cdfb 38be
00000300: dc4a 30bd 3db2 b83d eeeb cb3c e661 18bd
00000310: bf9b b13d af12 04bc 7901 e03d cb15 c13d
00000320: 6b22 c83d bd06 923d f983 383c 6609 2d3d
00000330: 408a 7d3d 9531 cf3d 7fcb 323c c5b9 12be
00000340: c1c3 c4bd 309f 273d d5fb e33d a13b 58bd
00000350: dffb 91bc ce31 49bd 9522 adbd 8051 dbbd
00000360: d928 983d 4026 cebd 4957 c43d 8042 363d
00000370: 78d4 1a3d b87f efbd e937 83bc 20a1 46be
00000380: 491f e1bb ffc7 c73b 86aa 5b3d 8435 1f3d
00000390: 554b 37bc 6291 b33d b896 073d a993 8d3c
000003a0: 00f5 c1bd 7750 d73d dafc 1bbd f1a0 7ebc
000003b0: 71bb 9abd 5ad9 cf3c da99 1b3d 0087 18ba
000003c0: f91f 2cbc 73bd 36be 0085 293e 89f2 9fbd
000003d0: 53b1 08bc 22f1 77bd a7e1 f8bc 255e 213d
000003e0: e8ed e5bb 3fe1 24be d1d8 e0bc a9df 5fbc
000003f0: b7d4 e7bb 8484 b23d 7ac7 c2bd de2c 54bd

bias f4 [9]
-0.01299596 -0.010795005 -0.026741363 -0.06998273 0.014468075 0.0102105215 0.03788998 0.046445463
0.008940639
00000000: 02ed 54bc 88dd 30bc b410 dbbc 1b53 8fbd
00000010: 810b 6d3c 084a 273c 8632 1b3d 993d 3e3d
00000020: c27b 123c
