models/classifier_143features_200x300x200_0.001lr_50e_0.3dropout_64bs_kaiming_norm.pth (torch_old, 609023 bytes, 8 tensors)

weight f4 [200, 143]
00000000: 879f 80bd 6f79 4bbf 88da d73e 4ab2 88bd
00000010: 00f7 1f3e 7a01 1dbd 67f4 f6bd 7841 16be
00000020: 102f b6be 4e17 343e d116 4fbe 9021 e7bd
00000030: c201 823e e5ee 0bbd 79fe 97be ea7e 8abd
00000040: 2d91 a4bd 7598 29be e8f8 5e3e 6993 533e
00000050: b763 b63c a3ed 98bd dfad 6bbe cbdb c0be
00000060: 43a3 93be 4cee 5bbe 0aa8 0fbe 4dc8 eabd
00000070: ec56 db3c 9053 23be 31d7 6abe d51c 863e
00000080: f89c 2ebe fdaa 9abe b27d a7be 8772 64be
00000090: 5513 973d 4b77 9c3c 0c11 5f3d ebbe 4c3e
000000a0: c0bf f2bc 79a1 81be 6303 0fbd 3e3f 033f
000000b0: 27a0 ce3e 7784 02be a75f 1bbd b31c ad3d
000000c0: c057 863e 29e1 0f3e 23c8 4dbd 9a43 5bbd
000000d0: a14f 6abe dae3 203e 3e2a a93c 1440 9bbd
000000e0: 837b 263e f9fd 383e e2e0 74be 5dc8 32be
000000f0: 7ae8 40be 3b62 febd 9c22 dbbd 52f4 1b3f
00000100: 3428 913a 78dd f43d 5a05 ec3d 2bea ea3b
00000110: 8439 c6be dea2 16be 3b51 93be b0d5 0bbe
00000120: 5513 6dbd 206c b5be 3373 3cbe ee7e 3b3e
00000130: 1079 ae3e 32e8 8e3e 859c 693d 3a4d b43d
00000140: d337 693e 00c7 1e3c 114e 4ebd 3570 1fbe
00000150: 525b 493e b2e2 5c3d 5603 a4bd 3bab bf3e
00000160: 2551 01be 0ac9 62bd 48b1 7d3e 1424 693e
00000170: 5ec4 c33d 220c debd 7a0d aabe 0c98 c63d
00000180: d514 293c bb69 4e3d f5e5 823d 5a3e a8bf
00000190: 77c3 183f fe1a 0a3e 4640 cebd 6b20 a6be
000001a0: 8fc2 823e 61a1 f33e fcb7 6c3e 74c5 813e
000001b0: 1057 06bf 5c8d 44be 5cb7 84be 15e8 fe3d
000001c0: ae0f b23d 538f c13d 0731 34be 449f 04be
000001d0: d20e f0bd fbfe 39bd 95fa 6bbe af37 b2be
000001e0: 2ea0 663d 7cd6 61be 3ea0 eabe a08b af3e
000001f0: 7fad a9be 4224 dcbd cc83 05bf 222c a1be
00000200: 5e97 09be ec74 11bf d361 a9be e4a8 673e
00000210: 005f a73e 40ca d83d 3dab 393d 87e5 ae3e
00000220: 934e a53e 6cec 33bf b889 263d 93c6 2b3e
00000230: 2022 bd3e 472e e23d 19ae 443d 1108 9fbd
00000240: ae3f 173f 34d8 9a3d d62d 8d3e 9b6e 663e
00000250: 04c9 8b3d bfc9 753d 93f1 1bbe a03e 6b3e
00000260: d8bc 86be 6f42 c3be 22e4 383e b84a 513c
00000270: 7f66 7b3d 72cb 5f3e a521 4fbe 11cc a73d
00000280: 04fe 30bd c797 9b3e b750 393e 477b 2b3e
00000290: f0cb 393e 290d a3be 5d78 d3bd 3b0a bfbd
000002a0: fc8e 0bbe 844a 0fbd f88d d9bc fa68 11be
000002b0: 9087 27be 2438 45be b4b6 d73e b288 593d
000002c0: f0c9 9e3e 43a2 a4be a134 65bd c20b c5be
000002d0: 319c 713d 6c78 6b3e 97c7 ffbc b43b 403e
000002e0: 9ba6 633c 5807 50be 4a37 1d3f 78df 743e
000002f0: 85be aabe 3e2b 423e 1272 493e efbe 343d
00000300: 4321 c13c 603a 0e3d 7f46 883d 0709 9cbd
00000310: 4717 83be c32b 9dbe a795 0fbf 2136 e13d
00000320: 7883 ae3d 6bbb a23d ac7a 9bbd 32e2 7dbc
00000330: d5d4 053e bf4f 1f3d 768d c93d 360d c33d
00000340: d35e 443f b27d 073e f712 bcbd a926 10be
00000350: 5f40 0ebf 9509 34be b03d d73e 0ded 38be
00000360: c99b d4bd 5c3c a5be 700a b7bb e5e2 943e
00000370: ef5b 2c3e eb0e 3c3e 4f7f 4e3e 5498 05bc
00000380: 33d7 0c3e e611 b23d 559a e53d b829 b03c
00000390: d1da 843d 6468 dd3d 8f79 d63d 78e1 fb3c
000003a0: e931 253e 3720 a93d 7963 2fbd 5b88 ab3d
000003b0: 38f0 0abc c01c b0bd 90e1 8bbd 23fd 5f3e
000003c0: 3f80 763e 9f80 083e 9430 8d3e 822a 18be
000003d0: b61b 4dbd 849d b83d defe 833e 3c9a 353e
000003e0: b25b 7d3e ccea c43e 3f40 863e a1c8 abbd
000003f0: ddb6 683d c8df 65be f8a7 cfbd 20c9 5c3e
-0.062804274 -0.7948217 0.42158914 -0.06674631 0.15621567 -0.038331486 -0.12058335 -0.14673412
-0.3558278 0.17587015 -0.20223548 -0.112856984 0.25391966 -0.034163374 -0.29686335 -0.06762488
-0.080355026 -0.16562064 0.21774638 0.20661701 0.022264345 -0.074672006 -0.23015545 -0.3766769
-0.28835496 -0.21477622 -0.14028946 -0.114639856 0.026774846 -0.15949845 -0.22933652 0.26193872
-0.17052066 -0.3020858 -0.32713085 -0.22309314 0.07376734 0.019099852 0.054459617 0.19994704
-0.02963245 -0.25318506 -0.03491534 0.51268375 0.40356562 -0.12745844 -0.037933018 0.084527396
0.26238823 0.14050736 -0.050239693 -0.053531267 -0.22881939 0.15711918 0.020650025 -0.07580581
0.16258053 0.18065633 -0.23913911 -0.17459245 -0.18838683 -0.1242108 -0.106999606 0.6091968
0.0011074604 0.11956304 0.11524458 0.0071690283 -0.38715756 -0.14710566 -0.2877291 -0.13655734
-0.057879765 -0.35434055 -0.1840332 0.18310139 0.34076738 0.27911526 0.057034034 0.08803792
0.22775201 0.009691 -0.05036742 -0.15570147 0.19663742 0.05392713 -0.08008449 0.37435326
-0.1262861 -0.055367507 0.24774659 0.22767669 0.095589384 -0.10842158 -0.33213407 0.096969694
0.010319908 0.0503938 0.06391517 -1.3144028 0.59673256 0.13486859 -0.10070853 -0.32446608
0.2553906 0.4758406 0.2311706 0.25345957 -0.52476597 -0.1919455 -0.25921142 0.1244661
0.08694397 0.09451165 -0.17596827 -0.1295138 -0.11721577 -0.045409184 -0.23044808 -0.34808108
0.056305103 -0.22054476 -0.4582538 0.34286213 -0.3314018 -0.10749103 -0.5215423 -0.31478983
-0.13436648 -0.56819034 -0.33082446 0.2262302 0.32689667 0.10585451 0.04532932 0.3415949
0.3228651 -0.70282626 0.040658683 0.16774969 0.36940098 0.11043983 0.048017595 -0.077652104
0.5908154 0.07560769 0.27574033 0.2250313 0.0682545 0.060006853 -0.15228872 0.22973108
-0.2631595 -0.38136622 0.18055776 0.012774162 0.061377045 0.21854952 -0.20227678 0.081932195
-0.043211 0.30389234 0.18097197 0.16746245 0.18144202 -0.31845978 -0.10325692 -0.09328123
-0.13628763 -0.034983173 -0.026556954 -0.14200202 -0.16360307 -0.19259697 0.4213158 0.05310888
0.3101344 -0.32155046 -0.055958394 -0.38485533 0.058986846 0.22995156 -0.031223102 0.18772775
0.013894702 -0.20315301 0.6141249 0.23913372 -0.3334848 0.18961808 0.1967242 0.0441274
0.02357543 0.03472364 0.06654071 -0.07618909 -0.25603697 -0.3069745 -0.56087726 0.109966524
0.085211694 0.079459034 -0.07591757 -0.015495824 0.1306947 0.03889441 0.09841435 0.09524004
0.7670719 0.13231543 -0.09183305 -0.14077248 -0.5556697 -0.1758178 0.4203925 -0.18059178
-0.10381276 -0.32272613 -0.005585961 0.29079357 0.16831945 0.18365066 0.20165752 -0.008153994
0.13753967 0.0869482 0.11211077 0.021504268 0.064870484 0.108109266 0.10472404 0.03074716
0.1613232 0.082580976 -0.042819474 0.08375617 -0.008480124 -0.085992336 -0.06830132 0.21873908
0.2407236 0.13330315 0.27576125 -0.14859965 -0.050075255 0.09014419 0.25780386 0.17734617
0.2474201 0.38460386 0.2622089 -0.08387876 0.056815017 -0.22448647 -0.10139459 0.21561098

bias f4 [200]
00000000: 1b58 a1be 9979 b0be 5333 25bf ae36 9ebe
00000010: 5684 bcbe c1fe a9be 3b4b e9be 1b5c 71be
00000020: 7b6e 55be 90bc eebe 4d20 9abe 4d58 15bf
00000030: 2482 6fbe c8d1 ddbe a64c 06bf 6ea9 edbe
00000040: 287b abbe 433f a7be 863d 5ebe 52b4 0bbf
00000050: 8c2e adbe 6c38 5abe 4d89 1fbf 119f bbbe
00000060: 76ce 6abe 5cba a9be 2ef9 b1be ce94 ddbe
00000070: 2e21 fabe d3ad f8bc 3a33 8abd 6400 12bf
00000080: f08e 02bf 9d8a 47be d4a0 c7be 2f79 95be
00000090: fbe8 bbbe 5309 91be 8206 c8be 57d7 a2be
000000a0: 456a edbe c482 41be d0a2 37be 2809 afbe
000000b0: 5bdc 70be fbb1 cabe 4107 dabe e2e7 92be
000000c0: ddb8 b33d 7371 66be bf8c d7be a37d 5cbe
000000d0: f4eb a4be 44a5 babe 190e e2be 3e72 04be
000000e0: fdaf b8be 3112 a5be 92d1 dfbe cf95 99be
000000f0: fdd6 0dbf abc8 2fbe d1bf 86be 5912 7bbe
00000100: 5d40 a3be 95ed 54be 01aa c3be fbd9 c43c
00000110: dc68 32be 23ee b9be bfa4 7ebf 4b7a febe
00000120: 0735 95be b2ce 52be c806 92be 76ac 74be
00000130: 8c2e d1be adf1 adbe 5d05 89be 8c41 a0be
00000140: 970b 68bf 897a d8be ac0d 7ebe c1a6 02bf
00000150: a899 07bf c196 70be d133 76bf c0e4 b0be
00000160: 6fa2 4cbf 914c 803c 7588 6bbe 3e7e 623d
00000170: 8025 18bf daa0 82bd 1496 26bf bced b0be
00000180: 1e7e dabe 03bc 2abf 8c50 97be bd4b 0abf
00000190: 1ac8 25bf f618 89be 1235 6fbe 14c5 acbe
000001a0: f482 bebe 9884 aabe 9d7b 90be bca8 c7bd
000001b0: 7b65 64be 21c8 9bbe 052b 4fbe b2e4 a5be
000001c0: efdd 1ebd eaee 9cbd 4778 21bf ca9a d2be
000001d0: ec09 e1be a6ad 31bf db1c 9dbe 43d2 d4bd
000001e0: 4b8c 24be 791a 80be 19bb 1cbf 97d1 afbe
000001f0: 78d7 bd3d 501e d1be 9f16 a0be f5e7 c1be
00000200: 0726 c4be d75f e2be 1174 85bd 40fa a5be
00000210: ee32 66be 623d b8be 971e 163e 161a 90be
00000220: 0219 52be d7df 0abf e8dc 71be 9e1c cebe
00000230: b1a3 1bbd c882 a5be 2cc7 45bd 493f 28be
00000240: e819 c3be 47ab 4cbf 5125 a7be d2a6 9bbe
00000250: 3703 ebbe d116 e2be 8424 0ebe 984d 92be
00000260: 11ba 8ebe 5ba8 febe db78 debe a73a 53be
00000270: b907 acbe 7ece a7be 1979 97be 514b 74be
00000280: aea8 d4be 0537 23bf 04a6 a4bb 662c 1cbf
00000290: f347 a9be f0a1 bebe 8d57 16be 9289 99be
000002a0: e48e a8be bcc3 97be ccdd a0be a5e6 9abe
000002b0: 9205 26be 4e49 5bbe 06e7 a0be e80f dabe
000002c0: deea 10bf 990a 05bf 0763 96be 34a1 2bbf
000002d0: f446 babe 207d 81be 3a12 c5be c633 edbe
000002e0: 445f 4dbf e268 f5be 15fd 86be 0286 2ebf
000002f0: 03ac 4fbf c487 6ebe 840d 8fbe b8c1 63be
00000300: e5f9 bbbe 37de bebe 2957 c0be 2d8c fcbe
00000310: 820f 39bf 9305 ebbd cd10 07bf 7ff2 62be
-0.31512532 -0.34467772 -0.6453144 -0.30901092 -0.36819714 -0.33202174 -0.4556521 -0.23570292
-0.20842926 -0.46628237 -0.3010277 -0.5833786 -0.23389488 -0.43324113 -0.52460706 -0.46418327
-0.33492398 -0.32665452 -0.21703157 -0.5457202 -0.33824575 -0.21310586 -0.6231888 -0.36644796
-0.22930321 -0.33149993 -0.34760422 -0.4327759 -0.4885344 -0.030356323 -0.06748052 -0.57031846
-0.50999355 -0.1948647 -0.3898989 -0.29194018 -0.36701187 -0.28327426 -0.39067465 -0.31804916
-0.4637014 -0.1889754 -0.17933202 -0.34186673 -0.23521559 -0.39588913 -0.4258366 -0.28692538
0.08775494 -0.22504215 -0.42099568 -0.21532302 -0.32211268 -0.36454213 -0.4415138 -0.12934205
-0.36071768 -0.3224044 -0.43714577 -0.29997107 -0.5540617 -0.17166393 -0.2631822 -0.24518718
-0.31885043 -0.20793755 -0.3821564 0.024029722 -0.17422813 -0.36314496 -0.9947013 -0.49702677
-0.2914202 -0.2058666 -0.285208 -0.23893914 -0.40855825 -0.33973446 -0.26761904 -0.31300008
-0.90642685 -0.42280987 -0.24809903 -0.51035696 -0.52968836 -0.23495008 -0.96172816 -0.34549522
-0.79935354 0.01566151 -0.23001273 0.055296175 -0.5943222 -0.06378336 -0.6507275 -0.34556377
-0.42674345 -0.66693133 -0.2955364 -0.5402182 -0.64758456 -0.26776856 -0.23360088 -0.3374411
-0.37209284 -0.33304286 -0.2821931 -0.097489804 -0.22304337 -0.30426124 -0.20231254 -0.32401043
-0.03878587 -0.07662757 -0.63074154 -0.4113372 -0.43952882 -0.6940559 -0.30686077 -0.10391667
-0.16069143 -0.25020197 -0.6122299 -0.34339592 0.09269613 -0.4084344 -0.3126726 -0.37872282
-0.38310263 -0.44213745 -0.065162785 -0.32417488 -0.22480366 -0.3598433 0.14660107 -0.28144902
-0.20517352 -0.542478 -0.23619425 -0.40256208 -0.037997905 -0.3232634 -0.04828565 -0.16430391
-0.38105702 -0.7994885 -0.32645658 -0.3040071 -0.4590089 -0.44158033 -0.13881117 -0.28574824
-0.27876332 -0.4973782 -0.4345158 -0.20627843 -0.33599642 -0.3277473 -0.29584578 -0.23856856
-0.41534942 -0.6375583 -0.0050246734 -0.61005247 -0.33062705 -0.37232924 -0.14681835 -0.2998777
-0.32921517 -0.2964152 -0.31419218 -0.30254093 -0.16213062 -0.21414682 -0.31426257 -0.4259026
-0.5660838 -0.51969296 -0.29372427 -0.6704285 -0.36382258 -0.25290775 -0.38490468 -0.46328562
-0.8022349 -0.47931582 -0.2636496 -0.6817323 -0.81121844 -0.23293978 -0.2794 -0.22241867
-0.36714092 -0.3727891 -0.37566498 -0.49325696 -0.7228929 -0.114756726 -0.5276001 -0.22162817

weight f4 [300, 200]
00000000: b686 cf3d 75de 863e 27de 63be c09f 97bd
00000010: 6be1 b4bd d928 a43d ba94 6e3e a267 c03d
00000020: 3153 92be 3be8 9bbb d56e 9c3d ae73 5bbe
00000030: 11e2 f53c ca18 723d 3412 3cbd 6ea0 01be
00000040: 2230 2c3e fae7 84be fc07 6fbe 5441 41be
00000050: 1739 d5bd 79ac 80be 0927 f8bd 6af2 0d3e
00000060: 8cd3 8dbe d177 2a3e 3484 9b3d fb39 a9bd
00000070: a5c2 1ebe 3df9 38be 3cb9 76be 2304 c13c
00000080: 83f4 0cbe edcf 233d 6c1d 74bd 6755 e93d
00000090: cad8 5ebd 6d25 b03e acf8 81be 9fc0 3cbe
000000a0: 9f7b 6b3e bf0f 5bbe 0765 2ebd 66fa 1abe
000000b0: 6990 b0bd adae 023d 8d95 bfbd f4d1 fd3d
000000c0: 0775 a0be fb5a 9dbc 625e e7be 0275 57be
000000d0: ffb1 913d 9e9d e9bd 99b2 00bd d238 5b3d
000000e0: 8fd7 9a3e 548d 97be 76b1 e23e eb21 623d
000000f0: 00d0 973d 4060 6abb 3064 0bbe 1760 c3be
00000100: 437e 3bbd e785 a5bd e634 03be 49c9 2fbe
00000110: 4b41 0bbf c54f a0bc 6b45 72be c014 a4bd
00000120: 74c2 fabd 8c65 82be b383 a0be 2b2f 1dbe
00000130: ad67 edbe d257 1fbe e533 59be ea23 143e
00000140: d9cc 33be a3e8 52be 4ad8 5f3d f366 b8bc
00000150: 3264 83be 8f5c 8e3d 788c 90bd bfc5 05be
00000160: 94f7 c7be 427c e8bd 5f07 44be 189c 8fbe
00000170: a228 ddbd 9d43 84be e693 5f3d eb34 fdbc
00000180: e1a9 8dbd cb68 dabe 1504 903e 50d4 f6bb
00000190: 520e 6bbe 55bd ebbc 7370 033e de24 a7be
000001a0: 6629 ca3e eded 4abe bc00 02bb 424c b23e
000001b0: b2a3 8abd 4433 9ebd 4d6c 8cbc d735 86bd
000001c0: 7b78 5dbe ff64 b5be b993 c0be 1f28 0bbe
000001d0: 1c84 37be 4098 16bc c39c c63d 0444 99be
000001e0: 0b5b 01bc 1808 c83c 3a60 79be 5309 c93d
000001f0: 63a3 1cbf d1dd cebe bf6a a63e 4316 8c3e
00000200: 4796 ea3d 3a97 953d 16b5 23be 3dce b8be
00000210: ee7d 303e a2cc cbb8 196f cbbe 49ee 293c
00000220: 2503 8c3a 45f3 4abe d5bf 803e ad35 b13b
00000230: 597a 763b 36ae b13e 910f f4be 9812 6bbe
00000240: d611 9cbe 31bd f8bc 711d 403e 2004 a63d
00000250: 53c0 97bd c778 7abe 34c9 a9bb d5a2 573e
00000260: f5bf 113d 769d 7439 16b1 bebe 56d2 523e
00000270: df3b 073e 661b dabd b431 163e 5c38 c23d
00000280: 4814 c5bd 2e28 613d a5fd 63be e2f3 04bf
00000290: 25d4 7dbe 0493 adbc 8809 9c3e 5b09 ef3d
000002a0: ddb4 323d d2c5 41be 6a07 38be b902 69bd
000002b0: eed3 f8be d302 6fbe e009 343d e6c6 b63d
000002c0: 2d16 823c 2729 4f3c 08e6 4d3b e4cf c5bd
000002d0: 4bd3 d33c 1e90 9abd e4f9 713d 91f3 b3be
000002e0: b178 fabd a7a8 afbd 520e 32be 865f f43d
000002f0: 52fd 18be 0705 8a3e 3402 8dbb ad9c 24be
00000300: c8f2 0f3e 2457 58bd 08b4 72bd 2e6b 89be
00000310: a071 4c3c 04be f63d 454b 26be 44a4 83be
00000320: 6f4d 89bd fffc a53e ddac babd 2b4a 16be
00000330: 18c6 85bb 002e 94bd fd9d 4ebd 516f 6c3d
00000340: a490 fa3b d9dd 08be 25a4 343e 8493 07be
00000350: 8e4d 7a3e c228 6b3d b248 3d3d f99b 39be
00000360: 0e5a 21be e38d 013e cb67 543d 333e 70be
00000370: 9617 3fbe 6907 e33d 5c5e 023e 43eb 5ebe
00000380: 2d7d d2be 868f 0bbe 0b18 533e e7fd 47be
00000390: 3357 b93e 0eec 0dbe 2287 98be a1cf 6ebd
000003a0: 1b30 6dbb fe11 86be e5cc 09bb 8b38 ba3d
000003b0: 75ac 89be a99f adbe 01c8 51be ec41 15be
000003c0: d036 553e 98ab b7be 1e37 033e 5a05 87be
000003d0: 8362 113e 5ce9 993d 8bc4 78bc 2de0 7dbd
000003e0: 8776 81be 752f 813c 0aa4 553e ae34 95bd
000003f0: 4940 963d 76de 4dbe ce50 343d 725d 2ebe
0.10133116 0.26341596 -0.22252713 -0.07403517 -0.088320576 0.080156036 0.23298922 0.093947664
-0.28579095 -0.0047579086 0.07638327 -0.21430847 0.030015023 0.059105672 -0.045915797 -0.12658855
0.16815236 -0.25958234 -0.2334289 -0.18872577 -0.1041128 -0.25131586 -0.1211682 0.13862005
-0.2770046 0.16647269 0.07593575 -0.08263012 -0.15503938 -0.18063827 -0.24094099 0.023561543
-0.13765149 0.039993215 -0.05959837 0.11393242 -0.054405965 0.34403554 -0.25385034 -0.18432854
0.22996376 -0.21392725 -0.042576816 -0.15134582 -0.08621294 0.031904865 -0.093546964 0.12393561
-0.31339285 -0.019208422 -0.45189196 -0.21040729 0.07114028 -0.11407016 -0.031420324 0.053520985
0.30242583 -0.29600012 0.44276017 0.055208128 0.0741272 -0.0035762936 -0.13612437 -0.38159248
-0.04577471 -0.080821805 -0.12813148 -0.17166628 -0.54396504 -0.019569287 -0.23659293 -0.0801177
-0.1224412 -0.254681 -0.3135048 -0.15350024 -0.4636816 -0.15560845 -0.21211202 0.14466825
-0.17558612 -0.20596556 0.05464963 -0.022510028 -0.2566238 0.06951248 -0.07058042 -0.13063715
-0.39056075 -0.11351825 -0.19143437 -0.28048778 -0.10798766 -0.25832835 0.054584406 -0.030909022
-0.069171675 -0.42658076 0.28128114 -0.007532634 -0.22954682 -0.028776804 0.12835865 -0.32645315
0.3948471 -0.19817324 -0.0019836864 0.34823805 -0.06769504 -0.07724622 -0.017141486 -0.06553238
-0.21627991 -0.35428616 -0.37612703 -0.13589524 -0.1792149 -0.009191573 0.09697869 -0.29934704
-0.0078952415 0.024417922 -0.24353114 0.098162316 -0.6118681 -0.40403607 0.32503316 0.27360734
0.114544444 0.07304235 -0.15987048 -0.36094847 0.17235538 -9.71791e-05 -0.39733198 0.010371753
0.001068209 -0.19819362 0.25146356 0.00540801 0.0037609546 0.34703225 -0.47668126 -0.22956312
-0.30482358 -0.030363651 0.18761231 0.081062555 -0.0740973 -0.24460135 -0.005181456 0.21058209
0.035583455 0.00023328312 -0.3724448 0.2058805 0.13206433 -0.10649757 0.14667398 0.09483406
-0.09623009 0.05496996 -0.22264726 -0.51934636 -0.24787958 -0.021188267 0.30476022 0.11671706
0.043629516 -0.18923119 -0.17971578 -0.056887362 -0.4859919 -0.23340921 0.04395473 0.089246556
0.015879715 0.012644089 0.0031417627 -0.096587926 0.025857588 -0.075470194 0.059076205 -0.35146764
-0.12230051 -0.0857709 -0.17388275 0.11932282 -0.14940384 0.2695696 -0.004303241 -0.16075392
0.14057457 -0.05281748 -0.059253722 -0.26839584 0.012478262 0.12047961 -0.1623965 -0.25711262
-0.067042224 0.32419583 -0.09115002 -0.1467673 -0.0040824525 -0.07235336 -0.050443638 0.057723347
0.007646637 -0.13365878 0.17640741 -0.13239866 0.24443647 0.057411917 0.046211906 -0.18125905
-0.1575701 0.12651782 0.051856797 -0.23461227 -0.18661341 0.11085398 0.12731308 -0.21769433
-0.41111127 -0.13628969 0.2061464 -0.1953045 0.3619934 -0.13859579 -0.29790598 -0.05830348
-0.0036192003 -0.26185602 -0.0021026668 0.09092816 -0.26889387 -0.33910874 -0.20486452 -0.14575928
0.2082169 -0.35873103 0.12813994 -0.2637127 0.14197735 0.07515213 -0.015183578 -0.06198137
-0.25285742 0.0157697 0.20863357 -0.072854385 0.0733648 -0.20104393 0.044022374 -0.17027834

bias f4 [300]
00000000: 0728 af3b fffd dcbe 80c5 debd ffa2 6dbc
00000010: 9288 18be 68ff 243e 9aa2 5bbd eee0 fb3b
00000020: 5f17 fdbe 917c 0c3e 05c9 babe c9bb dbbc
00000030: cffa 013e 3b9f d1be 69da abbd 8e6f b7bd
00000040: ca8e 6abd 26f5 a4be e77b 1fbe b43b 20be
00000050: c14c ccbe 1962 28bd b050 5d3b 5b0d f63c
00000060: e1ad 95be 3223 12bd 805f c13d 34d2 77be
00000070: eaf0 bc3d 0bda 65bd 420b e3bd 2fda 193c
00000080: c899 67bc ff5c 1f3d dcba 48be 26cd 6bbe
00000090: 8d3d 033d 8ed0 193e 8dec 8abc f49d b93d
000000a0: a600 3bbc 3c7a c43d 81db 75be efef 42bd
000000b0: 36c4 9bba 5453 92bd 83a1 5abe 1b33 a8bf
000000c0: d86f c23c 787b d0be 58e1 1dbd 4f2e e8be
000000d0: 5775 f0bd 8eee e3bc 098c 7fbd a04d 31bd
000000e0: e47b 973b acc7 17be cbc5 07bd cdd8 f7bd
000000f0: 530d b6bd 2099 b1bc e369 5abe 3dcf 87bd
00000100: 69bf 07be fa95 f6bc 3d1b b7be d997 9a3d
00000110: b27f 5fbe 153b b1bf bb10 303d 573f 4abd
00000120: b5cb 033e b1d2 25bf b454 30be 979f 7d3c
00000130: 5a70 25bc 57d7 08bf 3200 a6be e8b5 ca3d
00000140: ede9 063e 7a1b bcbe 9979 32bc 5b70 7cbd
00000150: 45ab 7cbe 6fa8 4cbc 4501 eebd 1d84 61be
00000160: 9fed 153d 338d 69be 60ab 4b3e d3b5 d2bd
00000170: 0b28 97bc 236d 26be 74dc 48be 5fae 4c3d
00000180: 705c 813d fb69 dcbd 9172 d5bd 47f0 a9bc
00000190: 9fc3 7fbf 1a1a dbbe 4e83 6ebc 77b2 01bd
000001a0: 432a a23d 7040 93be dded 93be 5e80 5fbe
000001b0: cffd 84bf 68a3 8b3d 237a cebd 02e8 5ebf
000001c0: 1e89 993c b84e 153d e636 f6bd dd8f 193d
000001d0: 398a 99be 449b 113e 0b92 e0bd c5e8 92bd
000001e0: 2c6d 4ebd a4f0 9abe fc59 603d 171c 273e
000001f0: 5f4e f9bd 3bf9 dd3d 2e86 3dbf 20ce 98bf
00000200: d10a 88bf 01ad 92bf c097 10be 79ee 43bd
00000210: 32b3 debe 6481 10bc d582 b6bd 5b0d 98be
00000220: 8d45 bebe bd33 5ebe 2b64 96bb 35e9 ebbd
00000230: f36b d1bb 7da4 4ebe 9f20 203e 2eca ba3c
00000240: a568 70bb c044 333e bffb bd3d 3d46 a43d
00000250: eaa6 dfbd 013c 903c c35f 97bb e3e2 02be
00000260: 3d39 713d 65f2 06bd ef34 4cbd d352 01bb
00000270: 6373 b8bd 3429 b6bc 1a18 6cbe b097 fa3c
00000280: d6cb 7fbd d282 a4bd d97f 9e3d a59f d43d
00000290: 380b ea3c 9e47 56be c304 5dbd d960 22be
000002a0: 3a62 093e 4670 903d f2a7 25be abf4 39be
000002b0: 8ec3 28bd 5969 323d 333e db3d 3b67 283e
000002c0: e578 8cbc 500b 16be 6327 a83d cf73 cc3d
000002d0: 47b0 a83d e1c7 a73c ff71 03be e4a5 d83c
000002e0: 6ec7 103e 2e4d 56be bc99 8cbf dc77 a3bc
000002f0: 133f 0a3e 9321 a9bf fd6a e73d eded 8bbf
00000300: fb75 6a3d 2d54 df3c 91b4 8bbd cdaf d5bc
00000310: 9cde d9bd 779c 80be 3f72 1e3e 72f6 ed3d
00000320: 62f9 b5bd e15b 29bd 27b8 18bc 6df2 803d
00000330: 6a27 74be 4b43 283e fc43 31be b591 c0bc
00000340: 9dbc 94be 8ece a1bf 86d8 14bd 3c15 6ebf
00000350: 1e6c 473d 72ea b1bd 84b8 bcbd dc37 203e
00000360: 7460 17be 948b c43d 210c 413e 2b47 9b3d
00000370: 08d8 8ebf e6cc a5be deb4 04bd 4fe4 ce3c
00000380: 0480 a7be 2096 dc3d 58ef 313d 9717 083e
00000390: b6bc 1b3d 3d98 8bbe 0f87 39bd f7b1 7a3e
000003a0: 34d5 023d 4360 783c 0699 c5bd 5aa5 853d
000003b0: 6c1b 47be f6a7 1bbe 38bf 58be b5a4 003e
000003c0: 76a4 0cbf b402 c2be b195 d6bc ff80 febd
000003d0: b306 40bf d871 f73c 86d7 25be e501 b9bd
000003e0: 5958 c3bd 0b71 66bc bb8e 973d 49d6 333e
000003f0: 1592 55bd 4c81 a4be c563 90bf a489 e2bd
0.005345348 -0.43162534 -0.10877514 -0.014504193 -0.14895847 0.16113055 -0.053621866 0.007686726
-0.49431893 0.13719393 -0.3648149 -0.026822941 0.12693332 -0.40941796 -0.08391268 -0.08956824
-0.05726508 -0.32218283 -0.15574609 -0.15647775 -0.3990231 -0.04110918 0.0033770017 0.030035665
-0.29234222 -0.035678096 0.09442043 -0.2420128 0.09225638 -0.056116145 -0.11086132 0.009390398
-0.014135785 0.038907047 -0.19602531 -0.23027477 0.03204112 0.15020964 -0.0169585 0.0906333
-0.011413729 0.09593627 -0.24009515 -0.0475921 -0.0011884037 -0.071448 -0.21350674 -1.3140596
0.023734972 -0.407192 -0.038544983 -0.4534783 -0.11741131 -0.027823713 -0.062389407 -0.04328692
0.004622923 -0.14822263 -0.033147614 -0.12101898 -0.0888926 -0.021679461 -0.21329455 -0.066313244
-0.13256611 -0.030100811 -0.3576297 0.07548494 -0.21826056 -1.3846155 0.042984705 -0.04937681
0.12870677 -0.64774615 -0.17219812 0.015479944 -0.0100975875 -0.5345358 -0.32422024 0.09897977
0.13175173 -0.36739713 -0.010893249 -0.061630588 -0.24674709 -0.01249133 -0.11621336 -0.22023053
0.036603566 -0.2280777 0.19889593 -0.102885865 -0.018451711 -0.1625257 -0.19615346 0.04997098
0.06316459 -0.10762402 -0.104222424 -0.020744456 -0.9990787 -0.4279335 -0.014557673 -0.031664338
0.07918217 -0.287601 -0.28892413 -0.21826312 -1.0389956 0.06818277 -0.100818895 -0.87072766
0.01874214 0.036452025 -0.1202219 0.037490714 -0.29988268 0.14219385 -0.109653555 -0.071733035
-0.050397083 -0.3026172 0.054773316 0.16319309 -0.12173151 0.108385526 -0.74032867 -1.1937904
-1.0628301 -1.1459047 -0.14120388 -0.047834847 -0.4349609 -0.008819912 -0.08911673 -0.2969769
-0.37162438 -0.21699424 -0.0045895777 -0.1151909 -0.0063910424 -0.20179935 0.15637444 0.022801485
-0.0036683467 0.17506695 0.092765324 0.080212094 -0.10920508 0.017606737 -0.00461957 -0.12781863
0.058892477 -0.03294601 -0.04985517 -0.0019733205 -0.09006383 -0.022236444 -0.23056069 0.030589908
-0.062450252 -0.080327645 0.07739229 0.10382012 0.028569803 -0.20925757 -0.05395962 -0.15857257
0.13416377 0.070526645 -0.16177347 -0.1815974 -0.04120212 0.0435575 0.10705223 0.1644563
-0.01714749 -0.14652753 0.082106374 0.09983026 0.08236747 0.020481052 -0.12836455 0.02644629
0.14138576 -0.20927879 -1.0984416 -0.019954614 0.13500623 -1.3213371 0.11299703 -1.0931984
0.05724142 0.027261818 -0.0682155 -0.026084805 -0.106381625 -0.25119373 0.15473269 0.11619271
-0.088854566 -0.04134739 -0.009321249 0.06296239 -0.2384316 0.1643192 -0.1731109 -0.023506979
-0.2905015 -1.264116 -0.036339305 -0.9300115 0.048687093 -0.08687295 -0.09214881 0.15646309
-0.14782888 0.09596935 0.18852283 0.075819336 -1.1159678 -0.32382888 -0.03239905 0.02525535
-0.32714856 0.107708216 0.043441147 0.13290249 0.038021766 -0.27264586 -0.045294818 0.2448195
0.031941608 0.015159669 -0.096483275 0.06525679 -0.19444054 -0.15200791 -0.21166694 0.12562831
-0.5493845 -0.37892687 -0.026194425 -0.12426948 -0.7501022 0.030205652 -0.16195497 -0.090335645
-0.09538335 -0.0140650375 0.074002706 0.17562212 -0.052141268 -0.32129896 -1.1280447 -0.11061409

weight f4 [200, 300]
00000000: 138f 6bbb b883 d53b e5e9 8e3e 6cf8 35bb
00000010: e93c b9bc 9122 8cbd 663b 1a3d 693e ce3d
00000020: aea2 0f3e 5281 983d 5bb0 a2bd 4a84 023d
00000030: ee93 b0bd cb29 c73d 0b18 86bd e1f5 fd3e
00000040: 7f87 a03e 67b0 6ebe e8c2 37bd 6163 90bb
00000050: fcc5 123e aac8 9f3e f9cd 503d 8514 673e
00000060: 9f32 3cbd 69c4 163e 00b6 c8be cb4c c43d
00000070: a98c e2be 9584 393d 6916 1fbe ad2f cb3e
00000080: 796c f03d 17d4 053e 7d1d 0d3e 5162 d6bd
00000090: a289 d8bd 3775 5dbe 7e9b 67be 9b97 06be
000000a0: ab38 8bbe 329b b1be 8fe8 cebc 2ea1 19be
000000b0: 9099 0cbe 89e1 ee3c 8b8e ebbc c169 74bd
000000c0: faa7 67be d652 a03e 3941 32bd efce 0dbe
000000d0: 7faa a73d 7dae 17bc ba65 b8bc d1d1 fb3d
000000e0: e064 86be 5fe9 cdbd 77d3 943e ae14 0d3e
000000f0: d483 393e 7318 943e 10bd 943e ef41 4b3e
00000100: 7ae6 773e 1ea4 8c3d 9116 6abd 3298 5e3e
00000110: 9a96 293e 58cf cfbe a744 a0be c1cc 67bd
00000120: 6ef8 6bbd bd1e da3a 8e04 033e 05df 4b3e
00000130: a9dc f8bd 7b54 cb3d a2fb 113e 6448 c63e
00000140: 6036 80be 3ce5 f8bc 1a83 d8bd 33be 953c
00000150: d804 3c3d cd4e 6dbe 7bac 25be 0511 2d3d
00000160: 64a0 fdbc d37a e23d c8f0 cbbd a2ef a5bd
00000170: a7b0 353d c2f1 96bd df4c 353e 127f de3c
00000180: d7c3 243e 1acb 88be 93d1 ae3d 8155 95be
00000190: 82bf 9a3c 983e ae3d 6d52 aa3e a20c 1c3d
000001a0: a7e3 d33b 4233 4cbd 5050 473b 8611 ea3b
000001b0: 521e 41be da15 173e 6921 83bd 0252 473d
000001c0: 3624 7bbd 46d1 c93d b3af 243e acd1 acbd
000001d0: 39c4 48bd 948e 9cbe 3c0f 10bb b464 243e
000001e0: 0946 b83c 8bb3 87bd 7edf 58be 373d 033e
000001f0: 7d6e 8dbd 27b3 5d3c 047e 873d 0f4d 2ebe
00000200: 4c55 6ebe 02a8 41be 7ed1 0cbe a853 103e
00000210: 1c04 cfbc e3a0 c9bb 9bc3 a9bc 233b 6dbc
00000220: c070 80be 8ca9 c0bd 5442 153e 310d 3fbe
00000230: d957 823d e255 42be 351f 863e cf74 31be
00000240: b186 623d 17b0 6bbe a496 8bbe 2a2c b33e
00000250: 38df e0bc 5c54 d5bd cbb3 8b3d 01cd f33d
00000260: 5616 143d d67d dabd 1d32 223e 8400 9cbd
00000270: 94ca acbd 9fbd 2fbe eae4 2abe 7bf4 b73c
00000280: 8718 27be f5ac 043d cfb7 16bd d572 e33d
00000290: b2a8 bb3e fced 49be 4cc3 e1bd 3388 17bd
000002a0: 05ee 42be 9457 28bd 9e3a 1c3d 89ca 3d3e
000002b0: 1d77 d53e 7df2 4bbd 9a51 f2be bbe6 033d
000002c0: 6476 b93d 46ec 1cbe c7b4 8dbd 5065 97be
000002d0: b3cc da3e b21d e13d 6729 1c3e ec03 f33c
000002e0: 15cc 87bc 06c7 8dbc 9841 68be b50d 8ebd
000002f0: 21d5 60bd 90a2 6abe 7a91 4d3d 3a0e c3be
00000300: 9726 ab3b e9e0 45bd c6b8 9c3e 23f5 67be
00000310: f4e2 023e de0b 6b3c 6d86 3abc 1ce2 84bd
00000320: 68c7 873d f0fe 00be 12ff 0cbe acb3 9abe
00000330: 0170 c9bc 1e59 7f3d 183c 6c3e cf96 eabd
00000340: f969 89be 051d 3cbd a522 3e3c e9e2 b1be
00000350: c7b8 893e 59b5 b43c acc8 5a3e 3c40 a2be
00000360: 8e3d 113e 4bfa 9a3e 97fe 3fbe b215 8f3d
00000370: dfeb 1bbe 57a8 a53d deb8 55bc c1bd d13c
00000380: c37b f8bd 7e33 8ebd 62d4 5b3e dd88 c73c
00000390: ee17 7c3c bf05 ad3e 66ba 18be 8d04 1ebe
000003a0: f4a8 ccbd 4a6d 683e 7e4b 9b3e b5fe c6be
000003b0: f21f 6cbe b95d eabe 656c 1ebe ddee 12be
000003c0: 49fd b33e 7bdb 8b3d 510e 61be 6d62 c4be
000003d0: 046e a5be 9de1 1f3e 37a7 873e 7830 67bd
000003e0: 4de7 cb3c ffa5 72be 4212 813d 6574 ff3b
000003f0: 044d 1e3d 1754 833d adf4 fbbe 00f2 a33d
-0.0035943433 0.0065159462 0.27912822 -0.002776648 -0.022612052 -0.068425305 0.037654303 0.100704975
0.14026901 0.07446541 -0.079437934 0.031864442 -0.08621965 0.09724768 -0.065475546 0.49601653
0.31353375 -0.2330948 -0.04486361 -0.004406378 0.14333338 0.31207782 0.05097768 0.22566421
-0.045946714 0.14723362 -0.39201355 0.095849596 -0.4424794 0.045292456 -0.15535893 0.3968481
0.117394395 0.13069187 0.1378078 -0.10467971 -0.105731264 -0.21626745 -0.2261791 -0.1314377
-0.27191672 -0.34688717 -0.025257377 -0.15002891 -0.13730454 0.029160278 -0.028754493 -0.059671167
-0.22622672 0.313132 -0.043519232 -0.1384847 0.081868164 -0.00925791 -0.022509445 0.12295879
-0.26248837 -0.10054278 0.29067585 0.1377742 0.18116695 0.28924903 0.29050493 0.1984937
0.24209014 0.0686724 -0.057150427 0.21737745 0.16561356 -0.40587878 -0.31302378 -0.056591753
-0.057609968 0.0016641241 0.12794706 0.19909294 -0.121514626 0.09928223 0.14256147 0.38727105
-0.25041485 -0.030382745 -0.10571881 0.01827917 0.045903057 -0.23174591 -0.16179077 0.04225256
-0.03096027 0.11058583 -0.09958035 -0.08102347 0.044357922 -0.073703304 0.17705105 0.027160201
0.16090332 -0.26717454 0.08536067 -0.29166797 0.018890146 0.085080326 0.3326601 0.038097985
0.0064663473 -0.04985357 0.003041286 0.0071432022 -0.18859223 0.1475443 -0.06402857 0.048662193
-0.06131383 0.09854369 0.16082649 -0.08438429 -0.049015258 -0.30577528 -0.0021981737 0.1605404
0.022494333 -0.06626042 -0.21179006 0.1281632 -0.069058396 0.013531483 0.066158324 -0.17021583
-0.23274726 -0.18911746 -0.1375179 0.14094412 -0.025270514 -0.0061532124 -0.020723155 -0.014479431
-0.2508602 -0.094073385 0.14576083 -0.18657376 0.06364412 -0.18978074 0.26195684 -0.17329715
0.055304233 -0.23016392 -0.27263367 0.34994632 -0.027450189 -0.10416481 0.06821402 0.11904336
0.036154114 -0.106685326 0.15839429 -0.07617286 -0.08437076 -0.17162178 -0.16688886 0.022455445
-0.1631795 0.032391507 -0.036796387 0.11105887 0.36652142 -0.1971969 -0.11023578 -0.036995124
-0.1903611 -0.041099146 0.03814184 0.18534292 0.4169244 -0.0497918 -0.47327882 0.032202464
0.09055784 -0.15324506 -0.06919246 -0.29569483 0.42734298 0.10991992 0.15250169 0.029664956
-0.016576806 -0.017306816 -0.22681272 -0.06936208 -0.054890756 -0.22913575 0.050187565 -0.38096792
0.005223106 -0.048310194 0.3060972 -0.22652106 0.12781888 0.014346091 -0.011384589 -0.064884394
0.066298306 -0.12597251 -0.13769177 -0.30215204 -0.02458954 0.06234085 0.23069799 -0.11454546
-0.26838663 -0.045926113 0.01160494 -0.3474343 0.26898786 0.02205913 0.21365613 -0.31689632
0.14183637 0.30269083 -0.18749462 0.0698656 -0.15226696 0.08088749 -0.013044564 0.025603177
-0.12132981 -0.06943415 0.21467736 0.024357254 0.015386565 0.33793446 -0.14914855 -0.15431423
-0.09993163 0.2269794 0.30331033 -0.388662 -0.23059061 -0.4577463 -0.15471037 -0.14348932
0.3515418 0.06828972 -0.21978118 -0.38356343 -0.32310498 0.15613408 0.26494762 -0.056442708
0.024890566 -0.23696135 0.063023105 0.0077958577 0.038647667 0.06412523 -0.4921011 0.08005142

bias f4 [200]
00000000: 7161 26be 3456 77be 7251 d33d 01b0 cabe
00000010: abe4 abbd 13b4 13be ee55 5cbc 13b5 603b
00000020: 060a 9abe 8566 71be 46e4 3c3e 5bdb ae3d
00000030: 6c5e 84bd 9018 b3be f0ea 9cbe 50c8 17bd
00000040: 6e61 afbd ff34 5abe fdb0 dbbd 0210 13be
00000050: 00d9 4bbe f9fa 49be adfd 86be 2c3f 92be
00000060: 448c edba dbb4 52be 1b8d 613d 1e22 283e
00000070: ecaf 7ebc d709 333e a3f8 d5be 2cb6 6bbe
00000080: a098 d4bd c14a 0a3e ac12 26be ba79 ff3c
00000090: ae57 9bbe c69a b1bb 58f8 b1bd 2027 00bd
000000a0: a27d 8abe 6f96 de3d 2add 753d 3726 a0be
000000b0: 8463 fb3d c018 873c b4a1 d0bd 76b7 633d
000000c0: 566a 063b a07a 48be 5ad4 003e bc03 fcbd
000000d0: 3231 6c3e c389 5abe 0a54 57be d6ec aebe
000000e0: 8dac efbd 4296 8bbb 43bd 4ebd 9760 1abe
000000f0: 438b 2c3e 9768 a63d fae9 803d a175 85be
00000100: c3b8 e8bb 043b 60bd 0303 913e 2c5a 313e
00000110: 66bc 2bbd 18f0 24bd 1c2b 97bd dd80 3e3e
00000120: e8f0 6e3d 3339 c93d 5f5c 173e b8e9 90bd
00000130: aa1c 75bd 4a92 053e 072d 61be 63f0 94bd
00000140: d091 133c f143 46be ebb5 38be b82d 56bd
00000150: bf8b 723e 592c a5be e698 60be 414d e23d
00000160: 9a19 2bbe 0168 89be 01f8 753e f7e3 88be
00000170: d0cc 9fbd 097d 22bd a2b4 d83d 1d47 09bc
00000180: df0a c23d 3d56 163e 39d1 e9bd 439e 463d
00000190: b702 c43b feb7 973d 8956 123d 8a91 103e
000001a0: d423 98be c3da 583e cc75 2cbe 4a36 73be
000001b0: d64a a13d 8240 10be c425 77be 7c4c 42be
000001c0: 664e f63d 2c8d 80be 18df 95be 2862 01be
000001d0: 3f04 ecbd 9485 623d b198 43be 165e f9bd
000001e0: a93b 80bd cc34 4dbe 522a fb3c 40c4 c23d
000001f0: a764 263e fb5b 703e 665c 7c3e d223 77bd
00000200: 66e6 81be 20b8 81be 904f 3abe 4f58 e93d
00000210: 56a6 c1bd b61f 93be f590 253e 9339 adbd
00000220: 1a91 85bd abb4 cd3d a42c 603d d249 833d
00000230: e5eb 6cbe 3682 bebd 46b4 853c ee30 0dbe
00000240: 2c82 f4bd 2005 703e fb82 66be 8795 febc
00000250: fe09 b5bd 585a 3abb 45d7 c33d 35f8 9abd
00000260: a923 27bd e30f 293e 867f 5dbe b951 8fbe
00000270: 0329 863d de3d 21bd f84c 98be 3428 d53d
00000280: 0224 2ebc 4a48 0ebe 58f3 ea3d ee1a 82be
00000290: e36f 593c 0709 a33d 1ef0 67be 3a9d 973c
000002a0: bd35 26be 9057 a5bd c940 88be 2af1 45bd
000002b0: 57eb 303e 7ea9 bfbc a496 5c3e 40de 9b3d
000002c0: ac39 16bd bc83 9fbb 0c3e 1bbe 057b 343e
000002d0: c87b 72be f747 37be 12cd a13b 64c1 70be
000002e0: 9d16 233d dcc3 79be ad5c afbd 640c 2ebe
000002f0: 0718 53bc b829 ce3c 2c77 adbe 31b2 f0bd
00000300: a4aa 69be 6d4b c6bd 6b7b 6dbe 1add 8a3e
00000310: 70bf afbd c377 613e ee16 b63c a1bb 0ebe
-0.16248108 -0.24153978 0.10318269 -0.39587405 -0.08393224 -0.14424162 -0.013448222 0.0034287616
-0.30085772 -0.23574264 0.18446454 0.085379325 -0.06463322 -0.34979677 -0.30647993 -0.037056267
-0.08563505 -0.21309279 -0.10727117 -0.14361575 -0.19906998 -0.19724645 -0.26365414 -0.2856382
-0.0018123467 -0.20576803 0.05506621 0.16419265 -0.015544873 0.17484222 -0.41791257 -0.23018712
-0.103806734 0.13505079 -0.1621806 0.031185973 -0.30340332 -0.0054200618 -0.08689946 -0.031287313
-0.27048975 0.10868537 0.06002537 -0.31279156 0.122748405 0.016491294 -0.101870924 0.055594884
0.0020510159 -0.19578028 0.12581006 -0.123054 0.23065642 -0.21341614 -0.21028152 -0.34165066
-0.11702833 -0.0042598555 -0.050473463 -0.15075909 0.16849999 0.08125418 0.062946275 -0.26066306
-0.0071021034 -0.05474378 0.2832261 0.17319554 -0.041927718 -0.040268034 -0.07381269 0.18603845
0.058335215 0.09825363 0.1478133 -0.07075828 -0.05984179 0.13044086 -0.21989833 -0.07272413
0.009006932 -0.19361855 -0.18038146 -0.052289695 0.23686121 -0.32260397 -0.21933326 0.11049891
-0.16708985 -0.2683716 0.24020387 -0.26736423 -0.07802737 -0.039670024 0.10581328 -0.008378771
0.0947473 0.14681335 -0.11416859 0.048490774 0.005981769 0.074081406 0.035727058 0.14118019
-0.29714835 0.21177201 -0.16841811 -0.23751178 0.07875602 -0.14087108 -0.241355 -0.18974489
0.12026672 -0.25107706 -0.2927177 -0.126351 -0.115242474 0.05530317 -0.19101216 -0.121761486
-0.06261379 -0.20039672 0.030659828 0.09510088 0.16249333 0.23472588 0.24644622 -0.060336895
-0.25371093 -0.2533579 -0.18194413 0.11393797 -0.09455554 -0.2873513 0.16168578 -0.08458247
-0.065218166 0.10044225 0.054730073 0.064105645 -0.23136862 -0.093021795 0.016321313 -0.13788196
-0.11938891 0.23439455 -0.22510903 -0.03107716 -0.088397965 -0.0028435197 0.09562544 -0.07566873
-0.040805493 0.16509967 -0.21630678 -0.27992037 0.06550791 -0.03936564 -0.29746222 0.10408059
-0.010628702 -0.13894764 0.114721954 -0.2541117 0.013271305 0.07960706 -0.22650191 0.018507589
-0.16231437 -0.08073342 -0.26611927 -0.048325695 0.17277275 -0.02339625 0.2154184 0.0761075
-0.036676094 -0.004867999 -0.15160388 0.17625053 -0.23680031 -0.17898546 0.0049377764 -0.23511273
0.039816488 -0.2439112 -0.085625984 -0.16996914 -0.0128841465 0.025166377 -0.33879983 -0.11752737
-0.22819 -0.09682355 -0.23191611 0.27121812 -0.08581436 0.22018342 0.02222773 -0.13938762

weight f4 [9, 200]
00000000: 758e 16be c45e 88be 5358 59be 2ce7 52be
00000010: bb83 f9be 738d 3abf 6278 5ebe 3bf7 94bb
00000020: 74f5 38be 26af be3b f5a7 903c 7e1d 3ebe
00000030: 3622 efbe 1639 7dbe 918a 76bd 3c29 4ebe
00000040: 9818 93be 75b0 a93d 4953 87be bbe2 87be
00000050: 650c 12bd 4d99 1bbe 9f31 1ebe ae74 aabc
00000060: 0ab0 a4be dd7c bdbd 4987 98be 743e a3bc
00000070: 6fb4 27be 76c5 4a3d a56c 85bd 89c0 77bd
00000080: 746c b7bb d85b 233e 40f1 77be 9ded c8be
00000090: 6454 26be b754 983d 2a71 1dbf c156 0ebf
000000a0: 3e66 83be a839 513e 8508 093e 6fe5 0ebf
000000b0: da6d 243d debf 79be c2af 03bf 21b9 62be
000000c0: 03b2 63be eac8 6bbe 4b68 87bd 568d 81bd
000000d0: cde6 ecbc 58be 44be ee43 f8bd e1a9 acbe
000000e0: 1da8 7cbe f3e3 e6be 6a85 8abe ec56 b6be
000000f0: 7d25 a0bc 3fb2 dcbd d65c 07be 4db5 96bd
00000100: 7d62 ddbe 552c fbbb 71b6 dc3d ba29 4c3c
00000110: 588e 25be cfd8 31be e031 cfbe 2e45 5e3e
00000120: c720 1fbd 578c a2be d4ed 563d 4421 eabe
00000130: 96cf 9fbe b7d9 0f3e 14a1 cdbe 5312 abbd
00000140: c789 fbbe 62b5 e3bd 1729 c8be 398d 07be
00000150: 40c9 bb3d 1fc3 54be 8673 683e e522 88be
00000160: 8172 823c af50 02bd 7c78 fe3d a803 16be
00000170: 1771 2bbf 51fa 98be 4c39 133e 46f0 82bd
00000180: 6c67 54bd 5570 443d 4f2d 043d 786c d8bd
00000190: 9d23 e0be 8d56 cc3d 86d1 b5bd 290d 35bd
000001a0: 225b bebe 6ec7 de3c e53a 8abe c8b0 aabe
000001b0: 4293 2abe 9551 a83c 9e70 89be 8605 60be
000001c0: e1a1 aabc 03d8 5dbe c98d a6be 220a 4abd
000001d0: 19d5 15be 2ab0 b33d 1736 6ebe df8d fdbd
000001e0: bb65 a2be 50b3 6fbe 9fe7 3bbe 6583 afbe
000001f0: 955d 553d a48c 87bc fa35 2d3b f304 50bd
00000200: ebc6 0ebe 2518 ffbc 4460 83be 5777 203e
00000210: 962b 75be 5c6a 08bf 3e09 083e 467a 00bf
00000220: fa7f 85be 3ad7 43be 56d2 333d 8769 4abe
00000230: 9232 7ebe f25b a5be eb17 b6bd 057d 2dbe
00000240: e4d2 38be c9e6 ea3d 1946 03bf d04f 383c
00000250: 7060 59be 0d11 81be efb9 eb3c 3980 90be
00000260: 55ad e23b c6d7 ffbd 1505 08bf de92 07be
00000270: aeca 0ebe e6b4 18bd 8181 a8bc 529d 0b3e
00000280: bcfc f6bd 0875 7bbd 95b3 70be 64ad b5be
00000290: 6dfd 8ebe acc9 d9be 31e3 1dbf 0192 2abe
000002a0: 4fee 48be 71c8 09be 8cc7 9bbd 070c 78be
000002b0: 1f47 9d3d 05db 64be edee dd3d ec4f e4bd
000002c0: 201a 95bd 94b9 36bd 666f 8ebb 18bc 87bc
000002d0: a157 263a 5518 d7bd 8f7f f23d dfcd 66be
000002e0: d8a0 2abd c831 99be 4cbd 76be e879 66be
000002f0: 5188 8fbe 51ff 03be 7645 6bbd 8808 e8be
00000300: 3608 f2be 15ac f6bd 60d2 a4be d50f 433e
00000310: a1cd 15be 6795 653e e3ca 2fbe 55d8 bebe
00000320: 08b5 e7bd b6f6 9cbe 09ab c7bd ac9e 8abe
00000330: 2ae5 44be eb17 133e 61d1 753c 9983 0a3e
00000340: 837a 5ebe be7e 89be 9b37 23b9 fbe4 1fbe
00000350: 0218 12be f788 85be 2a98 3dbe 419a 64be
00000360: 3a04 bfbe 958b a9be b1a7 143e 971b fcbe
00000370: 495b 6bbd 1c1a 07be 8159 863d 319b 0abe
00000380: 37c0 a4bd c068 abbe 801f 63be c0c6 a0bd
00000390: 0454 dabd ca85 eebc 4972 03bf 988b 03bf
000003a0: 6188 8cbe 63bf cfbd aeef 23bf 0062 4abe
000003b0: 45d0 00be 541e 65bd 9f9c f6be 75e0 cdbe
000003c0: 86c1 16be 14d7 423e 6370 2cbe de65 74be
000003d0: 57a4 43be 4f22 edbc 3dad a5be 4e00 a9be
000003e0: 6e5c 4abc a91c 313d b2eb 52bd 18e0 04be
000003f0: e941 dabc b931 fe3c 4c90 26be 6c71 2ebe
-0.1470278 -0.266348 -0.212251 -0.20595998 -0.48733315 -0.72872084 -0.2172561 -0.0045460737
-0.18062383 0.005819219 0.017658213 -0.18565938 -0.46705788 -0.24728808 -0.06019074 -0.20132917
-0.287297 0.0828561 -0.2643073 -0.2654017 -0.03565635 -0.15195198 -0.15448616 -0.02080759
-0.32165557 -0.092523314 -0.29790714 -0.01992724 -0.16377424 0.04950472 -0.06514863 -0.06048635
-0.0055976454 0.15953004 -0.24213123 -0.39243785 -0.1624313 0.07438033 -0.615008 -0.55601126
-0.25663942 0.2043215 0.13382156 -0.5581884 0.040143825 -0.24389598 -0.5144006 -0.22140934
-0.22235875 -0.23025861 -0.06611689 -0.06325786 -0.028918648 -0.19213235 -0.121223316 -0.33723357
-0.24673505 -0.45095786 -0.27054912 -0.3561319 -0.019549126 -0.10776185 -0.13219008 -0.07358799
-0.43239203 -0.007665197 0.107769854 0.01246112 -0.16167581 -0.17367862 -0.4046774 0.21706077
-0.03884962 -0.31747696 0.052472904 -0.45728505 -0.31213063 0.14047895 -0.40161955 -0.083531044
-0.49128553 -0.111185804 -0.3909385 -0.13237466 0.09169245 -0.20777558 0.22700319 -0.26589122
0.01592374 -0.031815227 0.12425324 -0.14649832 -0.66969436 -0.29878476 0.14377326 -0.06393485
-0.051856443 0.04795869 0.032269772 -0.10567564 -0.4377717 0.09977446 -0.08877854 -0.044202004
-0.37178904 0.027194705 -0.26998058 -0.33337998 -0.16657737 0.020546714 -0.26843733 -0.21877107
-0.020829143 -0.21664433 -0.32530048 -0.04932607 -0.14632072 0.08773835 -0.23262821 -0.123805754
-0.3171824 -0.23408246 -0.18350075 -0.34279934 0.0520912 -0.016546555 0.0026429878 -0.05078597
-0.13943069 -0.031139443 -0.25659382 0.15670525 -0.23942408 -0.5328729 0.13284776 -0.50186574
-0.260742 -0.19125071 0.043901764 -0.19766818 -0.24823979 -0.3229671 -0.08891281 -0.16942222
-0.18049198 0.114698 -0.51278836 0.0112494975 -0.21228194 -0.2520832 0.028775183 -0.28222826
0.0069176354 -0.124923274 -0.53132755 -0.13239619 -0.13944504 -0.037281893 -0.020569565 0.13634232
-0.12059924 -0.061390907 -0.23506005 -0.3548385 -0.27927724 -0.42536676 -0.6167479 -0.16657259
-0.19622158 -0.13455369 -0.0760642 -0.24223338 0.07679581 -0.22349174 0.10836587 -0.111480564
-0.072803736 -0.044610575 -0.004346776 -0.016569182 0.0006345455 -0.10502688 0.11840736 -0.22539471
-0.0416573 -0.29920793 -0.24095649 -0.22507441 -0.2803369 -0.12890364 -0.05743929 -0.4531901
-0.4727189 -0.12044541 -0.32191753 0.19049008 -0.14629222 0.22420274 -0.17167239 -0.37274423
-0.11313826 -0.30656976 -0.09749419 -0.27074182 -0.19228044 0.14364593 0.015003533 0.13526763
-0.21726422 -0.2685451 -0.00015565606 -0.15614693 -0.14266971 -0.26081058 -0.18515077 -0.22324468
-0.37307912 -0.33114305 0.14517094 -0.492398 -0.057460103 -0.13193554 0.0656004 -0.13535763
-0.080444746 -0.33478355 -0.22179985 -0.078504086 -0.10660556 -0.02911653 -0.5134626 -0.5138488
-0.274478 -0.10143926 -0.640376 -0.19763947 -0.12579449 -0.055937126 -0.48166367 -0.4021031
-0.14722261 0.19027358 -0.16839747 -0.23866984 -0.1910566 -0.028947024 -0.32358733 -0.33008045
-0.0123511385 0.043240223 -0.051494308 -0.1297611 -0.026642757 0.031029569 -0.16265982 -0.17035455

bias f4 [9]
00000000: 05f5 89bc 020e 713c 53f4 ea3c c5d4 5dbc
00000010: 9e22 d53c 8323 b8ba a21e 483d 30fc 1dbb
00000020: 53cf babd
-0.016840467 0.014712812 0.028680956 -0.013539498 0.026017483 -0.0014048669 0.04885734 -0.0024106614
-0.09121575
