models/classifier_143features_75x100x50_0.001lr_100e_0.3dropout_128bs_sparse_.pth (torch_old, 100216 bytes, 8 tensors)

weight f4 [75, 143]
00000000: ed44 f73e 50e6 d3be 8d60 943d 320d 1e3d
00000010: 5edb 013f e71c b43d 04dd 4b3e ece7 f6bd
00000020: bc33 85be d493 a3be 4a6a 0ebe 607f 313d
00000030: 4c55 ed3d b5fb 353d c302 6e3e c791 313d
00000040: 71df 45bb fcae dd3d 1b21 653d f988 213d
00000050: 9c43 523e 6bbe 59bd a9e2 613f 9430 3d3f
00000060: dd35 0f3e 144a e33e 98ff 15be 4ff9 13be
00000070: fa0c 433d d4ce 1a3e 310a c43d 611d 153e
00000080: 98db 03bd 1530 053d f377 d93e 30da 97be
00000090: ed6f ba3d 15a2 cbbe 5d65 f6bd 5034 c0bd
000000a0: 779a 2f3d 2e23 1fbe f8f4 a7bd b682 1ebd
000000b0: 8e62 a8bc d23b 743e 2bbd 00be 470e debd
000000c0: 8af7 973e 7e6e 063e 6d3e 1fbd a540 bfbe
000000d0: c49d afbd 983e eebe cd0c 0e3f 75be 1b3d
000000e0: 834b a9bd 6f3a 05be 9310 2b3e 80e5 91bd
000000f0: 3ce3 18be 14a7 86be 0598 4a3e 8bde 0d3d
00000100: 1ff3 d5bd ec5a cabe 8f11 9bbe f361 c23e
00000110: d9a0 7b3d 4a49 29bf bf2b b3be a8d7 653d
00000120: 4e2b b83d d760 123f 84f3 68be 7c40 2e3d
00000130: 110e 583d 5443 11be 677a c9bd e431 c8bd
00000140: a7da 9cbe cf9a 08be 6894 9ebe 1890 36be
00000150: 5f05 aabd dabc 91bd ccd7 0e3e 44c7 67bd
00000160: da12 1a3f f6d5 7f3e 682a 293e 61af 273e
00000170: 1565 56bd cda9 dc3c 3a82 1d3f 84e9 21be
00000180: 26ef 75bd 8b26 28be cb5d 23bc 4eff fc3c
00000190: e5fd 87bf ed54 1e3e c237 e5bd 588c a9bd
000001a0: 21cf 5b3e ba17 0740 dd6e 2cbd 20de 5dbd
000001b0: 222a 1c3e 95c2 003e 7378 8f3e f1fe a23c
000001c0: 929a 213c 54ba 75bd 2196 d73d 8615 cd3a
000001d0: 5e4e 7cbc 1421 cc3d 014a c1bd a692 c7bc
000001e0: bc4e 9a3e 87c5 a5bc cdc5 d5bd 7ce0 1bbf
000001f0: 1236 8abd 8c4f 17be 91ee d33c 0eb6 0fbd
00000200: a156 553d f8ad fcbe 4585 08bf 4d4f 70bc
00000210: b1f7 d43e 6aa0 303d e064 9abe ab21 9c3d
00000220: b378 02be c13f 1a3d 6b46 11bf c0da 2abe
00000230: dd5f bcbd d05f e6be aeb5 dfbd 5ffd 70be
00000240: 06e6 3f3e f068 fabd de1f e0bd 4d5c 85be
00000250: ef28 3b3f d744 6ebe f155 8bbe f7ae 3b3e
00000260: 68cf af3e 06dc 843e 8056 40bf c457 fdbd
00000270: c599 c6bd a1c0 72be 9422 adbd 4c6a 42be
00000280: 66d2 223c 9bdd 12be a76f 21be 68b4 bdbb
00000290: ca9b 02bf 07dd 803f 27cf 653e 23dc 17bf
000002a0: 6d4d 703e 9a58 b1bc b7cd 6abe 05bc babd
000002b0: 1fbd 2dbf d5fe 23bf 27b0 51bf f65f 23be
000002c0: 9b0d c9bd 0054 9fbe 0585 b43e cc3d 08bd
000002d0: 9f14 a43c 83ea 843e e328 a1bb bf23 5a3f
000002e0: 254e 26be 7a8b a1be dc88 c43e d182 f6bd
000002f0: f183 7f3d f10c 80bd a194 34be 5de6 c03e
00000300: 9269 b43b 37df a2be 2457 a33e ab60 49be
00000310: 58aa 29bf 5ee5 f5bd cf8e edbe 1fa6 47be
00000320: 4c5a b93d 648e 213c f605 96be 6ca2 f83e
00000330: 9813 3e3f 6d86 10bf 668e 563e 6ae3 3bbd
00000340: 0306 febe 164f 04be 4b13 ecbe 530a 8c3e
00000350: 1118 2d3e 8d80 be3e 1711 80bf ecbb bc3e
00000360: 7c7c 6bbe 72f5 09bd 8640 16be 9367 d5be
00000370: b154 35bd 2421 05be ab4a 6d3d e2ea 5dbe
00000380: a3a7 9b3d fdeb babd ef4d 853d 312f 15be
00000390: a18b 19be 772b 01bf ac96 003e 65fe 40be
000003a0: 5cd6 02bf 6e42 f9bd 4a18 d5bd a9ae 2d3e
000003b0: 7ae4 2e3f 0d2c 32be be70 06bf 120d 0d3d
000003c0: a1a9 e2bc ff6f 26be 7a07 2c3d 4e87 87bd
000003d0: fb1a b73e 2e03 953d 6b3b 4bbe e267 31be
000003e0: 188f 1abf 997b b53c c729 b53c b1d0 7d3e
000003f0: dd16 27be 8e9e 663e 0cbf b2bd d0f2 dcbc
0.48294774 -0.41386652 0.07244978 0.038586803 0.5072535 0.08794575 0.1990853 -0.12055954
-0.26016033 -0.3194872 -0.13907734 0.043334365 0.11588535 0.0444295 0.23243241 0.043351915
-0.0030192996 0.10824391 0.055939775 0.039437268 0.20533603 -0.053160112 0.8823648 0.7390225
0.13985391 0.44392455 -0.14648283 -0.14450572 0.047619797 0.15117961 0.09572256 0.14561988
-0.032191843 0.032516558 0.42474326 -0.2965865 0.091033794 -0.39772096 -0.12031052 -0.09384978
0.04287192 -0.15540764 -0.08201021 -0.038698874 -0.020554807 0.23850945 -0.12572162 -0.10842567
0.29681045 0.13128087 -0.038877893 -0.37354007 -0.08575013 -0.4653213 0.5548828 0.03802343
-0.08266356 -0.13010572 0.16705541 -0.07123852 -0.14930433 -0.26299345 0.19784553 0.03463606
-0.10446762 -0.39522493 -0.30286834 0.37965354 0.061432693 -0.66127455 -0.34994313 0.05611387
0.08992635 0.57179016 -0.22749144 0.042541966 0.05274779 -0.1418584 -0.098377995 -0.09775141
-0.30635568 -0.13340305 -0.309726 -0.17828405 -0.08301806 -0.07116099 0.13949507 -0.05658652
0.60185015 0.24983963 0.16520083 0.16375495 -0.052342493 0.026936436 0.61526835 -0.15811735
-0.060042523 -0.16420953 -0.009971092 0.030883458 -1.0624357 0.15462084 -0.111922756 -0.082787216
0.21465732 2.1108232 -0.042097915 -0.054166913 0.15250447 0.12574227 0.28021583 0.019896956
0.009863513 -0.05999215 0.10526682 0.0015646673 -0.015399544 0.09967247 -0.09437943 -0.02436192
0.30138195 -0.02023579 -0.10438118 -0.6088941 -0.06748594 -0.14776438 0.025870593 -0.03508573
0.05208457 -0.49351478 -0.53328353 -0.014667344 0.41595224 0.043121733 -0.30155087 0.07623609
-0.12741356 0.037658457 -0.56748074 -0.16685009 -0.09197972 -0.44994974 -0.109233245 -0.23534153
0.1874009 -0.122270465 -0.10943578 -0.26046982 0.73109335 -0.23268448 -0.27214006 0.18328463
0.34337926 0.25949115 -0.7513199 -0.123702556 -0.09697298 -0.23706295 -0.08453861 -0.18985862
0.009937858 -0.14342348 -0.15765248 -0.0057893284 -0.51018965 1.0067452 0.22442304 -0.59320277
0.23467036 -0.021648694 -0.22930036 -0.09117893 -0.678667 -0.6406072 -0.8190941 -0.15954575
-0.09817048 -0.31118774 0.35257736 -0.03326206 0.020029364 0.25960168 -0.004918204 0.85210794
-0.16240747 -0.31551725 0.38385665 -0.1203667 0.06238169 -0.062524684 -0.17634822 0.37675753
0.005505749 -0.31810924 0.3190242 -0.19665782 -0.6627555 -0.12006639 -0.46398017 -0.19496964
0.09050426 0.009860609 -0.29301423 0.48561418 0.7424865 -0.5645512 0.20952758 -0.045871176
-0.49613962 -0.12920794 -0.4610847 0.27351627 0.16903712 0.3720745 -1.0005215 0.36862123
-0.22996706 -0.03368134 -0.14673051 -0.41680583 -0.04427022 -0.13000923 0.057932537 -0.21671632
0.076003335 -0.091270424 0.06509005 -0.14568783 -0.1499467 -0.5045695 0.12557477 -0.18847044
-0.51108336 -0.121708736 -0.104050234 0.16961159 0.6831738 -0.17399617 -0.5251578 0.034436293
-0.027668776 -0.1625366 0.041999318 -0.06617604 0.35762772 0.07275997 -0.19846885 -0.17324784
-0.60374594 0.022153663 0.022114648 0.2478664 -0.16317315 0.22521421 -0.087278455 -0.02697125

bias f4 [75]
00000000: e915 553d f61f 9dbe dd5b aebe 1abc 133e
00000010: c76f 59bd 7f19 bdbe 080d 07bf 5cc3 4dbf
00000020: d597 03be 0064 f0be be49 f2be df58 61be
00000030: fc7a 8bbe 2cf2 2abe 3d85 a8bf ea14 fabe
00000040: ab67 d5bd d089 17be cc00 e7be 7b74 c5be
00000050: a1d7 d8be 97c4 5f3e 202f c33e 63b7 d4be
00000060: 7f4f abbe df47 a2be 39d3 c8bd 4524 acbe
00000070: 9137 aebe cd2b 02bf ef07 8bbf e72a 553e
00000080: b294 9fbd 8c59 ab3e 1842 9c3e 1568 d8be
00000090: 2ef1 7d3e d4c9 6f3d e1ad 80be 529d 20bf
000000a0: f6e7 463b 4962 4d3e e95a 03bf 8e2b d1bd
000000b0: 9e58 20be 0e33 133e 1cd4 8a3e 822e 423e
000000c0: 739d 9abe 7555 fbbe 9d69 61bf fe67 963c
000000d0: cc9b 933c 64fe 18bf bd14 ddbe 6d2f c63a
000000e0: f31c 80bf 19c9 d5be 8881 c5be d186 b4be
000000f0: 5fa2 7bbe bc5a f0be e0a5 1fbf 3d80 d2be
00000100: 4fea 10bf 2b6e 27be f2c0 a83d 3fda 05bf
00000110: 208b b1be bb6f d5be 8605 a4bc c0b0 eabe
00000120: 73f4 083e c577 833e 7ec9 bcbe
0.05202285 -0.30688447 -0.3405446 0.14427224 -0.053085115 -0.36933514 -0.5275426 -0.8037622
-0.12850888 -0.46951294 -0.47321886 -0.22006558 -0.27242267 -0.16693944 -1.3165661 -0.4884408
-0.10420164 -0.14798665 -0.45117795 -0.3856543 -0.42352012 0.21852337 0.3812189 -0.41546163
-0.33459088 -0.31695458 -0.098059125 -0.3362142 -0.3402677 -0.50848085 -1.0861796 0.20817147
-0.07792033 0.33466756 0.30519176 -0.42266908 0.24799034 0.058542088 -0.2513266 -0.6274005
0.0030350662 0.20057024 -0.5131059 -0.102133855 -0.15658805 0.14374945 0.27114952 0.18963054
-0.3019825 -0.49088636 -0.8805178 0.018360134 0.018018626 -0.5976317 -0.43179885 0.0015120335
-1.0008835 -0.41754988 -0.38575387 -0.35259107 -0.24573658 -0.46944225 -0.6236248 -0.41113463
-0.56607527 -0.1635062 0.082399264 -0.5228614 -0.34676456 -0.41686806 -0.020022165 -0.45837975
0.133745 0.25677314 -0.36872476

weight f4 [100, 75]
00000000: 8a43 72bd a7cb 20bd 0893 8c3e 359b 5e3d
00000010: c02f fb3d 1cdf d6bd efa8 f7bc 40af 54bd
00000020: 5746 ccbd ed3c 12be b37b a63c c6e2 abbc
00000030: 014a b8be 8f6a b33c a2a2 b43d 0fee 01be
00000040: 5a1b a33e 8cb2 c23d 9a4e d03d d5f1 003f
00000050: 773a 48bd 2613 a5bd 02d0 9e3d 7436 b3be
00000060: a15f 073d eaee cabe f0ab 65be 275a 813e
00000070: 34b7 00bf 5c87 1bbe 9340 22be b7d6 05bd
00000080: c3be 07bd 5d5e 903d f59f 483c 6cbd 873e
00000090: 2488 b9bd bba7 58bd 3e23 d23b 93d3 31be
000000a0: 3eb9 46bd 3291 c93d 4c88 e4be f129 ffbd
000000b0: f897 013e 439d 263e 322e 3b3d 0791 883d
000000c0: 34fe 103e 294a fbbe 0d65 20bd 558a 083e
000000d0: f253 ec3d 9620 32bf 443e d7bd e27c 3abc
000000e0: 447b 223d 5280 66bd 06a0 3e3d 9bdc 1e3d
000000f0: aa38 323e 807b 25be 7eca 5bbe fd4b 573e
00000100: fc2c 153d f8e6 39bc 1641 3a3d f417 9fbf
00000110: 46d7 633c 6b1d 123e 8d25 893e 7346 c3be
00000120: 5688 41bd be79 5b3d dee2 aa3c e44c 963d
00000130: 5964 bb3e c863 8dbe 84a8 17be fe13 98be
00000140: 1494 4fbe 148c d73e b055 3cbd c4d6 d73d
00000150: bb6b 8bba f4f1 d43d 525d 28bf 89ec 003e
00000160: c42d 403d 3497 163d c4df d3be 3152 bfbd
00000170: f844 b43e 1db3 00be 2e84 32bc aa3f 74be
00000180: bdef 90be 76c2 25bf 0e6e 923c 69a8 f1be
00000190: 2186 3bbe b0b6 a3bd 2e06 4bbe 22e7 64bc
000001a0: 9361 eabd fb77 89bd 4d4a edbe e2d8 94be
000001b0: 221a 903d 48b0 453e 74e0 aabe 0749 7bbe
000001c0: f739 debe 8e04 acbe 161d 8dbd 7877 75bd
000001d0: 76f3 d5bd acdb 14bf 2aa3 71bd 5406 6a3d
000001e0: 04d1 943b da46 c9be 3c5f aabe 0885 e6be
000001f0: a034 a63c c3d3 783e 277b 2bbe d11b f33d
00000200: a85d 91be cf8a 833d 2c73 afbd 79f1 093d
00000210: a0e5 db3d c2c6 483e 82ed 8a3e 5a0f 173e
00000220: e6cc a4ba 3dde 2a3d c17f fc3d 6e65 a63e
00000230: 6c7e c6be b2e6 9ebc e640 3fbe d3a2 87bd
00000240: afa9 4cbe a547 3fbe fc29 713e fbd0 de3c
00000250: f15a fabd 1c0b f43d 6fc5 f8bd 7523 8d3e
00000260: 7663 063e 4125 07be 7b34 29bd b2f9 dcbe
00000270: d563 04bf 3fef 533e 9e90 b6be a870 a0bf
00000280: 16ad 18be a353 8abd 8985 1ebe f31a 293e
00000290: 1524 03bd 5158 88bd 2833 8ebd 24df 63bc
000002a0: b22b 8dbf ed4a e73e a4d8 3ebf 9a04 113e
000002b0: 64b0 803b 0775 c7be 8ae6 30be 2c58 fb3d
000002c0: 4f00 b33d 4cc4 a43c 1fdd 933e 1525 8f3e
000002d0: 74a9 84bb 184e cf3c 0ea3 c33d 58d7 6ebc
000002e0: 5122 6a3d 0b4e 2f3e baf0 85bd 632a 8f3c
000002f0: b64b 373d 1081 67bd 54ce 7b3e a27b b83d
00000300: 8422 86bf 9036 303e 1394 f4be 5f11 47bd
00000310: 14ff 773d f456 e9bd 22e6 f9be 445c b7be
00000320: 9979 87bd bcd5 473e 68e9 1dbe a42a 1bbf
00000330: a3b8 8c3e 3708 45bc 2b9a 123d 861f a0bd
00000340: 3b03 693d 307e 10bf 70bf 08bd d304 56bf
00000350: b40b c1be a08d 38bb 476d 2abf 6d90 333b
00000360: ebc0 db3b f6db 78bf be35 2f3e 1fcf 84bf
00000370: 0270 f33d 5e0e 443e 06ec 9dbd 76db 14bd
00000380: a59e 68bd b566 bdbe 6ddf 6f3e fff3 243d
00000390: b4d2 90be 9455 d5be 6371 a03e 31e9 c9bd
000003a0: cd12 7ebe a057 84bd 9258 7bbe c90c 2b3e
000003b0: 4f99 bcbe fddd fe3d 02e8 513e 57d1 1dbf
000003c0: 0010 5abe 43c2 54bd a22f a33e f633 07be
000003d0: 0eb5 c43e b6ce db3a 6440 a0bc f24c 0bbe
000003e0: 0fa8 2e3e 4e2e 02bf 78e1 c83c c359 733d
000003f0: 3043 85be 07d8 703d ae2b 92be f729 62bf
-0.05914644 -0.039256718 0.27455926 0.054347236 0.12264967 -0.104917735 -0.030231921 -0.051924944
-0.09974354 -0.14281054 0.020322656 -0.020982157 -0.3599396 0.021901397 0.08820082 -0.12688468
0.31856805 0.09506711 0.10171242 0.50369006 -0.04888388 -0.08060293 0.07754518 -0.35002482
0.033050183 -0.39635402 -0.2242887 0.25264093 -0.50279546 -0.15188354 -0.15844946 -0.03267547
-0.03314091 0.07049248 0.012245168 0.26511705 -0.0905917 -0.052894335 0.0064128926 -0.17365865
-0.048516504 0.09842147 -0.44635236 -0.124591716 0.12655628 0.16270928 0.045698352 0.06668287
0.14159471 -0.49080017 -0.03915887 0.1333402 0.11539449 -0.6958097 -0.10509923 -0.011382313
0.039668337 -0.05627472 0.04653933 0.038784605 0.17404428 -0.16160393 -0.21463963 0.21025081
0.036419854 -0.011346571 0.045472227 -1.2429185 0.013906306 0.14269035 0.2678646 -0.38139686
-0.04724916 0.0535829 0.020860132 0.073388845 0.36599997 -0.2761519 -0.14810377 -0.29702753
-0.20271331 0.4209906 -0.045980155 0.1053901 -0.0010636965 0.103977114 -0.65767395 0.12590231
0.046918646 0.036765292 -0.41381657 -0.09341849 0.3520887 -0.12568326 -0.010895772 -0.23852411
-0.28307906 -0.6474985 0.017874744 -0.471988 -0.18312885 -0.07993829 -0.19826576 -0.013971122
-0.11444392 -0.067123376 -0.4634575 -0.29071718 0.070362344 0.19305527 -0.3337437 -0.24539576
-0.434036 -0.33597225 -0.06890313 -0.059928387 -0.10446827 -0.5814769 -0.058993496 0.05713494
0.004541518 -0.39311868 -0.33275783 -0.4502337 0.020288765 0.2429953 -0.16746198 0.1187054
-0.28391767 0.0642296 -0.08566889 0.033677552 0.10737157 0.1960707 0.2713433 0.1475195
-0.0012573272 0.04171585 0.123290546 0.3249926 -0.38768327 -0.019397113 -0.186771 -0.06622853
-0.19986604 -0.18679674 0.23551172 0.027199259 -0.12224377 0.119161814 -0.121470325 0.27566114
0.13123879 -0.13197805 -0.041309815 -0.43159252 -0.5171483 0.20696734 -0.3565721 -1.253438
-0.14909777 -0.06754234 -0.15480627 0.16514187 -0.032016832 -0.0665747 -0.06943351 -0.013908181
-1.102896 0.4517435 -0.7454932 0.14161912 0.0039272774 -0.38956472 -0.17275444 0.12272677
0.08740293 0.020113133 0.2887964 0.2795798 -0.0040485207 0.025305793 0.095525846 -0.014577709
0.057161633 0.17119615 -0.065400556 0.017476266 0.044749938 -0.056519568 0.24590427 0.09007956
-1.0479283 0.17208314 -0.47769222 -0.04860055 0.060545996 -0.11393538 -0.4880839 -0.3581258
-0.0661499 0.19515127 -0.15421069 -0.6061194 0.27484617 -0.012025884 0.035791557 -0.078185126
0.056887846 -0.56442547 -0.033385694 -0.8360111 -0.3770424 -0.0028160587 -0.66572994 0.0027399317
0.006706347 -0.97210634 0.17110345 -1.0375708 0.11886598 0.19146106 -0.077110335 -0.036342107
-0.05679192 -0.36992422 0.23425074 0.040271755 -0.28285754 -0.41666853 0.31336507 -0.09858931
-0.2481186 -0.06462026 -0.24545506 0.16704096 -0.36835715 0.12444685 0.2049866 -0.6164755
-0.21295166 -0.051943075 0.31872278 -0.13203415 0.38419384 0.0016769979 -0.019561954 -0.13603571
0.17056297 -0.50851905 0.024521574 0.059411775 -0.26027822 0.05879977 -0.2854895 -0.88345283

bias f4 [100]
00000000: 2549 26be 30f9 56be b4ba 8abd b10e 1b3d
00000010: efd7 963e 1efb 8d3e 4695 7fbe 7f5a 663e
00000020: dc3a ce3d 7400 f93d 1cd1 46c0 4caa 883e
00000030: 8ad1 39bf 2d94 053e 6e0e 8a3e 7e40 c63d
00000040: 356e 313e d47c 153e 7b2a 773e b541 963e
00000050: efa1 7e3e 13f7 d63d 5e35 633e c760 913e
00000060: e538 15bf 4436 983e 3d62 f4bd f214 a3bf
00000070: b6e2 3f3e 54bb bb3d 1807 6c3e d594 503e
00000080: 40d6 a33e b26d 9dbd 245a 9eba 1eee 23bd
00000090: ed80 8f3e c83b 7a3e 7cf3 2c3e 6397 6c3e
000000a0: d5b3 343e dd6b 9d3e 0aea 893e 4bb6 4e3e
000000b0: 25c1 b4be d920 113c 15de 28c0 9b5c 433e
000000c0: 6acc 423e 0360 5fbd 9971 543e 50c3 8b3d
000000d0: d1e2 ec3d cc07 dcbd 7727 5fbe 96f9 3c3e
000000e0: 52d1 c8bd 0528 c8bd 719e ad3e 126a 99bd
000000f0: d47a 383e 8ffc 9abd 0457 23bc 8ff9 583e
00000100: 0935 efbe db08 09be d8f1 313d ce89 133e
00000110: 0194 803d 2075 5f3e 1607 9a3e 534c 85bf
00000120: 60f1 6f3d 6649 dc3d 2fd5 a93e 0584 163e
00000130: 76d4 ad3d 82da a0bd bcdf b23d 06df bd3e
00000140: 2351 923c 027d 823e 9563 553e 45c8 66bf
00000150: 7ef4 4d3e c228 d83d 6258 193e 67b5 693e
00000160: 1ab9 87be 49d3 4e3e b89c 6a3e a43b 973e
00000170: c16e 653e 6442 d43d 184d 343e 335c 79bc
00000180: 60ae 833e df55 b5bf 98c9 783e fb82 403e
-0.1623884 -0.20993495 -0.06773892 0.037855808 0.2946162 0.2773065 -0.24959287 0.22495459
0.1006982 0.121582896 -3.106513 0.26692426 -0.72585356 0.13044806 0.26964134 0.0968027
0.17327197 0.145984 0.24137299 0.29347005 0.2486646 0.104963444 0.22188327 0.28394148
-0.5828994 0.297289 -0.119328 -1.2740767 0.18738827 0.091665894 0.23049581 0.20369275
0.31999397 -0.07686938 -0.0012081307 -0.040022008 0.2802805 0.24436867 0.16889757 0.23104624
0.17646725 0.30746356 0.2693637 0.20186727 -0.35303608 0.008857929 -2.6385548 0.19078295
0.1902329 -0.054534923 0.20746459 0.06824362 0.11566699 -0.10743675 -0.21792398 0.18454584
-0.0980555 -0.09773258 0.33909944 -0.074909344 0.18015605 -0.07567703 -0.009969477 0.21188949
-0.4672015 -0.13382284 0.04344353 0.14408037 0.062782295 0.21822023 0.3008353 -1.0413917
0.058579803 0.10756187 0.3317046 0.14698799 0.08487789 -0.07854177 0.0873408 0.37084216
0.017860955 0.25485998 0.20838769 -0.9014934 0.20112798 0.10554649 0.14975122 0.22823106
-0.2650841 0.20197786 0.22911346 0.2953769 0.2240553 0.103642255 0.17607534 -0.015219736
0.25718975 -1.4166831 0.24295652 0.18799965

weight f4 [50, 100]
00000000: 9a08 acbe 14d2 27bd 0371 1bbe 0c63 353e
00000010: 9f31 1a3e aeec ee3c 1dbb 33be 5f66 d8be
00000020: 7a91 833e f171 013e 4179 adbc 910d 02be
00000030: e2df ce3d 3603 bd3e a5e3 a5be f68d b8be
00000040: ea2b 09be e794 e5be 09cd 5d3e ce1e 9e3c
00000050: 77cb 49be 4cae 833d eaa4 e73d 4eb7 e03d
00000060: 29fb ea3d 7302 013e 4a6c 49bc aac7 10bc
00000070: 1538 4cbe ad1d 0fbf 2baf f93d 8ae1 0a3e
00000080: ce8d 653c 4cad b1bb e3bc 7b3c f3ff 883e
00000090: 5bc0 d1bd fcf2 9fbe bcc8 5abd b33c 743e
000000a0: 4ae1 5c3e 604b 133d 9673 343e eee8 ccbe
000000b0: 38cc 403e 30e7 b43c d7f8 07be 4197 fe3d
000000c0: 0f7e 6dbe 380b 2bbe 2aa3 cbbd 68d7 22bd
000000d0: 1e92 f83d 7340 7d3b 7bbd f6be 965f 38be
000000e0: c238 bbbc a97c 38be 37c8 b6be 238e 08bc
000000f0: d72c 573d dc55 5dbc 9b60 05bf 0e39 993d
00000100: 3498 c1be a8de 8cbc 87e6 8fbc 2f90 b4be
00000110: da8f 2bbe 8543 4a3e 9de2 f63e 6335 01bf
00000120: 5171 43be 0de0 f3be b35f 133d 66c2 acbd
00000130: c696 4abd 1f35 9f3e 46f0 28be 7640 673e
00000140: 8d6d 03be 3ab6 00be bca8 84be 6ca8 593e
00000150: a8e7 53be f9a6 50be f0bf 3f3e c28f 3a3b
00000160: 6ec9 8dbd 00c3 b2be e5d0 36bf c155 3d3e
00000170: 3d80 bb3e e00d adbd cee6 ae3e ada7 9dbc
00000180: d56e 883e d9cf e5bd 2bc2 1bbf 78b6 47bf
00000190: 7e6e a6bc f7b3 c9b9 2abb a0bc 89ff 9ebd
000001a0: 02f2 8ebc 6d86 7bbc 29f6 40bb a06f 97bd
000001b0: 2a73 393a a41d 67bd acd7 f4bc 337b 28bd
000001c0: 23e0 12bc f5c8 4cbd 422a 35bc 81c6 4ebc
000001d0: 68ca 81bc 5f1c 26bd 1268 b3bc 7692 b3bc
000001e0: 754b ddbc 25f4 ebbc 1fa3 bebc a8f4 4bb9
000001f0: fd5c b7bb e9b4 19bd f313 2ebc a491 0bbb
00000200: d1d9 24bd e95b b3bd acee 42bc 9ec1 05bd
00000210: e727 49bd 0dfa fdbc 952d f3bc 47ef c539
00000220: 12a9 a2bb 4489 b1bc 2ef2 b9bc 5b80 abbc
00000230: 2d69 e4bc d302 8cbc b681 44bd 9027 e7bc
00000240: 9289 b0ba 1fe3 d83b 177c b8bc 8768 42bd
00000250: e7ce 9bbd 3285 af3b 5dbc aebc 5318 e4bc
00000260: 14b9 42bd 57ac ddbb 2f33 fbbb 90d0 32bd
00000270: 8691 b0bb 5eee e1bb 1b3b d9bc b033 b0bb
00000280: ec0f ba3a 1cbe 56bc 5b42 6ebc e17c 11bd
00000290: 6909 62bd 2252 c03b 68ea 1cbd d1de fabc
000002a0: 0404 04bd 3e99 5ebd 9b35 6d3c 5d20 bebd
000002b0: 7f3f 4ebc acd2 3f39 afd8 83bc 409e 0abd
000002c0: cc45 04bd 738b bebb ad2b c0bb 612c 8dbd
000002d0: f1ae 1a3b e369 a4bc 167a 54bc 401e 89bd
000002e0: cc57 05bd 7516 87bc 6eb8 e2bc a7d2 9739
000002f0: 9ce5 d8ba 336d 00bd 231b 05bd 9b12 42bd
00000300: 1053 ddbb a88d 55bc 5621 eebc 4421 c1bb
00000310: 29f7 88bb dbb7 45bd 7d15 cfbc 28d5 d9bc
00000320: 4c63 89bc d4d7 193d f450 2ebd 5997 f13d
00000330: 06ab bd3d 2f51 85bd a939 193b c043 c9bd
00000340: d753 b8bd 7360 a9bd 8c47 aabe f45a e03c
00000350: 6eb7 d93d 71ac 4fbe 5fee cebd 176c d2bd
00000360: c7d3 453e 6c87 d1bd a53e d23c 7c2b 4fbe
00000370: 1565 8dbd a900 62be d6c8 11be 07e5 3abe
00000380: 581d 25bc 51a7 bbbc b8d2 76bc 0ed6 58bc
00000390: d0bb 37be c438 c2be 36f1 f9bd e005 053e
000003a0: 8532 0ebe adac af3b f8a3 9cbd 47b8 193b
000003b0: 55c0 19bc f48a 75bd f3a6 5fbe f494 0e3b
000003c0: 1ba4 c1bc b790 07bd d3b9 dcbd d865 18bd
000003d0: 2673 8f3d a5d9 f3bb 6c75 88bd 9e8d d8bd
000003e0: 7174 eabd bc0e 8f3c 355a 10be ab13 a2be
000003f0: 870a 26be b2ec 92bc 6e91 97bc e23b 0d3d
-0.33600312 -0.04097183 -0.1517983 0.17713565 0.15057991 0.029165592 -0.17551847 -0.42265603
0.25696927 0.12641121 -0.021175982 -0.12700488 0.10101296 0.36916512 -0.32400241 -0.36045808
-0.13395658 -0.44840166 0.21660246 0.019301798 -0.19706522 0.06429729 0.11310752 0.109724626
0.11473686 0.1259859 -0.0122938845 -0.008836666 -0.19943269 -0.55904657 0.12191614 0.13562599
0.01401086 -0.00542227 0.015364858 0.26757774 -0.10241767 -0.3124007 -0.05341409 0.2385128
0.21570316 0.035960555 0.17622218 -0.4002146 0.18827903 0.022082895 -0.13278519 0.12431193
-0.23192619 -0.16703498 -0.099432305 -0.03975621 0.12137245 0.003864315 -0.48191437 -0.18005213
-0.022854213 -0.18016304 -0.35699627 -0.008334669 0.052532997 -0.01350924 -0.52100533 0.074815854
-0.37811434 -0.017196015 -0.017565979 -0.35266253 -0.16754094 0.19752319 0.48219767 -0.50472087
-0.19086196 -0.47631875 0.035979938 -0.08435516 -0.049460195 0.31095216 -0.16497907 0.22583184
-0.12834759 -0.12569514 -0.25909984 0.21255654 -0.20693839 -0.20376195 0.18725562 0.0028467034
-0.06923185 -0.34914398 -0.714125 0.18489744 0.36621276 -0.08449912 0.34160465 -0.019244993
0.26647058 -0.112212844 -0.6084315 -0.780128 -0.020316359 -0.00038471792 -0.019620497 -0.07763583
-0.017449383 -0.015351874 -0.0029443598 -0.07394338 0.0007074351 -0.056424752 -0.029887997 -0.041133117
-0.008964571 -0.049996335 -0.011057438 -0.012620569 -0.015843585 -0.0405544 -0.02190021 -0.021920424
-0.02701352 -0.02880294 -0.023271142 -0.0001945073 -0.005595802 -0.037526045 -0.010624873 -0.0021296525
-0.04024679 -0.08757765 -0.011897724 -0.03265535 -0.04911032 -0.031003023 -0.029684821 0.00037753044
-0.0049640024 -0.021671899 -0.022698488 -0.020935228 -0.027882183 -0.01709119 -0.047975264 -0.028217107
-0.0013468734 0.006618872 -0.022520108 -0.047462966 -0.07607823 0.0053564543 -0.021330053 -0.02784363
-0.047539786 -0.0067649293 -0.0076660137 -0.043655932 -0.0053884415 -0.0068948707 -0.026517441 -0.0053772554
0.0014195419 -0.013106849 -0.014542188 -0.035519484 -0.055184755 0.005869166 -0.038309485 -0.030623825
-0.032230392 -0.054345362 0.014478113 -0.092835166 -0.012588381 0.00018293661 -0.016094534 -0.033842325
-0.032293126 -0.0058149635 -0.0058645816 -0.0689323 0.0023602808 -0.020070022 -0.012968561 -0.06695223
-0.032554433 -0.0164902 -0.027675834 0.00028957913 -0.0016547921 -0.03135414 -0.032496583 -0.047381025
-0.0067542866 -0.013034262 -0.02906863 -0.005893858 -0.0041798544 -0.04827104 -0.025278801 -0.026590899
-0.016770981 0.037559345 -0.04255767 0.117964454 0.09261136 -0.06509625 0.0023380315 -0.098273754
-0.09000366 -0.08270349 -0.3325771 0.02738712 0.106306896 -0.20280625 -0.101040594 -0.10274523
0.19319068 -0.10230908 0.025664637 -0.20231432 -0.069040455 -0.22070564 -0.14236769 -0.1825143
-0.010077797 -0.022906931 -0.015064888 -0.013234628 -0.17942739 -0.37933934 -0.122042105 0.12990522
-0.13886459 0.0053611607 -0.07648462 0.0023455785 -0.009384234 -0.05994697 -0.2184103 0.0021756263
-0.023637822 -0.033096995 -0.10777631 -0.0372065 0.07004385 -0.0074417167 -0.066630214 -0.10573886
-0.11447991 0.01746308 -0.14096911 -0.3165563 -0.16214953 -0.01793513 -0.018501963 0.034480937

bias f4 [50]
00000000: 2eff a33d 9ec8 2bbe 84b3 50bf a109 143e
00000010: 7f22 7fbe c3bf 863e 3248 a53d daec 3a3e
00000020: 5ade 373e aba3 483e b3bf 1f3e 6fcd 443e
00000030: c1ea 5d3e a0ef 893e fe4c 023f 5e44 a23d
00000040: debe 3d3e 1e09 603e 432d 283e b284 85bf
00000050: 7125 0b3e cb6f 12be 3006 623e 450f a63d
00000060: dfae 343d ab75 f1be fc72 d73e 88b9 1d3e
00000070: 84f8 37be dbd1 6e3e 58d1 ff3e 8f59 113d
00000080: 4aba 163e c774 283d 0d73 9e3e ad0a 833e
00000090: 12ee 203e 3b89 88bf 301e bebd 174c 233e
000000a0: 16e2 ea3d d69a 50bf 58d1 8a3e 06dd dc3d
000000b0: b9f7 613e 5e90 54be 7d03 2bbe 32bd 0d3e
000000c0: c649 fe3d f496 193e
0.08007656 -0.16775748 -0.8152392 0.14456798 -0.24915503 0.26318178 0.08070411 0.18254414
0.17955914 0.19593684 0.15600471 0.19218992 0.21671583 0.26940632 0.5089873 0.07923196
0.18529841 0.21878478 0.16423516 -1.043112 0.13588502 -0.14300458 0.22072673 0.08108381
0.044112083 -0.47160086 0.42079914 0.15402806 -0.17965895 0.23322241 0.49964404 0.0354858
0.14719501 0.041126993 0.30947152 0.25594082 0.15715817 -1.066688 -0.092831016 0.15946995
0.11468904 -0.8148626 0.27112842 0.107843444 0.22067155 -0.20758197 -0.1670055 0.13841704
0.12416415 0.1499899

weight f4 [9, 50]
00000000: 8d59 40be 1989 d6bc 9417 80bf 8853 13be
00000010: f6fe afbe a2ed 433d eb74 d1be aca4 afbe
00000020: 9ad8 e13d a463 20be 9173 b7be 135b edbd
00000030: 4a30 92be 4b4c 353d 924e 7dbe 52c5 a7be
00000040: f769 87be 4227 c33d e304 d33d 03b4 d1be
00000050: a088 d1bd 9487 a6bd eef4 5ebd b175 bebe
00000060: 74fe b4be de82 77bf f193 86be fcfa 103e
00000070: 626b cbbd 11d1 3fbe 388c 80be 4fa3 81be
00000080: bc6e 253d d1ba 29bf 500f 7cbe c7ba 683d
00000090: 4887 86be bdca 6bbf 1147 8fbf ad80 4ebe
000000a0: 7289 3dbe 9bd0 dcbe fc57 2ebc 77dd 753d
000000b0: ed10 843c 3c6f 4fbe 8b97 a4be a92e 86bc
000000c0: e487 dc3d 4de9 4ebe babf 84be 5cf6 65bd
000000d0: dd2c 4cbf 6445 fdbc 13c2 40be 85bb b93c
000000e0: 5521 c6be 3449 2bbd e411 95bc bdd9 5abd
000000f0: d1fc 47bd 5b5b 6fbd df8d 03bd 3a95 453d
00000100: c18e c8bd 87e7 07be b21f 16be c683 c8bd
00000110: f337 5b3c 318e c0be 0a8c 57be 0491 80be
00000120: a34d bc3b 982b f6bd f0ba 15be fe26 a1bf
00000130: 1158 98be 5282 0cbd 30b9 5abe e424 a4bd
00000140: b7c6 f5bd 80a4 f9bd da9e 71bd 4a65 01bf
00000150: baca cabd 0af9 a13c df8a d7bd 3d92 25bf
00000160: 3993 62bf a504 73be 3fe8 2dbe 66a9 63be
00000170: 52f6 773c 5a56 9dbd 0156 cabc bffc 9fbe
00000180: 5c12 17be 2b5d e2bc 9621 1ebd f2bb 03bd
00000190: 5ed1 94be 8d6a f1bd e68d dcbe 935a d03c
000001a0: 8c50 18bc 3879 e0bd 7b93 b6be fe9d 92bc
000001b0: 13d6 2bbe 9ef4 3cbd 8c30 083b 9ec5 23bd
000001c0: 07c6 81bc 7406 d1bc 01e6 78bd 9ccc 80bd
000001d0: da3e 13bd c0d2 09be 959b 57bd 4c9a a1be
000001e0: 639b 4cbe 90e1 8abe 00bc 01bd ec19 c5bc
000001f0: 2f26 4ebd 5eb9 61bf 8544 62be 2f7d 2cbe
00000200: 29d1 41be 62c8 04be 7124 b6bd 3c84 b0bd
00000210: 2997 bebd 2d8a 16bf a721 27bd cbd1 a5bd
00000220: 94c3 3dbd 9aae 25bf 9ecc 4bbf 9318 8ebe
00000230: 64f0 38be 28db 8abe 4e37 7ebd e10c 78bd
00000240: 0285 a6bc c100 94be 7545 49bd e45b 07bd
00000250: b93a afbd 5eaa babc da27 39be 880a 52bd
00000260: c765 08bf ff27 70bc cb0f 8e3c a154 efbd
00000270: b5c3 f1be 3058 2bbc 8105 37be d333 4abc
00000280: 44a3 45bb ecfa 11bd 6043 93bc 812c e6bd
00000290: 8fe6 e8bd 4945 e1bc 87cc e63c a024 39be
000002a0: 0249 8dbd c486 83be 72c9 79be a1c7 a4bd
000002b0: 2d4e 84bd 13a4 dbbc 7e58 813a 10c9 d2be
000002c0: 600c 32be 0a29 8ebe e8ce 50bd b9a7 1bbe
000002d0: e2fc 64bd b934 84bd 5405 97bd a8f7 02bf
000002e0: 3616 a1bd babc a7bc 180e e23c 53ef e4be
000002f0: b356 36bf 34aa a7be 8cc9 7cbe 66c0 72be
00000300: c595 0cbe c95e 13be 0f38 8abd 8cf6 82be
00000310: 6adf 72bb 6f25 00bd e4ec dcbd 1950 e439
00000320: 0c8a bcbe fce3 4bbd 1696 4ebf 1006 75bc
00000330: c259 5c3d b61e 38be ac4e 3cbf c458 2d3c
00000340: 356f ebbd c212 aebd fcdb 35bc 47fe 533c
00000350: 0f5d b3bc 6329 e6bd b413 fcbd 3a58 51bd
00000360: d313 293b 7360 15be 5fdc ffbd b18c f2be
00000370: e4f4 a1be d5fa 89bd 8d22 aabd d89d 403d
00000380: b110 253d 631d 00bf 0a76 3abe d6ba 2fbd
00000390: 1161 d6bd 876e 05be f15a b8bc 411b 47bd
000003a0: 43af d4bd 8f22 0abf 81a5 1cbd 1216 d1bd
000003b0: 6c62 033c 5e26 2abf 3917 37bf da64 cabe
000003c0: e959 93be 7481 07bf 3ad5 38be 2255 91be
000003d0: 7631 e0bd 0f20 6ebe 3309 853c ab86 263b
000003e0: 0590 00be 087f 5abc c683 a6be cb76 54be
000003f0: e9e2 eabe 2856 65bc 12a9 f439 ac4d 36be
-0.18784161 -0.02618842 -1.0007195 -0.14387333 -0.34374207 0.047834046 -0.40909514 -0.34305322
0.110276416 -0.1566301 -0.35830358 -0.11589637 -0.28552467 0.04426221 -0.24737003 -0.3276773
-0.26448032 0.09528972 0.103036664 -0.4095765 -0.10231137 -0.08131328 -0.054432802 -0.37199166
-0.35350382 -0.9668406 -0.26284745 0.14158243 -0.09932591 -0.18732096 -0.25106978 -0.25319907
0.040388808 -0.66300684 -0.24615216 0.05681875 -0.26275086 -0.9210623 -1.1193563 -0.20166273
-0.18509462 -0.43127903 -0.010641094 0.06002566 0.016121352 -0.20257276 -0.32146868 -0.016379671
0.107681066 -0.20206185 -0.25927526 -0.05614315 -0.79755956 -0.030916877 -0.18824033 0.022672424
-0.38697305 -0.04181786 -0.018197007 -0.053430308 -0.04882509 -0.058436733 -0.03211772 0.048238017
-0.09792853 -0.13271914 -0.14660528 -0.09790759 0.013380039 -0.37608483 -0.21049514 -0.25110638
0.0057465597 -0.120200336 -0.14622092 -1.2590024 -0.2975469 -0.03430397 -0.21359706 -0.08014849
-0.120007925 -0.12189579 -0.058989383 -0.5054518 -0.09901948 0.019772071 -0.105245344 -0.64676267
-0.88505894 -0.2373224 -0.16983126 -0.22232589 0.015134411 -0.07682486 -0.024699213 -0.31247517
-0.14753097 -0.027632317 -0.03860625 -0.03216166 -0.29065984 -0.11787901 -0.4307701 0.025433814
-0.009296548 -0.10960621 -0.35659394 -0.017897602 -0.16780882 -0.046131723 0.002078089 -0.039983384
-0.015841497 -0.025515772 -0.060766224 -0.06289026 -0.03594861 -0.13459301 -0.05263861 -0.31563032
-0.1998115 -0.27125216 -0.03167343 -0.024060212 -0.050329383 -0.8817347 -0.2209645 -0.16844629
-0.18927445 -0.12967065 -0.088936694 -0.08618972 -0.09306175 -0.5880459 -0.040803578 -0.080966555
-0.046329096 -0.64719546 -0.79609096 -0.27753124 -0.18060452 -0.27120328 -0.06206446 -0.060559157
-0.020327095 -0.28906825 -0.049138505 -0.033046618 -0.08556122 -0.022786316 -0.18081608 -0.051279575
-0.532803 -0.014657973 0.017341515 -0.116860636 -0.47219625 -0.010458037 -0.17873193 -0.012341457
-0.0030157128 -0.03563969 -0.017976463 -0.11238957 -0.113721006 -0.027498858 0.028173698 -0.18080378
-0.06898691 -0.25688756 -0.24393252 -0.08045889 -0.06460223 -0.026811635 0.0009868292 -0.41169024
-0.17387533 -0.27765685 -0.05097857 -0.152007 -0.05590523 -0.064553685 -0.07374063 -0.51159143
-0.078655645 -0.020475734 0.027594611 -0.4471384 -0.7122604 -0.32747042 -0.24686259 -0.23706207
-0.13729008 -0.14391626 -0.067489736 -0.25578725 -0.0037059435 -0.0312857 -0.10787371 0.00043547226
-0.3682407 -0.04977797 -0.8069776 -0.014955059 0.053796537 -0.17980465 -0.73557544 0.010580245
-0.114958204 -0.084996715 -0.011099812 0.012939042 -0.02189496 -0.11238363 -0.123084456 -0.05110953
0.002579917 -0.14587574 -0.12493204 -0.47372964 -0.3163215 -0.067372955 -0.08307371 0.04702553
0.04029912 -0.5004484 -0.18209091 -0.04290279 -0.10467733 -0.13030444 -0.022504302 -0.048609976
-0.10384991 -0.5395898 -0.038243774 -0.10209288 0.008019071 -0.66464794 -0.7151981 -0.3953007
-0.28779534 -0.52931905 -0.1805009 -0.28385264 -0.10946934 -0.23254417 0.016239738 0.0025409858
-0.12554939 -0.013335951 -0.3252241 -0.20748441 -0.45876244 -0.013997592 0.00046665274 -0.17803067

bias f4 [9]
00000000: e1c2 003e f818 6b3a 02a7 b6bd 7013 dfbd
00000010: e645 84bd efdb 64bd 26c1 f4bc 7541 8abc
00000020: fd4c 6f3e
0.1257434 0.0008968259 -0.08918573 -0.10892379 -0.064586446 -0.055873808 -0.029877257 -0.016876915
0.23369212
