models/classifier_143features_125x250x100_0.001lr_50e_0.2dropout_64bs_xavier.pth (torch_old, 306616 bytes, 8 tensors)

weight f4 [125, 143]
00000000: 08d5 80be 43ea 28bf e17f 333d 0ea2 27bd
00000010: 2a15 b9be 9ba1 1a3e 2a23 38bd 2338 fe3d
00000020: 5af5 8dbe 42ab 8abe a639 39bd 3e9b 3f3d
00000030: ec2b 40be 431b db3d a2fb 47be ce48 143d
00000040: a3fb afbd 25a8 9cbd f6f7 173e fa45 843d
00000050: 36cd 993e f5d8 723e 2e62 cb3d af19 b3bd
00000060: 6aa0 8c3e 0eeb fe3d f2d4 71bd 480c e93c
00000070: fd13 c2bd 985d 803e ad8c 293e 8e37 ccbd
00000080: 2b19 58be f793 27be f014 343d 1b76 6b3e
00000090: 4dcb f53c 73c8 9b3d a96f 813e aeb9 e1bc
000000a0: 7f31 8bbd 6509 a9bd 3279 243d fc4f bb3e
000000b0: a1b9 9c3e 8371 3d3e ce25 983e 571d cb3d
000000c0: 004c 95be ee4a 88be c9b6 74bc 3030 3d3e
000000d0: 4a64 5bbd 7754 42be 38b4 333e 3069 853d
000000e0: 5abe 1cbe 84ee 393e 9025 94be e46a b5bc
000000f0: 631f 553c d592 853d 2e83 c3be e47b 3fbe
00000100: 4e2f 67be b9dd 9bbe f0b0 2a3f f70a 63be
00000110: f534 4cbf 982e 1abe 5f36 9fbe 1fcb f5be
00000120: c3fe afbe e1ae dfbe 1f05 fe3d c408 133e
00000130: f82d 9f3e e0a9 fa3d 407e 8f3d 2c91 2c3e
00000140: fb6a 733e ea42 993e 6090 4a3e 6911 e63d
00000150: 639b 733e 3532 1b3e 57e7 373e ae79 873d
00000160: a5a6 6a3d e1d1 2c3f d812 debd 1e03 bcbd
00000170: 2d6a c53d 8c9c c43e b3be 5abd e887 103f
00000180: fd1e fc3d 2bee 5b3e 0ff6 803e ef5e 16bf
00000190: 9c4e 72bd bd0f fd3d 3cf5 fc3d 3100 7c3e
000001a0: 37a6 353e 4d56 a4be 277e b83d bafa d03d
000001b0: aded d43d 0075 d1be a66f 58be 0c5d 8f3e
000001c0: 35d9 1b3d 77d4 453e d3f2 21bd e05c b83e
000001d0: b577 7fbd 46fc c3bc f7cc 4f3e 3585 41be
000001e0: a3cf 913d 1de2 6fbe f3b8 9dbe e590 51be
000001f0: 4044 c53d 5a6f 8a3e 7047 f7be 85ec 81be
00000200: 03ba 88bd b85e 463e d508 073e dd4c 853c
00000210: 11b8 50be 1311 80bf 087b 68be 37fd ce3e
00000220: 49fa 0b3f f36b 0d3e 5032 cc3e c1a3 563b
00000230: e34d 8c3e 5b53 f63c d335 893e d2f9 1d3e
00000240: d5a9 b23e 1254 82be c227 1abe 0f71 dcbe
00000250: 5b06 0cbf b8d9 223e 7239 cd3d d808 45be
00000260: 23a6 003d 8e44 273e 3465 a5be 9039 31bd
00000270: a07e 4b3d 92a2 50bd 9a2e 9ebc d9ae 9ebb
00000280: 3b69 6dbe 70fb 81bc db7d 87bd 7c3a 883d
00000290: c7e0 863d 137d 253f 6c66 c03e b0ef 123f
000002a0: de20 13bf 684b 0f3e 26c5 edbd 7414 52be
000002b0: a9c3 d03e 9e64 413f 59e0 2f3e 95b8 623c
000002c0: 1b09 8fbd 88ee 943e 6352 c13d 7b55 f0bb
000002d0: 9347 583e 7ac7 abbe abac e23d d2d4 bd3e
000002e0: 5a73 4c3e 7ccc a93d 6ac2 bebd 8b2b 13be
000002f0: 0072 733d bf75 053e 7448 473d 56e5 593e
00000300: e8cf 723e 63d7 7dbe 1512 c73d d581 0f3e
00000310: a74b a7bd 820e 9abe 85df bebd ea79 983a
00000320: 0c1b 15bd 7862 3e3d df56 e63d 8ade 213e
00000330: 4417 123d b4dd 0bbf adae 983d 7b73 c73e
00000340: 2d06 8f3d 84c6 aebd e298 033e 90ff c4be
00000350: b415 ac3d 7815 303e 02f6 6fbd db5f 83bd
00000360: cc0b 1dbf 8224 843d 65d6 2b3e 59d3 aa3e
00000370: e386 b53d 1a96 a13e 908a f53e 6948 803e
00000380: 1784 543e c99a b93e 338e d23e 2c38 073e
00000390: 0f32 d5bd 6ea0 853e 7a29 473e 80a9 87bd
000003a0: 1d15 f33d 7fd2 093e 13bc d43d 7a52 263e
000003b0: 3f96 eb3d ea9b ed3d 4725 41bd 1103 9e3e
000003c0: 5527 943d 72de ed3d 99d0 d2bd 7a80 cf3e
000003d0: e673 923d 0e7e 61be 85d7 d23b f79f bb3e
000003e0: 518e 51be 0c03 523e ea77 b13e b50c a63e
000003f0: d2c6 42be 3600 883e 9904 fe3d 6c76 a83e
-0.2516253 -0.65982455 0.043823127 -0.04092603 -0.3614896 0.1510071 -0.04495541 0.12413051
-0.2772625 -0.27083784 -0.045220993 0.04677891 -0.18766755 0.10698559 -0.19529584 0.036202244
-0.08592918 -0.076492585 0.14840683 0.064586595 0.30039376 0.23715575 0.09930836 -0.08745133
0.27466136 0.12447177 -0.05904097 0.028448239 -0.09476469 0.25071406 0.1655757 -0.09971534
-0.21103351 -0.16365038 0.04396528 0.22994272 0.030004168 0.07606592 0.25280502 -0.02755436
-0.0679655 -0.08253745 0.040154643 0.3658446 0.30610374 0.18500333 0.29716343 0.099177055
-0.29159546 -0.26619667 -0.0149361575 0.18475413 -0.05356244 -0.18977533 0.17549217 0.065142035
-0.15306988 0.18157393 -0.28934908 -0.022145696 0.013007971 0.065221466 -0.3818602 -0.18699604
-0.22576639 -0.30442598 0.66676235 -0.22172152 -0.79768306 -0.15056837 -0.3109617 -0.48006532
-0.34374055 -0.4368811 0.124033205 0.14358813 0.3108976 0.12239432 0.07006502 0.16852254
0.23771279 0.29933864 0.19781637 0.112337895 0.23789744 0.15155871 0.17959343 0.066150054
0.05728783 0.6750775 -0.10843438 -0.09180282 0.09639392 0.38400686 -0.05340452 0.56457376
0.12310598 0.21477573 0.25187728 -0.5873861 -0.059157 0.123565175 0.12351462 0.24609448
0.17739187 -0.32097092 0.09008437 0.10204072 0.103968956 -0.40909576 -0.2113634 0.28000677
0.03804894 0.1931933 -0.039538216 0.36008358 -0.06237002 -0.023924004 0.20293032 -0.1889847
0.07119682 -0.23426099 -0.30805168 -0.20465429 0.09632158 0.2703808 -0.4829669 -0.25375763
-0.06676104 0.1937207 0.13186963 0.016272003 -0.20382716 -1.0005211 -0.22703183 0.40427563
0.5467878 0.1381071 0.39882135 0.0032751414 0.27403173 0.030069044 0.26798877 0.1542733
0.34895197 -0.25454766 -0.15054229 -0.43055007 -0.546972 0.15903366 0.100207224 -0.19241655
0.03140844 0.16334745 -0.32303774 -0.043267787 0.049681306 -0.05093629 -0.01930933 -0.004842621
-0.23184673 -0.015866965 -0.06615802 0.0665178 0.065858416 0.64643973 0.37578142 0.57396984
-0.57472026 0.13993609 -0.11609869 -0.20515615 0.40774277 0.75544155 0.17175426 0.013837953
-0.069841586 0.29088235 0.09439542 -0.007334409 0.21121053 -0.33550626 0.1106809 0.37076432
0.19965878 0.082909554 -0.09314425 -0.14372079 0.05943489 0.13033198 0.04865308 0.21278891
0.23712122 -0.24789195 0.09720246 0.1401437 -0.081687264 -0.30089194 -0.09319977 0.0011633013
-0.036402747 0.046480626 0.11247038 0.15807548 0.03566672 -0.5463517 0.07455192 0.38955292
0.069836 -0.085339576 0.12851289 -0.3847623 0.08402577 0.1719569 -0.05858422 -0.06414767
-0.61346126 0.06452276 0.16781004 0.3336437 0.08863618 0.3155983 0.47957277 0.25055245
0.20753513 0.36250904 0.41124114 0.13205022 -0.104099385 0.2609896 0.19449416 -0.066241264
0.118692614 0.13459204 0.10387435 0.162424 0.115032665 0.11602004 -0.04715469 0.30861714
0.072340645 0.11614694 -0.10293693 0.40527707 0.07151012 -0.22020742 0.0064343833 0.3664548
-0.20464446 0.20508975 0.346618 0.3243157 -0.19021156 0.2656266 0.12403221 0.3290285

bias f4 [125]
00000000: 9958 f5bd a8df d9be cd28 20bf 8396 9bbe
00000010: ab85 afbe c5e7 99be c9d9 b0be 806e 73bf
00000020: 28da a6be 7c09 79be a97e 17be a7d6 9dbd
00000030: 095c 613c b278 97be e581 bdbd ceef 6ebe
00000040: 8b25 a8be 5533 73be 081d cebe 081d a8be
00000050: cc9c adbe 215f b3bd 9e9b 3abe 84af eabe
00000060: bea0 95be 8113 76be 1118 353d 9f19 a1be
00000070: ca02 b63b 52fe 87be cbbb 25bf 8ec3 6cbe
00000080: 13a2 e2be becf e1be 4f02 a9be 9e0d 43bf
00000090: 2f86 51be 4566 89be 0fe9 b0be 6574 72be
000000a0: c6e4 c5be d53c 95be c08f 92be 1384 50bd
000000b0: 59ad 53be 24bb f6be a783 0ebf 7697 18be
000000c0: ecff 81be ec08 2dbe c369 89be ac7c b6be
000000d0: 4fd7 39be 2690 dfbe 7d77 d8bd 0fff 0fbf
000000e0: a984 7bbe 8137 ccbe 3baf 3abe 72b7 b4be
000000f0: aeaf 8cbe 15be 95be 040d c7be 51d9 12be
00000100: 7bc5 afbe 6559 5abe b035 a8be 69ea a2be
00000110: 1ae4 2fbe 31a4 84be f9ca f4be 10da 88be
00000120: af87 34be 67c8 f6be 9f92 61be 4fa4 92bd
00000130: 1c4d 0cbe 6a1e 27bf 9715 7cbe 1ac6 7bbe
00000140: 28c7 69be 009a 0fbf 0aa5 8fbf 55fc 33be
00000150: 0603 84be bf10 65be 27bb c8be 693e 3fbe
00000160: 8fbf aebe 1055 a8be 3913 dabe 66ed dfbd
00000170: 2e94 c4be 78f8 f2bd 8745 f4be ba43 94bd
00000180: 3084 3dbf 7820 24bf cfa6 b5be 7c0c 11bf
00000190: 167d b6be 7708 4fbf cd09 b2be 01a2 c8be
000001a0: 13b2 d5be 2ce4 0fbe f791 53be ede3 7b3c
000001b0: 753c a0be 436c babe 52ae d3be b85b 7dbe
000001c0: 978d 11bf 8f7c c0be 59e0 9abd fe7a 3f3a
000001d0: bde5 24be 5f68 5cbf 07ad 2abe 33a4 39bf
000001e0: 54fc b2be 375b 53be ddc7 1dbe 5e49 2bbe
000001f0: d1e9 03bf
-0.11979789 -0.4255345 -0.6256226 -0.3038827 -0.34281668 -0.3005964 -0.34541157 -0.95090485
-0.32588315 -0.24320024 -0.14794411 -0.07706957 0.013754853 -0.2958427 -0.09253291 -0.23333666
-0.32841143 -0.2375005 -0.40256524 -0.3283465 -0.3390869 -0.08758379 -0.18223426 -0.45837033
-0.292242 -0.24030878 0.044212405 -0.3146486 0.0055545317 -0.26561219 -0.64739674 -0.23121473
-0.44264278 -0.44103807 -0.33009574 -0.76192653 -0.20461343 -0.26835838 -0.3455281 -0.23677213
-0.38651103 -0.29147974 -0.28625298 -0.050907206 -0.20671596 -0.48189652 -0.55669636 -0.14901528
-0.25390565 -0.16897935 -0.26838502 -0.35641992 -0.1814854 -0.43664664 -0.105696656 -0.56248564
-0.24562325 -0.39886096 -0.18230908 -0.35296208 -0.27477783 -0.29246584 -0.38877118 -0.14340712
-0.34330353 -0.21323164 -0.3285346 -0.31819466 -0.17176858 -0.25906518 -0.47811106 -0.26728868
-0.17629884 -0.4819977 -0.22028588 -0.071602456 -0.1370129 -0.65280783 -0.24617611 -0.24587288
-0.22829878 -0.5609436 -1.1222241 -0.17576726 -0.25783557 -0.2236967 -0.39205286 -0.18676151
-0.34130523 -0.32877398 -0.4259279 -0.10933952 -0.38394302 -0.11863798 -0.47709295 -0.0723948
-0.7402983 -0.64112043 -0.35478827 -0.56659675 -0.35642308 -0.8087229 -0.34773102 -0.391861
-0.41737422 -0.14051884 -0.2066115 0.015374166 -0.31296125 -0.36410722 -0.41343933 -0.24742019
-0.56856674 -0.3759503 -0.07562322 0.0007304399 -0.16103263 -0.8609676 -0.16667567 -0.72516173
-0.34958136 -0.20640264 -0.15408273 -0.16727206 -0.5152865

weight f4 [250, 125]
00000000: 6d8c 273e e5e2 573d b482 b93c befe eabe
00000010: 5329 be3e ec69 523e a351 9cbe 1a8a 36be
00000020: eea9 a2be 4858 a3bd 2ec1 43be 97a0 743b
00000030: b890 4dbe 928f 473d 6644 6cbe fbce b6be
00000040: 3fff 673d 4043 50be 374d 38be 835f b5be
00000050: 01b9 5c3e 031d a2bc 7279 8b3d d26a 28bf
00000060: 6ff7 c4bd dc3d f6be cbde cabd a94b 103e
00000070: 1a4a 6e3d 9999 febe b014 31be b5c6 c53d
00000080: 9b2b 0abe d249 393e 0f55 10be 4f4f 8dbe
00000090: b00b 29be 7be6 943a d0f8 04be 5c6d 573d
000000a0: c4ee 613d 2980 d93d 6e29 1abe 631e 8dbe
000000b0: 35c5 bb3d aeac 9e3c 10d7 c1be 893d bdbc
000000c0: 1c20 783e 658e a8bc e6bd 2a39 bc62 093e
000000d0: b21c 113d c7e4 b5be cffe f3bb 4d70 8e3c
000000e0: 6d61 03bf 9d74 34bd f87c 02bf 35ff 0f3e
000000f0: 9d6d 81be 69c7 adbe 500f 44be 20c1 41be
00000100: cacf 59be ac7c 8fbd 1dfb d53d d42f a0be
00000110: e81a 52be f2cd d8bd c115 593d 9caf 1dbe
00000120: 219c 1fbe b123 8c3e 2f1a e9bd a2c0 69be
00000130: 5074 0dbe 30a1 d2bd 845f e13e d115 853e
00000140: e1c0 86bd 085c 57be f9ef a1be 0ee2 75be
00000150: b193 43be 7182 cb3e 12fb c8bd eec9 993d
00000160: e0af 3d3e 053d 0a3d 5074 da3d c750 a6be
00000170: f43d 473e 5625 a5be 5b58 313e 8f55 81bc
00000180: 3d02 643e eab1 27be a447 84bd 51b8 c2bd
00000190: b55d 2b3e bd32 13be 471a 093d 9247 82be
000001a0: f8c5 9d3e 2c30 823d e811 8ebd 60a5 87be
000001b0: c007 b4bd 3de9 073e ad3f 48bd 6911 213e
000001c0: b47d d43d 45e6 aa3d 0e86 10bd f7c1 a13c
000001d0: 2683 b73e 9d4d 8abe c816 af3d a928 58be
000001e0: fbc7 adbd 2623 d2bd bd1a 4e3e 2164 9c3d
000001f0: 8945 04be 6fc5 2bbe 631c 8e3b 4a3e d1be
00000200: dbed fbbe 3996 8b3e e296 1dbe 1ca8 b6be
00000210: 81f4 853d dd5c 363e db18 1dbf 6492 fe3c
00000220: 3bd0 03be 3171 573e 2cf2 77be af8d dcbd
00000230: c30b 9b3c dc62 88be 09f7 13ba 5a15 8abe
00000240: ee7e 303e 3a8a 2abf b82f 2f3e 4c15 5abd
00000250: 14bc 7a3e 9b7f 863e 8c92 edbd 3a89 45be
00000260: a51d 2c3d 4bdb a2bd 618f 9ebd aef1 7cbe
00000270: 9c80 8cbd e080 aabd d38e 9e3e 4d23 4bbf
00000280: cf17 8bbe 59da 4d3d 0492 46be a0f2 27bd
00000290: 88aa 8b3e b6d7 6f3e 7493 b1be 2fe8 f2be
000002a0: c4d1 a1be dbf3 0cbe 5b4f fcbe 4000 a33e
000002b0: a6f6 66be 45aa 7a3d f00a 89be 0ca8 0cbe
000002c0: e607 2abd 53df 01be d12d 83bd a735 89be
000002d0: a633 6a3c 24fd 1bbf 9e80 a4be afef 0ebf
000002e0: c493 8fbe 2913 84bd 9c99 12be e6f3 1d3e
000002f0: 4250 963d 8e51 c9be 9159 f3bc 1565 b7be
00000300: 80b7 0fbf 7226 003d 5b43 0e3d ce60 61be
00000310: be54 a6be 55d2 2fbe 64d0 aa3e 61e8 003e
00000320: e268 f0bc 5627 02be 7d8f e0bd 8bab 81be
00000330: 0822 09be a9c9 373e eabf 17bf 9315 d53d
00000340: 716a ca3d 2442 12be 2bd2 08be 0d99 03be
00000350: 0a83 d63d 46e3 a6be 2285 6f3e bda2 51bd
00000360: 95a7 e33d a363 f73d 6e21 1e3e ecaa e1bd
00000370: c453 37bd 0b6d 5dbc b12a b4be 1d55 80bd
00000380: d013 7f3c 6aa8 7abe a723 c2bd b4c6 f63d
00000390: c862 c43d 4196 28be 1551 8bbe c900 653e
000003a0: c369 953c db9e b43e bda9 85be ea31 d93d
000003b0: 6f8c 45bf 67d1 1fbe 3944 3ebe 3269 543e
000003c0: 605a 973d dcf9 bdbe 8c44 1bbe 3d31 4c3d
000003d0: 14c3 aabd 6af9 61bd 39ba 3abe 0a1a 8abe
000003e0: 7ac7 ce3d 5a5d 733d c6c5 313d 99e2 7e3e
000003f0: 0bc1 ebbd 8b2a 8fbe 004a 8bbd a8e4 7fbd
0.16362162 0.052706618 0.022645332 -0.45897478 0.37140903 0.20548218 -0.30531034 -0.17826119
-0.3177027 -0.07975823 -0.19116661 0.0037327164 -0.20074737 0.048720904 -0.23072967 -0.3570479
0.056639906 -0.20338154 -0.17998205 -0.35424432 0.21554948 -0.019789224 0.06810273 -0.65787995
-0.09617507 -0.4809407 -0.09905776 0.14091362 0.058176138 -0.4972656 -0.17293048 0.09657041
-0.13493197 0.18094566 -0.14094947 -0.2759957 -0.16508365 0.0011360192 -0.1298554 0.052594528
0.055159345 0.10620148 -0.15054867 -0.27562246 0.09168474 0.01936945 -0.37859392 -0.023100631
0.24230999 -0.020575712 0.00016283206 0.1341657 0.035427757 -0.35526106 -0.007446147 0.017387534
-0.51320535 -0.044056524 -0.5097194 0.14062198 -0.2527894 -0.339412 -0.19146466 -0.18921328
-0.21270671 -0.07006201 0.10448287 -0.3128649 -0.20518076 -0.10586156 0.05299926 -0.15399021
-0.15586902 0.2737098 -0.11381947 -0.2282739 -0.13813901 -0.1028465 0.44018185 0.25993207
-0.065797575 -0.21031201 -0.31628397 -0.24012014 -0.19099309 0.39747956 -0.09813513 0.07509218
0.18524122 0.0337496 0.10666716 -0.32483503 0.19457227 -0.32255048 0.17318861 -0.015787868
0.22266479 -0.16376463 -0.06458977 -0.09507812 0.16734965 -0.14374824 0.033472326 -0.2544523
0.308151 0.06356844 -0.06937009 -0.2649336 -0.08790541 0.13272567 -0.04888885 0.15729298
0.103755385 0.08344702 -0.035284095 0.01974581 0.35842246 -0.2701234 0.08549267 -0.2110926
-0.08485409 -0.1026061 0.20127387 0.076362856 -0.1291715 -0.16774534 0.00433688 -0.40867835
-0.49204907 0.27263048 -0.15389588 -0.35675132 0.06540776 0.17808862 -0.6136605 0.031075664
-0.12872402 0.21039273 -0.24213475 -0.107692115 0.018926507 -0.26637924 -0.0005644416 -0.26969415
0.1723592 -0.66617167 0.17108047 -0.053242967 0.24485809 0.2626923 -0.11600217 -0.19290629
0.04202046 -0.07951983 -0.07742191 -0.24701568 -0.06860468 -0.08325362 0.3096834 -0.7935074
-0.27166602 0.05025706 -0.19391638 -0.04100287 0.27278543 0.23422131 -0.3468281 -0.47442767
-0.3160535 -0.13764898 -0.49279293 0.31836128 -0.22555026 0.061197538 -0.26766157 -0.1373598
-0.04151144 -0.12682848 -0.06405223 -0.26798746 0.0142945405 -0.60933137 -0.32129377 -0.5583448
-0.28042424 -0.06448967 -0.1431641 0.15425071 0.07339527 -0.39320034 -0.029705795 -0.35819307
-0.56139374 0.031286664 0.034732204 -0.22009584 -0.32486528 -0.17170079 0.33362114 0.12588646
-0.029346887 -0.12710318 -0.10964868 -0.2532619 -0.13391888 0.17948021 -0.5927721 0.104045056
0.09883583 -0.14283043 -0.13361423 -0.12851353 0.104742125 -0.3259527 0.2339063 -0.05118059
0.11115948 0.12079551 0.1544244 -0.11018929 -0.04475762 -0.013514767 -0.3518882 -0.06266234
0.0155686885 -0.24478307 -0.094794564 0.12049618 0.095891535 -0.16463567 -0.27210298 0.22363581
0.018238908 0.35277447 -0.26106063 0.106052235 -0.7716741 -0.15607224 -0.18580712 0.20743254
0.073902845 -0.3710469 -0.15162867 0.049851645 -0.083379894 -0.0551695 -0.18235101 -0.2697299
0.10096641 0.0594152 0.043401502 0.24891128 -0.115114294 -0.27962145 -0.06801224 -0.062473923

bias f4 [250]
00000000: 423d 22bd 925e 113e 2637 c83d ba74 2dbe
00000010: b4c7 cc3b 3fec 0a3e 90db 64be 229c f63d
00000020: 5f80 b63d 2a63 743d 88f3 96bd 274a cdbc
00000030: 4eae 69be e5ed bfbb fbfc 353d 5388 a03d
00000040: 4b04 95bd 08a9 df3d 548b d53d 64b8 8f3c
00000050: 5c2f 3fbf a1fd 93bf 4dd5 803c f6c4 0a3e
00000060: 7316 41be 3fcd 413e 3fe6 e3be 6782 423d
00000070: baca c33d fbe2 48be 9a9f 94bd 56fe df3d
00000080: a7c3 e4bd a4b5 ce3c b8fd a63d 9b0d a33d
00000090: e900 0abf 6b9c 6d3d 5d43 c53d b232 df3c
000000a0: 91fe bf3d cb34 1a3e 8ee6 9abc 66d7 65bd
000000b0: e3c5 9b3d 4ccf 66be 46a3 1bbf a8ac ab3d
000000c0: 6663 8a3d aa17 48bd 2772 b8bd 2fa4 87bd
000000d0: 3844 89bf 4f52 7bbc 56c8 28be bc5a a7bd
000000e0: 8404 d73d d217 183e 29d2 0cbd 4258 eabc
000000f0: 6e0a 603d aa65 23be 6c07 883a 3257 d7bd
00000100: af18 ce3d 094e 01be 2270 223c 171c c3be
00000110: bae4 403d 5848 56be e07f 0ebd 999f 04bc
00000120: c1b0 493e bc0f 82be 83b1 99bb 02f7 19bf
00000130: 3241 d9be 6c48 903d 788d 903d 6dfc cdbc
00000140: 69dd 00bd ab59 acbf 9236 c5bd cee5 07bd
00000150: 05e3 b13d 9aab 013e b695 77be cd8d 093d
00000160: 07a4 d63c 2730 2e3d 0cd5 6abd 01cd b23d
00000170: 7d6d 11be e0fc 14be b4dd 643d 7f7c 193d
00000180: dd3b 83bd 6549 0c3d 8509 27bd ad79 a8bd
00000190: 35f5 0dbe 1af1 8ebe 4fb8 95bd f2c8 483b
000001a0: 183f 653e 80a2 d43c 0984 94bd 4a26 1ebe
000001b0: 1b61 8c3d 3db2 13bf 17da 333d 1a20 ad3c
000001c0: 1281 81bd 53b5 843d 5d83 633d f611 c93d
000001d0: b0a2 b53d 9356 0a3e 7b51 ca3b 5e47 a9bd
000001e0: 09db 12bd 7bf4 a93c 1e76 65bd 4119 513d
000001f0: 7825 3e3c af27 a53c 83c5 153e 3871 ac3d
00000200: 80b8 a4bf 6e05 063d f01b 2dbd 1fe2 d2bd
00000210: 38bc a63d 1bc1 2b3e 2ac0 1dbd 2b52 bb3d
00000220: 24bc 8abe c64d 45be 0bc9 0dbb 6fd4 39bb
00000230: 8c32 6cbe a348 223a 4fc0 083e 9e43 24be
00000240: df75 a7bf 22c9 b4bf 1f12 0c3d b2f2 1fbf
00000250: 9711 f23d 7e95 8cbf 7b34 0cbe 7147 8abf
00000260: 9bd8 923d 3745 7d3e 16f8 de3d c057 a8be
00000270: 3265 1c3e 436a 0c3b 0a72 0cbe f608 42be
00000280: 161e 6ab9 b522 09bf c79c 6ebc c33b 66be
00000290: 80f1 c93d c15e 75be 7595 7b3d 697c ad3d
000002a0: 1508 cf3c 9488 b9bc 484a f1bd 5ceb 043e
000002b0: 3cd8 94bd 938d 3ebd e2b3 fc3c c042 3c3e
000002c0: 8442 aabf 91b1 803c 93c2 30be 9130 c23c
000002d0: 2ba4 97ba 42a0 013e b823 8b3d ac57 69bd
000002e0: 7940 cc3d 5054 0abe 0b47 1a3e 78c9 2cbf
000002f0: aaef 1a3e fe60 113e d26e c13c d8ee 033e
00000300: 9481 bc3d 83ff 623e 54a9 c63d 36aa 91bf
00000310: b7ab 583d ae6b 863b 548a ae3d 8023 c2bd
00000320: 591b 8cb9 b6ea b1bf c0a9 23be 77fa 4cbd
00000330: a900 28bd c9da 383e 5a9f aebb 58eb 47be
00000340: c428 00be c27f 96bc 047f be3d 391a a73d
00000350: b7c1 103e 5dde 133e 4edc 2fbd bfd4 67bd
00000360: 39aa 0b3e 428a 213e 036c 013e d9f1 7a3d
00000370: 28fa 98bb 5720 c7bf 7020 8f3d b4c1 683d
00000380: 084a 8fbc 3e88 933d 7971 41be a2be 2f3c
00000390: 5f90 8bbe 5030 fc3d 28ce ff3d 7e21 ce3d
000003a0: c262 2a3e 4cd7 cb3c c69e 0ebe 33f9 013d
000003b0: 42de 95be 3c55 0abe 8d9b 9fbf e6da 8c3d
000003c0: ecf7 42bd ebf9 3a3c 483b c83d db90 9f3d
000003d0: ee91 8ebf ba72 50be f262 1abf 9ea4 04bf
000003e0: 20d7 85be 5151 c33c
-0.0396092 0.14196232 0.09776144 -0.16939059 0.0062493924 0.13566683 -0.22349381 0.12041499
0.089112036 0.059664883 -0.07370669 -0.025059773 -0.22820398 -0.0058572167 0.044430714 0.07838502
-0.072762094 0.10920912 0.10426965 0.017543979 -0.7468164 -1.1561776 0.01572671 0.13551697
-0.1885622 0.18925951 -0.445116 0.047487643 0.095601514 -0.19617836 -0.07257004 0.109371826
-0.1117013 0.025233097 0.08153862 0.079615794 -0.5390764 0.0580105 0.09631989 0.027245853
0.093747266 0.15059201 -0.018908765 -0.056113623 0.07606103 -0.22540015 -0.6079601 0.08382541
0.0675724 -0.048850693 -0.09006148 -0.066231124 -1.0723944 -0.015339448 -0.16482672 -0.08171603
0.10498908 0.14852837 -0.03438011 -0.028606538 0.054697447 -0.1595675 0.0010378188 -0.10514678
0.10063302 -0.12627424 0.00991443 -0.38107368 0.04709313 -0.20926034 -0.03478992 -0.008094692
0.19696333 -0.2540263 -0.0046903505 -0.6014253 -0.42432553 0.070450634 0.07058233 -0.02514478
-0.031461153 -1.3464864 -0.09629549 -0.033178143 0.08685879 0.12663117 -0.24178204 0.033582497
0.026201261 0.04252639 -0.057332084 0.08730508 -0.14201923 -0.14549589 0.055875495 0.037472244
-0.064079024 0.034249682 -0.040780563 -0.08226333 -0.1386307 -0.2791832 -0.07310545 0.003063735
0.2238735 0.025956392 -0.07251746 -0.15444294 0.06854459 -0.57693845 0.04390916 0.021133471
-0.06323446 0.06479897 0.0555452 0.09817879 0.08868921 0.13509588 0.006174264 -0.08265565
-0.03585342 0.02074646 -0.05602085 0.051049475 0.011605613 0.020160524 0.14626126 0.08420032
-1.2868805 0.032720022 -0.04226297 -0.102970354 0.08141369 0.16772883 -0.03851334 0.09146532
-0.27096665 -0.1926795 -0.0021634724 -0.002835538 -0.23066157 0.0006190633 0.1335461 -0.16041419
-1.3082846 -1.4123881 0.03419697 -0.624797 0.11819761 -1.0983121 -0.13691895 -1.0803052
0.071702205 0.24733435 0.108871624 -0.32879448 0.15272978 0.0021425642 -0.13715377 -0.18948731
-0.00022327187 -0.53568584 -0.014563746 -0.22483735 0.098605156 -0.23961927 0.06142183 0.08470995
0.025272409 -0.022648133 -0.11781746 0.12980407 -0.07267806 -0.046521734 0.030847494 0.18384838
-1.3301549 0.01570967 -0.17261724 0.023704799 -0.0011569312 0.1265879 0.06793922 -0.056968376
0.09973235 -0.13508725 0.15066163 -0.67494917 0.15130487 0.14197156 0.023612414 0.1288408
0.092044026 0.22167782 0.097002655 -1.1380069 0.052898135 0.004102192 0.08522478 -0.09479427
-0.00026723256 -1.3899753 -0.15982723 -0.05004355 -0.041016255 0.1805221 -0.005329055 -0.1952337
-0.12515551 -0.018371467 0.0930157 0.081592984 0.14136396 0.14440294 -0.04293471 -0.056599375
0.13639154 0.15775397 0.1263886 0.0612658 -0.004668493 -1.5556744 0.06988609 0.056825355
-0.017491356 0.072037205 -0.18890943 0.010726603 -0.27258584 0.123139024 0.12490493 0.10064982
0.16639236 0.024882935 -0.13927755 0.031731796 -0.29271132 -0.13509077 -1.2469345 0.06877689
-0.047599718 0.011412124 0.09776932 0.07791301 -1.1138284 -0.20356265 -0.6030723 -0.51813686
-0.2614069 0.023842486

weight f4 [100, 250]
00000000: ad03 f2bd 6077 2d3e cf32 523e ebc6 063e
00000010: 7c9e 9eba 55b1 623e 01d0 b3bc 913c 98be
00000020: c6a7 45be 3a30 7fbe ba55 623e 5ebf 603e
00000030: b860 8d3c d86a 653e 91e5 7ebe 822e f6bc
00000040: 04a1 453d a63b 873e 65a0 833e d845 ee3e
00000050: 72f4 953d 559a 8cbd 227c e83e 366b dc3e
00000060: a672 973e 66d0 d2bd a5f0 b1bd 358f 7abd
00000070: d227 33be 2383 2a3e 1f8e 983c fc1b debd
00000080: aac7 c9bd 8147 363e af47 ac3d 9103 56be
00000090: 205d 983e f2c4 523e b49d 49be 1011 b9be
000000a0: ce27 db3d 2668 75be a0d3 9d3e a927 bc3e
000000b0: df69 b5be 19bd 07bd 70ba a3bc b53c d53e
000000c0: 4d56 933c d11f 89bc de62 7c3c 45a3 293e
000000d0: 1212 743d c15e e9bd 13ae d23e 83b5 823d
000000e0: 9ea3 b13e e467 e43e 12f4 dcbd b552 b6be
000000f0: fcd0 9b3c 0beb 1c3e 9908 ebbe d5b8 8ebe
00000100: cb12 943e 8cc8 e03d 9e52 5b3e 3cd5 563e
00000110: 1646 6e3d 23f4 163e b9f0 893e 93a4 153e
00000120: 907f 073e 6326 50bd edde b0bc 19fa 17be
00000130: 4011 0a3f 5aa1 debb b540 6b3e b348 e4be
00000140: 69c5 b2bb 2acd 9dbc 61b6 cf3e 1f9f 2e3e
00000150: c10d 5a3e 20f1 a8bd 11f2 c93d 5e61 c73d
00000160: d12f 853e fb28 32be bb4a 69be 0606 da3d
00000170: f768 04be e05a 58bd 3fff b83b 98ec 63be
00000180: 3586 89be be41 743e 4dfe 39bd 1d91 4a3e
00000190: 3180 093e 34ca c53d 4fc3 0e3d 8ed4 3abd
000001a0: 5b0d db3c 13b6 f33e 1359 33bd 4df7 4f3d
000001b0: 0588 f7bd 4daa 9dbc 8921 043e f253 c33e
000001c0: 879f 1ebe dde9 38bd 8fe6 b0bd 4d8c 74be
000001d0: a4eb 953e 214a 5fbe 8efe b5bd d0d8 1d3e
000001e0: 2325 cfbe c20b 4a3e b480 863d c155 7d3d
000001f0: b571 8dbd 6635 98bd 2827 aa3d 9023 b43e
00000200: 2eb6 10bd 06ba 77be ab73 c43d a6a6 b8be
00000210: c703 7b3e 4601 9b3d 253f d43d 24f8 65be
00000220: bdb7 073e 0302 623d 7893 e43d 0b38 963e
00000230: 769e abbd 6ef9 38be 1a6d cf3e 9972 873d
00000240: 3b30 81bd 7641 b8be 7fef 6abd be9d 943d
00000250: 1227 b73d 5c85 493d 2605 a13e 578d 82be
00000260: 3512 94bc b9d2 033e 92d7 173f feb2 fdbe
00000270: c6f5 363d 76fc ffbd 19c5 663e dc6b 733d
00000280: 9a32 0ebe c5bc 5d3e 780f eebd 5c0b 9bbe
00000290: 22e4 9fbe a8c0 4b3a e044 f4bd 91ff 283e
000002a0: 36de 873e 4f04 f83e edb0 31be 8820 843e
000002b0: 4f03 d5bc c115 043f 41a0 35be ef81 df3d
000002c0: cc3c b9bd 95d4 263e 7184 5ebd b5dd d0bd
000002d0: 3508 173e 8fab 0c3e 6651 393e c8ba c33c
000002e0: d8c7 a0be 5945 213d 9743 503e 5ff4 013e
000002f0: e820 193d a87a d33e 3e2f b63a 0b4b 563e
00000300: 3cc3 95be e791 be3d 8e78 10bd 31b3 89bd
00000310: bda9 3a3d a33e d73e 00ed ad3d ae8b 70be
00000320: 959c f43c b1e5 2bbd 8f06 603e dcc4 753e
00000330: 23ff 013e 0da6 4f3d 08d8 6b3e 939a 883e
00000340: 5afc 8d3e 2b59 2ebe 5cd4 4d3d 7377 003e
00000350: f82c 93be dde6 1e3e dd95 c83e 43dc 2ebe
00000360: 1f54 0c3f 1e4a f83c e0c1 72bc af8e 6ebe
00000370: bd8d 76bd aa6a ddbd b772 14be 8696 4c3d
00000380: eb20 513e b50e 8cbd 3bef af3e ad66 253e
00000390: 3f64 68bc ee28 b4bb d019 9e3d 29d7 86be
000003a0: ee3e d5be c3c8 f33e a11d 36be 267d 4a3c
000003b0: 601f 7a3d 1fe6 b23d 5f85 23be 81d0 023e
000003c0: 6f89 2f3e 55af 12be 6f53 483e d721 5abe
000003d0: c9e8 c0bd c4bb a83d 7950 b2bd c192 363b
000003e0: cdde 803c 55d2 afbd 8a2c 0c3c 23ed 2d3d
000003f0: ee30 14be 0709 943d 7a5e 353c 6bb4 7cbd
-0.11817107 0.16940069 0.20527194 0.13161819 -0.0012101675 0.2213796 -0.02194977 -0.29733709
-0.19302282 -0.2492074 0.22103015 0.21948001 0.017258033 0.22404039 -0.2489226 -0.030051474
0.04824926 0.26412696 0.2570831 0.46537662 0.07322015 -0.06865374 0.45407206 0.43050545
0.29579657 -0.10293655 -0.086884774 -0.06117173 -0.17495659 0.16651587 0.018622456 -0.10845181
-0.09852536 0.17800714 0.0841211 -0.20899798 0.2975855 0.20582941 -0.19689065 -0.3614583
0.107009515 -0.2396551 0.3082552 0.36749008 -0.35432336 -0.033139322 -0.019986361 0.41647878
0.017985487 -0.016738804 0.015404431 0.16566189 0.059587546 -0.11395026 0.41148433 0.06382277
0.34695143 0.44610512 -0.1078874 -0.35609975 0.01902055 0.15324037 -0.45904997 -0.2787539
0.28920588 0.10975751 0.21418235 0.2097978 0.058172308 0.14741568 0.2694147 0.14613561
0.13232255 -0.05081786 -0.021590674 -0.14841498 0.5393257 -0.006794137 0.22973903 -0.44586715
-0.005455662 -0.019262869 0.40568832 0.17052887 0.21294309 -0.08249116 0.09860624 0.09735368
0.26013044 -0.17398445 -0.22782414 0.1064568 -0.12930666 -0.05282104 0.005645662 -0.22258222
-0.26860204 0.23853204 -0.045408536 0.19781919 0.13427807 0.09657708 0.03485423 -0.045612864
0.026739767 0.4759985 -0.04378612 0.050772954 -0.120864905 -0.019246245 0.12903418 0.38149983
-0.15490542 -0.045144904 -0.086377256 -0.23881646 0.29281342 -0.21805622 -0.08886443 0.15414739
-0.4045802 0.19731048 0.06567517 0.06184936 -0.069064535 -0.0743206 0.0830825 0.35183382
-0.03532999 -0.24192056 0.095923744 -0.36064643 0.2451316 0.07568602 0.10363606 -0.2245794
0.13253684 0.0551777 0.1116094 0.29339632 -0.083798334 -0.180639 0.40512925 0.06613655
-0.06308027 -0.35987443 -0.057357308 0.072566494 0.08942999 0.049199447 0.3144924 -0.2549846
-0.018075088 0.12873353 0.5931331 -0.49550623 0.04466798 -0.12499325 0.22536124 0.059429035
-0.1388649 0.21654041 -0.11624044 -0.30282104 -0.3122874 0.00077725435 -0.11927199 0.16503741
0.2653672 0.48440787 -0.17352648 0.2580607 -0.026002554 0.51595694 -0.17736913 0.10913455
-0.09044799 0.16292031 -0.054325525 -0.10198537 0.14749224 0.1373732 0.18097457 0.023892775
-0.3140247 0.039372776 0.20338283 0.12690876 0.037384897 0.41304517 0.0013899577 0.20927064
-0.29250515 0.093051724 -0.03527122 -0.06723631 0.04557203 0.42039976 0.0849247 -0.23490784
0.02985982 -0.041967098 0.21877502 0.24000877 0.12694983 0.050695468 0.23031628 0.2668043
0.2773159 -0.17026202 0.05025135 0.12545566 -0.28745246 0.15517755 0.39176837 -0.1707621
0.5481586 0.03030878 -0.014816731 -0.23296617 -0.060193766 -0.1081136 -0.14496885 0.049948238
0.20422713 -0.06838743 0.34362206 0.16152449 -0.014184057 -0.0054980433 0.07719767 -0.2633603
-0.41649574 0.47614107 -0.1778474 0.012358939 0.061065078 0.08735298 -0.15968846 0.1277485
0.1714227 -0.14324696 0.19563077 -0.21301971 -0.094194 0.082389385 -0.08706755 0.0027858468
0.01573124 -0.085850395 0.008555541 0.04246248 -0.1447179 0.07228284 0.011069888 -0.061695497

bias f4 [100]
00000000: 27e4 c13c 6e58 86be 8a38 083e 3eca b8be
00000010: dd51 533e cd13 83bd e72a 223e 23e1 923d
00000020: e20e 5f3e 5d01 6cbe 16ca 7a3d 449e c0bd
00000030: fd82 c2be 024b 4e3e e5c7 58be f7a3 efbc
00000040: d3cb 67bd ae21 09bd 3c3b 71be 6760 393e
00000050: bd2a bebd 2285 b3bc b0b5 4c3d 0a00 b2bd
00000060: 91ba 26bd 73ae 1cbe e90e 583e 5388 50be
00000070: 89bb 003d c5a8 97bd 1d86 863b 30d5 e93d
00000080: 1322 ebbd f771 99bd 0130 a73c 5101 4f3d
00000090: 48a7 cbbd 1158 57bd cf7c 2a3d 803b d7bd
000000a0: 0f49 ecbc 8523 a73d 9db2 7e3e fdd0 fdbc
000000b0: c0c6 49bd 67c3 c6be 3d22 1dbe e421 74be
000000c0: 63f7 233e e2b2 3b3d 47d2 04be ace8 93bd
000000d0: 7a70 b33e 0173 40be c6e1 dc3c 1d30 603d
000000e0: 145e 003e 414c 893b 8990 443e ba4c bfbc
000000f0: c3de 98bd b55e 103d 0ebb 993d db96 5c3e
00000100: b1ee b93d 30d8 9cbd 7700 243e da1f 833e
00000110: 1678 673d b4a8 31bd eda5 94be 7ae9 f13d
00000120: 2023 6abd 0ee8 d9bd d2f6 0a3e ea6c e83d
00000130: 1153 7a3d 3bd7 70be 2eda 0bba bb8e 453e
00000140: 62db 67be 4d80 0b3e ba7e 80bd 341a abbd
00000150: cdc8 8dbe 451c 1a3e 018f 283e 9dc5 1e3e
00000160: 12ee 443e a225 a9be 09ab 82bd ea6c 73bc
00000170: e14e 40bd 2a4e 4fbd da8e ff3c d614 84be
00000180: 437b 4cbe 6791 663c 081c 8bbe 7add 9c3d
0.023668362 -0.26239341 0.13302818 -0.360918 0.20636697 -0.06400261 0.15836678 0.07171848
0.21783021 -0.23047395 0.06122788 -0.09405187 -0.3799056 0.201458 -0.21170004 -0.02925299
-0.056590866 -0.033479385 -0.23557752 0.18103181 -0.092854954 -0.021914069 0.04997796 -0.08691414
-0.040705267 -0.15300922 0.21099438 -0.20364504 0.031428847 -0.07405237 0.004105343 0.114176154
-0.114811085 -0.0749244 0.020408632 0.050538365 -0.09944016 -0.05257422 0.041622933 -0.105093956
-0.02884343 0.08161072 0.24872823 -0.030983442 -0.04926181 -0.38820955 -0.15345092 -0.23841053
0.1601234 0.045824893 -0.1297084 -0.07222113 0.3504675 -0.1879387 0.026963126 0.054733384
0.12535888 0.0041899984 0.19195761 -0.023352016 -0.074643634 0.03524657 0.07506381 0.21541922
0.0907873 -0.07658422 0.16015802 0.25610238 0.056511007 -0.04337378 -0.2903284 0.1181211
-0.057162404 -0.10639964 0.13570717 0.11348899 0.061114375 -0.23519604 -0.00053349405 0.19292729
-0.22642282 0.13623162 -0.06274171 -0.08354607 -0.2769226 0.15049846 0.16460802 0.15505071
0.19231442 -0.33036524 -0.063802786 -0.01485751 -0.046950225 -0.050611652 0.031196047 -0.25797147
-0.19968896 0.014072753 -0.27169824 0.07659431

weight f4 [9, 100]
00000000: 239a b53c b0f1 c8be 6742 fe3d 6a3a b1bc
00000010: c0ac 5a3d ccaf 893c 03ab 5c3e a889 a1be
00000020: f215 0b3e 07eb 22bc aeec aebe b892 a0bd
00000030: 2699 2cbf 5591 473e 1b24 98be c469 5e3d
00000040: a2ba dcbe 3860 1dbf 8bf9 82be 55cf f3ba
00000050: 20ad 93be 77ca 9ebe 0fa8 a9be a5e3 b0be
00000060: 9822 77be 2a21 eebe cafc 663e 9fb1 aabe
00000070: 7b68 efbe 15c2 babe 7811 f5be 0139 a73d
00000080: f95a b6be 8005 27bf e3de 213d 2f66 253d
00000090: 055b 15bf da96 cdbe ac6a bf3d 43d3 b1be
000000a0: 93e7 29be c27d a3be ddc3 573e 3437 75be
000000b0: a36c 14be 6c5c 13bf 7ba0 3ebd a3a3 cbbd
000000c0: db3c 3b3e 6344 22be ad96 8abe 929c 9ebc
000000d0: ddb8 133d af54 28be fc0b eabe bb47 5fbe
000000e0: d0fa 0b3e f033 d3be 0cf2 c2bd d078 02bf
000000f0: f018 03bf d24c dfbd 31aa 01be 5811 183d
00000100: b3b1 363d e019 6f3d 4e44 053d b080 a23e
00000110: 0a5b 0bbf 76db cbbd 4789 fbbe 0c24 2d3d
00000120: e9e4 e5be 440f a53d 5f8d 623e 1753 7a3c
00000130: d01a a2be 311e afbc fe3c 9bbe 88ec 993e
00000140: 5679 76be f191 a7bd 9ab0 a2be fdf7 c23c
00000150: 6006 003c e977 aa3e 24d5 d23d fe04 8a3d
00000160: 381b 65bd 9402 b7bb e71b e1be 24e7 abbd
00000170: bc7b f2be a244 8f3d c7cf 993d ad48 8abe
00000180: 5833 8dbe 92f7 72bd ca14 88be 32ca 06be
00000190: 7cdb 0e3d 44bf 96be 7cc2 4f3d 0645 12bf
000001a0: cbb7 c83c a21e f6bd 2dc0 44be f98a 203d
000001b0: 0e5c 953d 4d0b b2bd a0cd 3c3d d504 89be
000001c0: d344 2bbf 8eaf fdbc 0127 13be 284d fabc
000001d0: 4715 58be e7ed d8be 6a4b 27be 4176 57be
000001e0: dca7 11be bfd0 31bd 26af 55be 4690 b2be
000001f0: f0eb 88be b632 f4bd 2277 683d 019f b3be
00000200: b330 64be 4f68 2ebf 8e21 24be 6024 40be
00000210: 9dd0 0abe 5cfc f1bd dcb5 4abe 7b0c dfbe
00000220: b272 aabd d628 c9bd 0e2d 24bd a5d2 a1bd
00000230: 4a31 853e ea3c 41bc e957 1f3d 9f7b b63c
00000240: fe4b be3d 0030 0dbe 9a8b 9bbe 19ea efbd
00000250: 7df8 803b 088c febc 9827 93be d375 9a39
00000260: 45fd 213c 9bc8 97be f0cb 1cbe b280 b8be
00000270: 2a89 013e 6a7e 323c 6cc0 e13d 9884 8fbe
00000280: 8c64 e03d 597a 68bd 73f9 d03c d477 c23c
00000290: b388 83be f6db dabe 2a51 e8bd 467a 1e3e
000002a0: 3f69 763e aa93 1e3e e47a cabe 84f7 3ebe
000002b0: ca5c 283a 1de6 27be d277 8f3e bdb5 4abe
000002c0: 6b83 febd 2770 b8be 6d98 69be e587 bc3c
000002d0: 8b56 973d e7f7 d7bc ac40 dbbd 4ffd 433d
000002e0: 26c1 943c 1b41 febc 79c4 553e 2fc0 d9be
000002f0: e24c debc 30a2 81be dd96 c3be c7e6 f7bd
00000300: b91d de3c ada3 f8be 4b96 973d 2c87 d8be
00000310: 3310 dabe 3c62 76be a60e c3bd fd99 8e3c
00000320: 07e1 ca3c 73c5 d8be 59cb 2e3d 415c f43c
00000330: 3e3e b2be e207 d3be d87b 77be 1202 52bd
00000340: bdba 75be cc77 5cbd 822a 57be 1aa0 c5be
00000350: 8922 92be ac0e 62be 6a4d aabe efe9 ef3d
00000360: 12a6 973d 32a9 66bd fcaf 0abe 1e48 20be
00000370: 4895 0ebe 36fe c6bb 85c3 033c 0bbd adbd
00000380: 9177 f53c a71d 8cbc 555a a9bd 2ca9 62be
00000390: 5485 8ebd 6ac6 e6be 10f0 a53d 58d3 953d
000003a0: 2d98 2a3d beb9 dabe 0767 c4bd 4f63 3c3e
000003b0: f5de 0abd dabe 07bf 7c1b e03c 5337 0bbd
000003c0: 24b9 c63d bf46 ccbb d472 93bd fcf2 633d
000003d0: 242b b7bd 99c3 cabd 7812 9bbe a681 063d
000003e0: 4d2e f5bd e749 0dbe 0281 b9be 7745 39be
000003f0: 124d 02be e2aa d9be af88 d3be 9566 b3be
0.022168225 -0.39246893 0.12415009 -0.0216343 0.053387403 0.01680746 0.21549611 -0.31550336
0.1358259 -0.00994373 -0.34164947 -0.078404844 -0.67421186 0.19489034 -0.29715046 0.054300085
-0.4311114 -0.61474943 -0.2558101 -0.0018601218 -0.2884302 -0.31013843 -0.3313603 -0.3454868
-0.2413429 -0.46509677 0.22557369 -0.3333864 -0.467594 -0.36476198 -0.4786489 0.081651695
-0.35616282 -0.6524277 0.039519202 0.040380653 -0.5834201 -0.40154153 0.09346518 -0.34731492
-0.16592245 -0.31931883 0.2107081 -0.2394684 -0.14494567 -0.575629 -0.046539765 -0.099433206
0.18284933 -0.158464 -0.27068081 -0.019361768 0.03606497 -0.16438554 -0.45712268 -0.21804707
0.13669896 -0.41250563 -0.09518823 -0.50965595 -0.51209927 -0.10903324 -0.12662579 0.037125915
0.04460306 0.058374286 0.032535844 0.31738806 -0.5443579 -0.09953968 -0.49128172 0.042270705
-0.44901207 0.08059552 0.22124241 0.015278599 -0.3166108 -0.021376701 -0.3031997 0.30063272
-0.24069723 -0.08182133 -0.3177536 0.02379989 0.00781402 0.3329461 0.102945596 0.067392334
-0.05593416 -0.005585024 -0.439666 -0.08393696 -0.47360027 0.069955125 0.075103335 -0.27008572
-0.27578235 -0.059318133 -0.2657836 -0.13163069 0.034877285 -0.294428 0.050722584 -0.5713657
0.024501702 -0.120175615 -0.19213934 0.039195035 0.07292949 -0.08693562 0.046094537 -0.267615
-0.6690189 -0.0309675 -0.14370348 -0.03055437 -0.21101867 -0.42369005 -0.16337362 -0.21041204
-0.1422419 -0.043411966 -0.20867595 -0.34875697 -0.26742506 -0.11923735 0.05675424 -0.35082248
-0.22284202 -0.6812791 -0.16028425 -0.18763876 -0.13556142 -0.11815712 -0.19795936 -0.4356421
-0.08322658 -0.09822242 -0.04008203 -0.079015054 0.26014167 -0.011794308 0.038902197 0.022275744
0.09291838 -0.13787842 -0.30379945 -0.117145725 0.003935872 -0.031072631 -0.28741145 0.00029460955
0.009887044 -0.29645237 -0.15312171 -0.36035687 0.1264998 0.010894397 0.1102303 -0.28030849
0.10956678 -0.056757305 0.025509572 0.02373878 -0.2569023 -0.42745942 -0.11343606 0.15476331
0.24063586 0.15486017 -0.39546883 -0.18649107 0.0006422518 -0.16396375 0.28021103 -0.1979589
-0.1242741 -0.36023065 -0.22812052 0.023014018 0.07389554 -0.026363326 -0.107056946 0.047848996
0.018158507 -0.031036904 0.2087573 -0.42529437 -0.02713627 -0.25319052 -0.38201037 -0.12104564
0.027113782 -0.48562375 0.07401713 -0.42290628 -0.42590484 -0.24060911 -0.09524278 0.017407412
0.024765505 -0.42338142 0.042674396 0.029829146 -0.34813112 -0.41216952 -0.24168336 -0.051271506
-0.23997016 -0.053825185 -0.21012309 -0.3859871 -0.28541973 -0.2207591 -0.33262187 0.11714541
0.07404722 -0.0563137 -0.13543695 -0.1565251 -0.13924134 -0.006072785 0.008042221 -0.08483323
0.02996424 -0.017103983 -0.082691826 -0.22134846 -0.06959024 -0.45073253 0.08102429 0.07315701
0.041649032 -0.42719835 -0.095899634 0.18397258 -0.033904035 -0.5302559 0.027356856 -0.03398831
0.097032815 -0.0062340195 -0.07199636 0.05565165 -0.08943775 -0.099005885 -0.30287528 0.032838486
-0.11971722 -0.13797723 -0.36231238 -0.18092905 -0.12724712 -0.42513186 -0.4131522 -0.350392

bias f4 [9]
00000000: 902b ec3d 396b d03c 17ef 92bc 7b30 a1bd
00000010: 3dde 72bd e278 9bbd ce2d 8cbc ef61 c43c
00000020: 6a7a a33d
0.115317464 0.025441753 -0.017936273 -0.07870575 -0.059293974 -0.07591416 -0.017111685 0.02397248
0.07982333
