models/classifier_143features_125x250x100_0.001lr_50e_0.2dropout_64bs_xavier_norm.pth (torch_old, 306616 bytes, 8 tensors)

weight f4 [125, 143]
00000000: 22e7 bdbd d430 27bf 1da7 51be ae08 86bd
00000010: 557e c13d 1eae 63be 5a83 a83d 1714 f03c
00000020: 2919 963d 1e73 273e b5e6 bfbe 954f 4ebe
00000030: 9a76 01bd 8fab 85bc 10ec c1bd c23f a13d
00000040: b2fd 97bd bdb8 4ebe 5a0b 853e 8540 813e
00000050: 50e3 0cbe ac5c a93d 7d56 25bf 37f5 bebe
00000060: f0d7 1abe e1bb 43bd 04d2 61be 3f00 663b
00000070: 046a 893d b84f 9bbd 7759 abbd 7b24 81bd
00000080: 6085 c2bd 6bb3 97bd 969f bb3d 8748 143d
00000090: ce4f 3fbe 1dec e63d 4ebd 463e 7822 463e
000000a0: ea03 373e ed39 1bbd 8274 78be a5a4 3c3e
000000b0: 89b4 4d3e bfb9 46be e8e8 d43e 1ed7 a23e
000000c0: 5d49 aebe 901e 453b 2ae4 dcbe b757 223e
000000d0: ce1e c63d fabd 393d 8205 29bf 5bc2 a8be
000000e0: b441 f13d b205 7d3e 8243 cdbd 9680 d53d
000000f0: 677c bfbe c9bb c2be 1c64 9ebd a7a3 063e
00000100: d187 b3bd 84bc 0abe 10cb 9f3e 5931 093e
00000110: e576 55b8 966c aabe 65d0 3ebd 4d3c 1c3d
00000120: df23 53be f6d2 ba3c 8bb7 2bbe 3e3f ee3c
00000130: 189f 943e 679a 3c3e 9b4d 9d3e 8402 b73e
00000140: abde 893e 538d 323e 7873 373e b088 2c3e
00000150: 4f8d 683e b60f 523e e5b1 c8bd 7bb8 573e
00000160: c195 02bf 93e6 b7bd 726d ac3e 597f 003f
00000170: 0e6b 7ab9 b331 50bd 1e8a cbbe 2ecd 193e
00000180: 15f0 6cbd b6e3 873e 1361 e03d 8941 233f
00000190: c8a8 aa3d b0c8 b33a 76c6 71be e794 efbe
000001a0: 437b 2a3e 51f7 473e eaa8 653e da1a 5c3e
000001b0: 78f7 633e e6b6 b1bd beff 803e 0023 883d
000001c0: 7bb9 5a3d 638e 5e3e e761 26be d49a 8abe
000001d0: 5563 cbbe de9b 2b3d 9db9 8d3d ae0b 4bbd
000001e0: 7399 173c a15a 2fbe d9b6 1cbe d8d5 d33d
000001f0: d3cb b1be 5d9a adbe 81e1 22bf 4007 d23d
00000200: 712e 1fbe 26e1 c1bc af08 463b 0884 983e
00000210: eed2 0cbd e7d9 51bb 4a38 e03e dac3 60bc
00000220: 437f 3dbd 5286 82be d0d8 883e fe68 a43e
00000230: 407a be3e c219 673e cefa 913e 0ef7 4dbd
00000240: 590e 51bf b232 813e bd53 863d 9ffa 3d3e
00000250: 270c 0ebe 6cce 9cbd 3f3e 9fbd ead3 1e3c
00000260: c875 0ebe 7b8d d53d 0ceb b2bc e083 f33d
00000270: a3d1 41be 39b8 5abe 85a8 12be 097a 4a3d
00000280: 5920 993e d8a7 a43b 04bf aabb ccdb 6c3c
00000290: 7dc0 6bbd bfc2 55be 81f9 57be f2d3 17be
000002a0: 793f 04bf 475a ad3c 126b 6bbd 91b4 dabd
000002b0: 3b2d 63bd 1dae 0fbe 9602 0abc fe12 873e
000002c0: ca5d ac3d 4922 743d 14d6 f43d a75e 063d
000002d0: dd92 d43c 859c 79be b60a 28bd 3d11 463e
000002e0: 48d6 07be df7d aabd 096c 163e 5851 f13c
000002f0: 4ac8 9ebd 3089 21bd deee 663c 4301 4c3e
00000300: eeb9 8cbd c39c d6bd 88ea 3a3d f2d5 823d
00000310: fc8d 8d3e d94e 02bf c761 cdbe 2480 7a3e
00000320: 6cd4 113d 3067 2bbd 89ca 29be 5938 f23d
00000330: 4873 063e fb1b eabd 58dc 84bd f71a 743d
00000340: 4f98 23be 856d 223e a414 ad3e 5b90 c2bc
00000350: 7aee db3c a0b8 f4be 3fa3 30be 2879 bbbe
00000360: 93cb c8be 12ee c9bd bd5c 8c3e 2d3c 8b3e
00000370: 320f b43e ff8b 953e 62e1 183e f54e ca3d
00000380: ed67 893e ae84 3d3e a3ec 933d ac68 993d
00000390: 0a1f b8bc 8192 283e 7f33 1d3e 220e 2e3d
000003a0: c873 37be 29fe d73e 72fb c93e 9ee3 013e
000003b0: 7a05 893e 101f 27be 11e6 09be d76d 0d3e
000003c0: fc81 6e3e 9607 a53e 823a b2bf 0a8f a23e
000003d0: 9c29 a2be e73b ccbe 7014 23bf 82a5 21bd
000003e0: 5545 923e 475c 6b3e 7a4f f73d f02e 4fbd
000003f0: 5cf5 a0bd 2273 af3d b1fa e23d db9f fb3d
-0.09272601 -0.6530888 -0.20473905 -0.06544624 0.09447924 -0.22234389 0.08228178 0.029306455
0.07329018 0.16352507 -0.37480703 -0.20147546 -0.031607248 -0.016317157 -0.094688535 0.07873489
-0.074214354 -0.2018766 0.25985223 0.25244537 -0.13758588 0.08269629 -0.64585096 -0.3729646
-0.15121436 -0.047786597 -0.22052771 0.0035095362 0.06709674 -0.075835645 -0.083666734 -0.06305786
-0.094980955 -0.07407268 0.09161298 0.03620198 -0.18682787 0.11275504 0.19408152 0.19349086
0.17872587 -0.03789704 -0.24263194 0.18422182 0.200884 -0.19406794 0.41583943 0.31804746
-0.34040347 0.003007803 -0.43142825 0.15853773 0.09673844 0.04534719 -0.6602403 -0.3296078
0.1178011 0.24709204 -0.10022642 0.104249164 -0.373996 -0.38033894 -0.07733938 0.13148366
-0.08766139 -0.13548476 0.31209612 0.13397731 -5.0893887e-05 -0.3328597 -0.04658546 0.038143445
-0.20619152 0.022805672 -0.16769235 0.02908289 0.2902763 0.18418275 0.3072327 0.35744107
0.26927695 0.17436723 0.17915142 0.16849017 0.22710155 0.20513806 -0.09799556 0.21066467
-0.51009756 -0.089795254 0.3367725 0.5019432 -0.00023881739 -0.050828647 -0.39753813 0.15019676
-0.057846148 0.26540917 0.109560154 0.63771874 0.08332974 0.0013716426 -0.23610863 -0.4679329
0.16648583 0.19527937 0.22427717 0.21494618 0.2226237 -0.08677463 0.25195116 0.06647301
0.053399544 0.21734004 -0.16248284 -0.2707125 -0.39724222 0.041896693 0.069201685 -0.049571685
0.009252894 -0.17124416 -0.15304126 0.10343522 -0.34725818 -0.33906832 -0.6362534 0.10255289
-0.1554506 -0.02366693 0.0030217578 0.29788232 -0.034380846 -0.003202075 0.43792945 -0.01371857
-0.046263944 -0.25493103 0.26727915 0.32111353 0.37202644 0.2256842 0.2851166 -0.050284438
-0.8166252 0.2523399 0.065589406 0.18552636 -0.13871823 -0.07656559 -0.077755444 0.009694079
-0.13912117 0.10427376 -0.021840595 0.118903875 -0.18927626 -0.21359338 -0.14322098 0.049432788
0.29907492 0.0050248913 -0.005210759 0.0144567005 -0.057556618 -0.20875071 -0.21091272 -0.14826944
-0.5165935 0.021161212 -0.057475157 -0.106789716 -0.055463057 -0.14031263 -0.008423468 0.26381677
0.08416326 0.05960301 0.11954895 0.03280511 0.025948936 -0.24376114 -0.04102584 0.19342513
-0.13265336 -0.08324789 0.1468965 0.029457733 -0.07753046 -0.039437473 0.014095036 0.19922356
-0.06871401 -0.10479119 0.045633823 0.06388463 0.27647388 -0.5090156 -0.4011366 0.24462944
0.035602972 -0.041846454 -0.16581167 0.11827154 0.13129914 -0.11431118 -0.0648734 0.05959603
-0.1597607 0.15862091 0.3380481 -0.023750475 0.026847113 -0.47797108 -0.17249773 -0.36615872
-0.39217815 -0.098598614 0.27414504 0.27194348 0.35167843 0.2920837 0.14929727 0.09878341
0.26837102 0.18507645 0.07222869 0.07490668 -0.022475738 0.16462137 0.15351675 0.042493947
-0.17915261 0.42186096 0.3944965 0.12684485 0.2676199 -0.16320443 -0.1346667 0.13811432
0.23291773 0.3223235 -1.3924105 0.31749755 -0.3167237 -0.39889452 -0.6370306 -0.03946448
0.2856852 0.2298442 0.12075706 -0.050581872 -0.078592986 0.08566882 0.11082972 0.122863494

bias f4 [125]
00000000: 19a1 b0be db68 90be f800 e7be 0348 5abf
00000010: e7de ecbe b005 f3be b9aa 70bd 5764 97be
00000020: 842c 92be df0d a7be 93b0 34bf 5763 a4be
00000030: c16a 05be d78f c1be 7090 94be 688e 7cbe
00000040: aaa7 a3be e7a6 6fbe fd29 b7be d7bf 5ebe
00000050: 8622 88be 5260 e0be cb09 d3be bbdf b5be
00000060: d24d d6be 216f babe fd21 f1be 5efa 9dbe
00000070: 2303 b0be 9e3d 093c 7976 b5be 4c27 1dbe
00000080: 4dc5 4cbe 286d d2be a925 d1be 15cf 37bf
00000090: 72df 51be 8e3a afbe c1fd cdbe 4340 78be
000000a0: 1a48 20be da77 97be 12bc 54bf c5eb 9ebe
000000b0: e711 09be de18 413e 6a17 d4be a3cf ccbe
000000c0: 8b73 2cbf d254 6bbf c1fd e6be 48b5 94be
000000d0: 54a5 8ebe 51b6 b1be efad a3be 6f06 64be
000000e0: ab2a 8fbe 7ea9 07bf 938b 0bbf a3b9 52be
000000f0: e2b7 a7be 1a64 13bf 70ee 63bf 13f2 fdbd
00000100: fbdc b1be 396c 65be 0c1b dabd e1d7 c0be
00000110: 85e3 c1be 0a54 1bbe f9c3 b8be c3a6 e1be
00000120: 2d98 d5be a671 0cbf 4f31 a3be 70f2 90be
00000130: 5575 babe b9e0 05bf 0691 abbe 83e5 9fbe
00000140: f3c0 33be 5b0f 14be c150 06bf 5a20 6fbe
00000150: b896 d9be c0f8 5ebe 871f 81be bf3d 2abf
00000160: 8572 2fbe 7fee e4bd 5b22 01bf 0e89 81be
00000170: b13d 27be 94d5 adbe 4ae9 6fbe f544 9fbe
00000180: da8f bebe 526d 79be 0a54 85be 3bb5 03bf
00000190: 768b 05bf 35fe adbe d8fc 1ebe f07b 84be
000001a0: 6f51 5cbe 2ca4 cabd ce87 2fbf bf12 2ebd
000001b0: 5aca b8be bf44 8cbe 1223 adbe 182a 92be
000001c0: dcc8 c7be 5752 01bf 3592 a1be 9662 82be
000001d0: 2908 7dbe b6be 6ebd 2277 66bf 4918 b7bd
000001e0: 9a6c 1ebe 8994 91be 7a03 bdbe abae febc
000001f0: daef 73be
-0.34497908 -0.28204998 -0.45117927 -0.8526613 -0.4626381 -0.47465277 -0.058756564 -0.2956874
-0.28549588 -0.3262777 -0.7058193 -0.3210704 -0.13029005 -0.37805054 -0.29016447 -0.24663699
-0.31963855 -0.23403512 -0.35774222 -0.21752869 -0.2658884 -0.43823487 -0.4121841 -0.35522255
-0.41856247 -0.3641291 -0.47096244 -0.30855078 -0.34377393 0.008376507 -0.3544195 -0.15347022
-0.1999714 -0.41098905 -0.40849045 -0.7180036 -0.20495394 -0.3422436 -0.4023266 -0.24243264
-0.15652505 -0.29583627 -0.8309947 -0.31039253 -0.13385735 0.18857142 -0.41424114 -0.40002164
-0.67363805 -0.919263 -0.45115474 -0.29044557 -0.2786051 -0.3470941 -0.31968638 -0.22268079
-0.2796224 -0.52993 -0.5450985 -0.20578627 -0.3275748 -0.5757462 -0.890357 -0.123996876
-0.34738907 -0.22404565 -0.1064969 -0.37664703 -0.37868896 -0.15168777 -0.36087015 -0.44072542
-0.41717663 -0.54860914 -0.31873557 -0.28309965 -0.36417642 -0.52296025 -0.33509082 -0.3122979
-0.17554073 -0.14458983 -0.5246697 -0.23352185 -0.42497802 -0.21774578 -0.25219366 -0.6650047
-0.1713353 -0.11178302 -0.5044305 -0.25299877 -0.16332127 -0.3395201 -0.23428836 -0.31107298
-0.37219125 -0.24358109 -0.2604068 -0.5144841 -0.52165926 -0.33983007 -0.1552614 -0.25875807
-0.2151544 -0.098945946 -0.68566597 -0.042498346 -0.36091882 -0.273962 -0.3381582 -0.2854774
-0.3902043 -0.50516266 -0.3155686 -0.2546584 -0.24710144 -0.058287345 -0.9002553 -0.08940179
-0.15471116 -0.28433636 -0.36916715 -0.031089148 -0.23821965

weight f4 [250, 125]
00000000: 198e e23d 49ae c5bd e43c dd3d c5a1 173d
00000010: 260c d23d 6ea9 193c b688 033d bd09 f4bd
00000020: 47d2 12be 5293 23be e002 c339 4f0b 2fbe
00000030: fca1 e4bd 9a83 e3bc 8273 29be 663c 693d
00000040: 46f5 02be 3ae3 b9bd 5297 31be 34b1 4cbd
00000050: d169 fabd 9e75 7abc e2e2 e5bd d6e7 a7bd
00000060: 74f7 933c 84f6 99be 0514 6cbe 12b8 573d
00000070: 96f9 acbd 86eb 9dbd b99f 21be 4fb8 1ebe
00000080: 8022 e2bd 0065 17bd 9ad7 2ebd 7a19 4bbd
00000090: 3180 cebd 662a 78bd 3b48 4b3d 7af0 c13c
000000a0: 07ed 78bd c1c8 47bd 1c81 fabd 2a78 00bd
000000b0: 8a2c 24be a173 f7bd 8d99 473b ffe5 f5bb
000000c0: 8f15 b23d 514d 9dbd 5b8e d53d ef02 29be
000000d0: 074c e0ba b55a 62bb 801b 143d 9a57 8bbd
000000e0: 58c7 c43d 9d8b 0dbe d77c 81bd dc18 3ebc
000000f0: f31e 58be c98d 1cbe 3492 2f3b 538c 853d
00000100: 17de 883d a247 e7bd bacd 79bd 4229 e3bd
00000110: 1e41 87bd f706 45bb 5969 a9bc cadd 16bd
00000120: f9c8 cb3b e9c6 ab3d a6a2 b6bd 850f 383d
00000130: 83a5 23bd c57c efbd 89d3 56bd ec17 1c3e
00000140: 74a5 babd be9f 2abe 87c1 8ebe 086a dfbc
00000150: f4bb e7bd 6f94 153c 65ae 82bd 2827 e93d
00000160: 5f71 77be 63a1 a2be 221b 213e 9b08 26bc
00000170: 52a2 95be c12f cdbb a728 be3b b59f f8bd
00000180: b879 033d f6af b8bd e38c 12be 1c35 90bd
00000190: 91ad 2abc 8162 9bbc e2a6 1cbe 48f9 10be
000001a0: 3f91 20be 625e 603d 302f 8f3d 3bbe 2cbd
000001b0: 3973 9d3d b09b c1bd 2f06 7cbd a9f6 1dbd
000001c0: a53a 2fbe b480 4abe d000 78bd 9b98 c2bc
000001d0: cce9 9cbd 792e f3bd c348 cebd b9f0 a5bd
000001e0: 877f 71bd 6499 d2bd 33f8 afbd f7b9 53be
000001f0: e980 90bd 866c 5fbe 76be 863e 8293 913d
00000200: 8c36 6cbe 8c53 1b3c 28f3 eabd 47e3 90be
00000210: 65f7 debd 2996 13bd 0f4f 3e3e 9d21 4fbe
00000220: e6f1 8f3c e8a8 99bc a659 ae3c d173 ddbd
00000230: e3ec c0bd 7afe 813e 4f37 04be 8055 f5bd
00000240: 6425 12be 8905 373e b39c c13d 23e5 163d
00000250: de97 98bc af17 833c f442 833c e5f8 633e
00000260: d44b f83c 3173 743c 7df2 6ebe 3e2e 41be
00000270: 64c6 3abe c4cd 87bd e868 ae3b 970f e93e
00000280: 9685 1bbe f1bb 7abe 296d 80be 9106 98be
00000290: 30be 99be c4fb 57bd 5eee 2ebd 98b8 18be
000002a0: 6961 46be 2d6f a83e 7f96 1abf 564a 6b3e
000002b0: 5a48 adbd 0263 aa3e 2751 243e 77fc 5ebf
000002c0: 82bd e9bd c893 8dbe f9d9 7d3d a550 97be
000002d0: 5246 7e3e 0d5d a33d 11fc 003e 2fb9 56be
000002e0: a8f9 c63c 8abd 09bf d01f 0fbe 5aa5 4b3d
000002f0: 4376 84bb 02ee 103e 69c7 f5be c333 e9be
00000300: c4a0 40be c431 94bc 9c17 093e cfb9 323e
00000310: d312 d0bd 3527 f23d 58dc 653e 4032 843e
00000320: f223 903d d487 e23d 5dce 34be 8414 33be
00000330: 29fe b63c 8866 a13e dae8 5cbd 6395 b0be
00000340: 3b29 a0be 181d e4bd 8c07 8cbd 1881 33be
00000350: 8f83 9ebd 695a 6ebe 1b37 c43d 18bd 16bc
00000360: f452 cd3c 6a71 87bd 4ad2 733e 250a 8ebd
00000370: 68b7 e9be 86de 28be f48a 52bd a861 dfbd
00000380: 661b c73d ac6e 033e 15b4 a0bd b282 9fbe
00000390: a6c3 e9bd 146d 173e f81d 0ebe bfb8 76be
000003a0: 9f1f ccbe ea6c aebe ad04 29bc 367a 733e
000003b0: 1b7c 223e bdc1 39be 8f4f 4e3e a77e d6bd
000003c0: e453 0c3e 165f b7be 179d 48bf 1a24 ba3e
000003d0: 93d5 63be db82 7fbe d4b8 39be c247 7dbe
000003e0: c1d3 9dbe a92d f8bd 5d3a 18bc 8daf 77be
000003f0: 07e2 95be 634a 5d3e 94a4 c6bd 2ef7 8bbe
0.11062259 -0.09652383 0.108026296 0.03701951 0.102562234 0.009378774 0.0321128 -0.1191592
-0.14338027 -0.15974167 0.0003719544 -0.17094158 -0.111637086 -0.027772713 -0.16547969 0.056942366
-0.12788877 -0.09076543 -0.1734288 -0.04997368 -0.12227214 -0.015286831 -0.11224915 -0.08198516
0.01806233 -0.3007089 -0.23054512 0.052665778 -0.08446042 -0.07710938 -0.15783586 -0.15499996
-0.110417366 -0.036961555 -0.042686082 -0.049584843 -0.10083044 -0.06058731 0.04962943 0.023674238
-0.060772922 -0.04877544 -0.12231657 -0.031364597 -0.16032615 -0.12082601 0.0030456514 -0.0075042243
0.08695518 -0.076807626 0.10427543 -0.16505025 -0.0017112502 -0.003453893 0.03615904 -0.06803818
0.09608334 -0.1382279 -0.063226394 -0.011602607 -0.21105556 -0.15288462 0.0026790025 0.06520905
0.06682985 -0.1129296 -0.06098721 -0.11091854 -0.06604217 -0.0030063966 -0.020680116 -0.03683261
0.006219026 0.083875485 -0.089177415 0.044936676 -0.039952766 -0.1169372 -0.05244783 0.152435
-0.09113589 -0.166625 -0.27882025 -0.02727224 -0.11315146 0.009129628 -0.06380919 0.113844216
-0.24164341 -0.31763753 0.15733007 -0.010133888 -0.29225403 -0.006261796 0.005803186 -0.12139837
0.032098502 -0.09017937 -0.14311557 -0.0704138 -0.010417358 -0.018967869 -0.15298036 -0.14157593
-0.15680407 0.05477751 0.06991422 -0.042173605 0.076879926 -0.09453523 -0.061529335 -0.03856531
-0.17112215 -0.19775659 -0.06054765 -0.023754409 -0.07661781 -0.11874098 -0.10072472 -0.08102555
-0.05895951 -0.10283163 -0.08592262 -0.20676409 -0.07055838 -0.21818742 0.26317185 0.07108213
-0.23067683 0.009480368 -0.114721596 -0.282984 -0.108870305 -0.036031876 0.18584846 -0.20227666
0.0175714 -0.018757299 0.021282982 -0.10813106 -0.094201826 0.25389463 -0.12911724 -0.119791985
-0.14272076 0.17873205 0.09453716 0.036839616 -0.018627103 0.016002504 0.016023137 0.22262914
0.030309595 0.014920042 -0.2333469 -0.18865296 -0.18239743 -0.066310436 0.0053225644 0.45519707
-0.15187678 -0.24485756 -0.25083283 -0.2969251 -0.30027914 -0.052730337 -0.042707793 -0.14914167
-0.19373097 0.3289732 -0.6038589 0.22977576 -0.084610656 0.33278662 0.16046582 -0.8710398
-0.11413099 -0.2765181 0.061975453 -0.29553714 0.24831513 0.079767324 0.12596156 -0.2096908
0.024288967 -0.5380484 -0.1397698 0.04971824 -0.004042418 0.14153293 -0.480037 -0.45547304
-0.18811327 -0.018090136 0.13387913 0.17453693 -0.101598404 0.118238844 0.22447336 0.25819588
0.07038106 0.110610634 -0.17656846 -0.17488295 0.02233799 0.31523538 -0.053933002 -0.34488973
-0.31281456 -0.11138362 -0.06837377 -0.17529714 -0.077399366 -0.23276676 0.09580823 -0.009200357
0.02506397 -0.06613429 0.23810688 -0.06935529 -0.4564774 -0.16491136 -0.051402047 -0.10907298
0.09722023 0.12835187 -0.07846848 -0.311544 -0.1141427 0.14787704 -0.1387862 -0.24093913
-0.39867875 -0.3406747 -0.010316056 0.23777089 0.15867655 -0.18140312 0.20147537 -0.10473376
0.13703877 -0.35814732 -0.783647 0.36355668 -0.22249441 -0.24952261 -0.18136913 -0.24734405
-0.30825618 -0.12118084 -0.009291259 -0.24188061 -0.29274008 0.21610408 -0.096993595 -0.2733702

bias f4 [250]
00000000: 492e 1fbe 3c22 963d b862 9c3c f24b 073e
00000010: 3020 783d 4ea6 0d3e 76a3 0b3e 826e 38be
00000020: 1aa9 213e 6445 d33d 632b 19be 8805 573d
00000030: 5769 08bf 6ef8 53bf a60c bbbd 5b9e 7c3c
00000040: 1bf1 95bf c512 13bc edb8 a4bd e1c1 2c3e
00000050: 7dc4 ae3d 4220 6abf 3429 c1ba bf83 ddbe
00000060: 4e6e 99bd 59e6 6b3e 68bb 7b3d 60ce 143e
00000070: ae48 07bd c763 4cbe 2294 39be b34a 1a3e
00000080: b3fa 52be 85a8 75be 23d6 bfbf a1e7 1fbe
00000090: 72cb ef3d d16b cdbe 7249 2a3d ba02 253c
000000a0: 30d4 25bf 0a90 113e 8b79 c6bd bdab 83bf
000000b0: 4735 8a3d 79cb 7e3e 14ef 92be f688 843d
000000c0: 182c 5d3b b8b5 643c c31e d5bd d4ac c13d
000000d0: 98fb 083d 27e8 cc3d d43c 153e c297 073d
000000e0: 1f75 083e 69b6 61be 06e1 86be abf6 bb3d
000000f0: e96c 9ebe 4d66 003d 5dbe 0f3e 8c0e b13d
00000100: d3d9 173e d4e7 23be 3aa4 e9bd 5b5c 063e
00000110: d9e2 35be 0a17 3dbe 42d2 79be c1cc 93be
00000120: 7720 a93d ba1a 19be 08d9 b9bd d143 993d
00000130: 2a94 36be 48d6 1e3d 4063 6fbd a4df 683d
00000140: 0d6c e5bc f95a 343d ac9f 793d a603 003e
00000150: 9ace 813d 1f72 5f3d 4d5c 753d b4e8 a1bf
00000160: 39d2 28bd 8d39 87bd 4c51 3abe ef90 95be
00000170: b98a c83d 7fbf 87bb 2e50 94be 342a 44bd
00000180: 5a1d 20be c03c 96bf 5ac5 8ebd 2bcd 6d3d
00000190: 5287 38be 1b63 5f3d cebe 9fbe 60b4 0d3d
000001a0: 92e8 c63b 5ede f8bd 4e19 01be 0fe6 8fbd
000001b0: 7224 d23d a4e0 833d 93ae 733d 1e52 233d
000001c0: 5aca 5abc 24aa 75bf 2d4c 373e 66be 283d
000001d0: 66e2 b93d 1235 18bf 35c9 5bbc b7ba da3d
000001e0: 3c8f 2bbd 0a20 92be d455 083e 5a53 143e
000001f0: f255 34bb 5dcc c13d dc3d 523b fd77 2dbe
00000200: 06de 593d 3c26 a2bf 90fe 893e dea7 25bd
00000210: 4d99 b6bd cf81 c43d 3eaf 5ebe a238 c13d
00000220: c709 ff3c f290 b6bd 33b4 15be 0ac7 563e
00000230: 5cce a5bd 89b4 833d 8efb d83d 747a 54bc
00000240: d4d4 fa3d 04fc 9d3c 4fd7 9cbf e526 dcbd
00000250: 993a 58be 007f b23b 997b f43d b689 35bd
00000260: ed26 39be c5fb 34bd c134 8e3d 3f75 8cbf
00000270: a48a 4abe dc90 5ebd c949 9abd fd9f f13d
00000280: 3e11 09bd db31 183e 0acb 8ebd 6790 2ebe
00000290: 5e51 76bd c0d6 82be 9d5a 973c 3571 943d
000002a0: 0ede c73d 08c6 d63a 5889 863d 7e5c 633c
000002b0: d798 66bc 940f 79bf 4749 babe 653c 68bd
000002c0: e104 0c3d f711 68bc 9a6d 80bf 67d1 87bf
000002d0: 5475 d03d 1053 01bc d33d 69bf 0d81 4e3c
000002e0: 5fd4 b43d 2651 85bc 3eab 413e 1677 353d
000002f0: 52d9 efbd 07f8 163e ff0b 58bf 886c 933d
00000300: 8ba7 09bd 3a2d d73d c0d0 a83a 7333 553e
00000310: d2d2 fd3c d2ae 9abf 10b9 acbd fea7 d3be
00000320: 64ff f6bd e891 c2be b3f5 6d3c b27a bdbd
00000330: 7fb6 a6bd 1e0e f73d a064 c5bf d12f 0b3e
00000340: 2a54 293e 74f8 11bd d4e5 0e3e 5ca9 903b
00000350: 00a0 fc3d cf68 c73d e314 be3d e098 9bbc
00000360: e409 e63d 116c b1bd da77 06be 3df5 34be
00000370: 9ca7 a73d 5044 19bf b8cf a9bc 333e 9d3c
00000380: cda6 2fbe da95 d63c 583b c23d 896b cabe
00000390: bab2 be3d 5ac1 03be f18a 29bd 1801 60bd
000003a0: 50cc 1a3d 8288 cbbd 2c47 08bd 6dc7 2abc
000003b0: 21ca e53d 325f 1dbd c9eb 72be 085c 04bf
000003c0: 126e 92bd 8bc2 983d 495a db3d d8d5 1cbe
000003d0: 1bff bebd 6991 8c3e 5b87 693c 8b02 b0bc
000003e0: 03c2 783d 138d 61bd
-0.15545 0.073307484 0.019090042 0.13212565 0.06057757 0.13832971 0.13636574 -0.18010905
0.15787163 0.103159696 -0.14957957 0.05249551 -0.53285736 -0.8280095 -0.09133272 0.015418614
-1.1714205 -0.008976643 -0.08043084 0.16870834 0.08533571 -0.9145547 -0.0014737011 -0.43264577
-0.07491742 0.2303709 0.06145802 0.14531851 -0.033028297 -0.19959937 -0.18122914 0.15067558
-0.20603447 -0.23990066 -1.4987224 -0.15615703 0.11708726 -0.4012132 0.04157395 0.010071451
-0.647769 0.14215103 -0.09691151 -1.0286785 0.06748443 0.24882306 -0.28698027 0.06471436
0.0033748206 0.013959341 -0.10406258 0.094567925 0.033443063 0.10005217 0.14573985 0.033103712
0.13325928 -0.2204224 -0.26343554 0.091779076 -0.30942467 0.03134756 0.14037462 0.08645353
0.14829187 -0.16006404 -0.11408277 0.13121168 -0.17762317 -0.1846582 -0.24396613 -0.28867152
0.08258145 -0.14951602 -0.090745986 0.07483638 -0.17829958 0.038778573 -0.05844426 0.056853905
-0.028005624 0.04403207 0.06094329 0.12501392 0.06338234 0.054552194 0.059902478 -1.264914
-0.04121611 -0.06602774 -0.18195075 -0.29212138 0.09792084 -0.004142701 -0.28967422 -0.04789181
-0.15636197 -1.173729 -0.069712356 0.05805699 -0.1802037 0.054537874 -0.3120026 0.034595847
0.006070205 -0.12151788 -0.12607309 -0.07026302 0.10260858 0.06439331 0.05949266 0.039873235
-0.013353908 -0.9596274 0.17900153 0.041197203 0.09076385 -0.5945598 -0.013414671 0.10680144
-0.041884646 -0.2854007 0.13313991 0.14484921 -0.0027517048 0.09462807 0.0032080328 -0.16940303
0.053190254 -1.2667918 0.26952028 -0.040443294 -0.089159586 0.095950715 -0.21746537 0.0943463
0.031132592 -0.08914365 -0.14619522 0.20974365 -0.080960006 0.06430919 0.10594855 -0.012968648
0.12247625 0.01928521 -1.2253207 -0.10749606 -0.21116103 0.0054472685 0.11937637 -0.044320785
-0.18081255 -0.04418542 0.06943656 -1.0973281 -0.1977945 -0.054337367 -0.07533605 0.117980935
-0.03346371 0.14862768 -0.069723204 -0.17047273 -0.06013619 -0.25554466 0.018475825 0.07248155
0.097591504 0.0016385922 0.06569165 0.013877032 -0.014074526 -0.97289395 -0.3638403 -0.05669822
0.03418434 -0.014164439 -1.0033448 -1.061078 0.101786286 -0.007893339 -0.9110996 0.01260401
0.08829569 -0.016274046 0.1891298 0.044303022 -0.117113724 0.14743052 -0.84393305 0.07198435
-0.033607047 0.10506673 0.0012879595 0.20820408 0.030984316 -1.2084601 -0.08433735 -0.41339105
-0.12060431 -0.38001943 0.014523911 -0.09251918 -0.08140277 0.120632395 -1.5421333 0.1359246
0.16536012 -0.035637334 0.1395486 0.0044147205 0.12335205 0.097367875 0.092813276 -0.018993795
0.11232355 -0.0866319 -0.13131657 -0.17671676 0.08186266 -0.5986986 -0.02072893 0.019194698
-0.17153473 0.026194502 0.09483975 -0.39535168 0.09311433 -0.12866727 -0.04139227 -0.054688543
0.037792504 -0.09938146 -0.033271 -0.010423523 0.11220194 -0.038420863 -0.23722757 -0.5170293
-0.071499005 0.07458981 0.1071058 -0.1531595 -0.09326001 0.2745469 0.014253463 -0.021485588
0.0607319 -0.05506618

weight f4 [100, 250]
00000000: 2126 c0bd 63af 69bd 9554 79be 7840 e5bd
00000010: 9977 dfbe 901b 043e eb42 90be 4660 523b
00000020: 5167 e13d 6259 a83d 5013 9cbe 138c a63e
00000030: bfed bb3e 9e5f 88bd 9492 63bd 9f43 953d
00000040: e90e 92be 50e3 003e 99ba d6be ad44 8fbd
00000050: 330d fb3d 323d dcbd f959 c53e 4ea0 f4bc
00000060: d442 1d3e 3b8b 5a3d 0a11 2abe 8a6e 993e
00000070: d7c4 193c d159 943e 50f5 893e d86e 753e
00000080: 430d 1b3e 563e a8be 006a 4dbe 72ac 743e
00000090: 4fad a63d fff3 373e 67e2 acbd 7ff2 873c
000000a0: 7389 8ebc ed6e b1be ce91 d33e 988b 4ebe
000000b0: 904d 20be 58dc ee3d dbd3 89bc b1e1 ed3d
000000c0: ac35 b03e 2fe5 cfbd 122b 92bd 8a70 523d
000000d0: b91b 1c3e 2ff8 913e d881 7ebd a51f b53d
000000e0: 564e 14bd 621d c1be d7aa 31be e06d 4c3d
000000f0: 2fb5 c7bd ce01 9d3c 3a71 b83e 4221 64be
00000100: b3b6 603e 1f36 ed3e e0c6 8abe 0f87 7a3e
00000110: 4df5 cf3c 2093 36bd 8e2d 31be 638a aa3e
00000120: f3f6 b0be 5502 e53d e1c4 a93e fb95 983e
00000130: 03a2 60bc 7b0a da3e aff6 01be 7797 8ebe
00000140: bdc9 1fbd 8ca8 13be 39d1 603e 002b 463e
00000150: 6cb2 83be 9aa0 543e 7f7d 703e 8da5 73be
00000160: f7a7 ebbe e3c8 a4be c298 d6be 215b ecbe
00000170: 2dd5 19be 21f4 8abe 3be9 513d 1feb a63c
00000180: 1468 0c3f af65 c3be 777c ec3d f6c1 3e3e
00000190: 6e39 393c 71f2 bfbe 8b11 13bd 2cbd c73e
000001a0: a873 7d3e a74b 0f3d 9623 95be 2972 92be
000001b0: 8650 973d 384a b6bd 6e21 953e 2961 fdbd
000001c0: 036f 07bf bb94 31bd a605 9f3c 8789 143e
000001d0: ec51 a43d c072 f53d 5144 f03d 9f99 93be
000001e0: 243b 643e 61ef 89bc b241 d7bd 57e2 083e
000001f0: 14a5 2cbe ec37 363e 4a1c 6d3d 45ae 0fbd
00000200: 25ff afbe 19f8 e6be 5868 9a3d 1e95 5cbd
00000210: db90 133f 780e 8b3d f0ae 41bd a410 113e
00000220: c827 d1bd f8f7 253d befb ba3d 8efe fb3d
00000230: 1bdf ad3e 48f1 f43e e67f 4abd 342a 4abe
00000240: c5a6 94be 6afc f6bd 9e52 4fbe 96bd 113e
00000250: 92f9 59bd 517d 4bbe b44f 3a3d 257c 983d
00000260: 519d 2bbd 27f0 acbe cddb e53d c068 9dbe
00000270: 4f94 6bbd bbd3 023d a1b0 4ebe d105 a6bc
00000280: 2263 ef3d b5b3 0c3e 6fb3 1c3e 74be e53d
00000290: 8674 d53c 705d 29bd 0475 7abe 60ca e13e
000002a0: 8d4d b43e 63cb df3e 5f08 883d ba2e 60be
000002b0: 7900 9f3b 65da 4dbe 52a5 803c 423a b13e
000002c0: 71e1 e83e cccb 283d c1db d2be 1166 4b3d
000002d0: 929a b4bd 0047 afbd 0e83 d8bd 941c acbe
000002e0: e5fd 0dbc 92f3 ad3c 9bb2 013d d1f6 0abe
000002f0: 9655 54be 2d8f dd3d 950b 97bd 56fd 133d
00000300: 89ed 013e c6e3 5cbe b3b9 3a3e 574a 60bd
00000310: 69ef 3a3e 6d77 c6bd 2012 ef3d 0935 ad3b
00000320: 0482 57be 5da8 1abd adc6 0f3e b0fa f53d
00000330: d1f0 873e 16ef 90be d677 3cbe cab2 2c3e
00000340: cd83 4d3c a01e 12bf 469e 1abe 12cf 2b3e
00000350: b8f7 5abe 1fc8 613e 8470 02be bca6 193e
00000360: 05f9 ef3d 71e6 4bbe d00e 7a3e 396f 0abe
00000370: c3a1 64be 80ef 82be 3228 be3b 03fa 263e
00000380: 4214 08be 0a94 04bf 343d 78bd 2349 7ebd
00000390: 7ec0 db3d 54bf a33b 6ed9 c3be 0296 f0bd
000003a0: ac60 a1be 1adc d8bc 6013 5dbe 1378 0f3e
000003b0: a716 9c3e 5a66 5a3e cc25 fd3d 6996 f5bd
000003c0: 5526 f43d a08d 4fbe d284 90be 3ed0 8b3e
000003d0: 2ab6 623e 9342 54bc a174 3abe ea6a 323f
000003e0: bd38 a3be 78b6 e1be 1987 5dbd e7c9 5e3e
000003f0: 5b68 fc3d 81eb ecbc cf10 cabd 7813 8d3d
-0.093822725 -0.057052027 -0.24348672 -0.11193937 -0.43645933 0.1290114 -0.28176054 0.003210084
0.11006034 0.082201734 -0.30483484 0.32528743 0.36704823 -0.066588625 -0.05555971 0.07288288
-0.28527 0.12586713 -0.41939238 -0.06995521 0.12258377 -0.107538596 0.38545206 -0.029861595
0.15357524 0.053355437 -0.16608062 0.29967147 0.009385309 0.28974774 0.2694497 0.23968065
0.15141778 -0.3286006 -0.20059967 0.23893908 0.08138525 0.17964171 -0.0844162 0.016595123
-0.017399525 -0.34654942 0.41322178 -0.20170438 -0.15654588 0.11663121 -0.016824653 0.11615313
0.34415948 -0.10151135 -0.07137121 0.051376857 0.1524495 0.28509662 -0.062135547 0.08843926
-0.03620752 -0.3771773 -0.17350326 0.049909472 -0.09751355 0.0191659 0.36023885 -0.22278312
0.21944694 0.46330354 -0.27104855 0.24465583 0.025385523 -0.044573903 -0.17302534 0.33308706
-0.34563407 0.111820854 0.3315802 0.29801926 -0.013710502 0.4258612 -0.12691759 -0.27849934
-0.039010752 -0.14419764 0.21954812 0.1935234 -0.25722063 0.2076439 0.23485373 -0.23793621
-0.46026585 -0.32184514 -0.4191342 -0.46163276 -0.15022726 -0.2713938 0.051247817 0.020375786
0.5484631 -0.38163516 0.11547177 0.18628678 0.011305196 -0.37489656 -0.035905402 0.39011514
0.2475115 0.034984257 -0.29128712 -0.28602722 0.073884055 -0.08900875 0.29127067 -0.123720475
-0.52903765 -0.04335473 0.019411873 0.14505588 0.08023438 0.119847775 0.1173178 -0.2882814
0.22288185 -0.016837778 -0.10510577 0.13367592 -0.16859847 0.1779477 0.057888307 -0.035078306
-0.34374347 -0.45111158 0.07539433 -0.053853147 0.57642907 0.06789869 -0.047285974 0.14166504
-0.10212666 0.040519685 0.09130047 0.12304412 0.33959278 0.47840333 -0.04943838 -0.19742662
-0.29033485 -0.12059863 -0.2024636 0.14232478 -0.053216524 -0.19872023 0.045486167 0.07445554
-0.041898075 -0.33776972 0.11223564 -0.3074398 -0.057514485 0.031940203 -0.20184566 -0.020266445
0.1168883 0.13740428 0.15302823 0.11217967 0.02605654 -0.041348875 -0.244587 0.44099712
0.35215417 0.4370986 0.06642222 -0.21892825 0.0048523513 -0.20102842 0.01570383 0.3461476
0.45484498 0.04120998 -0.41183284 0.049657885 -0.088185444 -0.08558464 -0.10571872 -0.33615553
-0.00866649 0.021234307 0.031664472 -0.13570715 -0.20735773 0.10818324 -0.07375256 0.03613027
0.12688269 -0.21571264 0.18234901 -0.054758396 0.1825539 -0.096907474 0.11673379 0.0052858633
-0.21045691 -0.03775822 0.14040633 0.120107055 0.26550916 -0.28307408 -0.18405089 0.16865078
0.012543631 -0.5707798 -0.15099439 0.1677821 -0.2138356 0.22048996 -0.12738234 0.1500501
0.117174186 -0.19912125 0.24419713 -0.1351899 -0.22327332 -0.2557335 0.0058031315 0.1630631
-0.13288978 -0.5178839 -0.060605243 -0.062081467 0.10730074 0.0049971733 -0.38251823 -0.11747362
-0.31519067 -0.02647214 -0.21589422 0.14010648 0.30486032 0.21328107 0.12360725 -0.11991579
0.11921374 -0.2026887 -0.28226334 0.27307314 0.22139803 -0.012955326 -0.18208553 0.6969439
-0.31879225 -0.44084525 -0.054083917 0.21756707 0.12324592 -0.02892089 -0.09866487 0.06888479

bias f4 [100]
00000000: 0449 afbd f3ed 8d3d 5169 d73d dafe c33d
00000010: 41cf 4abd a05f c8bc 3a66 173d 5549 1fbe
00000020: ebaf 46bd 35c1 93bc c202 e13c 4366 343d
00000030: 6ade 833d 378f 11bd 121c 8e3d 6005 093e
00000040: 636f a73d c183 47bb e8f6 17bc e76d 503e
00000050: 1621 9abd 48e8 163e b2e0 8dbc 07d8 783e
00000060: c4ba 343e c008 62be 6645 5fbe 2e1c d8bd
00000070: 9009 1abe 9e2e 4dbd aa3a 883e 20c5 0e3d
00000080: 636b 863e e66c b33c 6c78 0dbe 1047 83be
00000090: a8f3 90bd ec13 913d 406a a5be de63 f9bc
000000a0: 1159 6bbe e676 6d3d ca94 263e 5664 933d
000000b0: 41d9 573e 1d73 55bd 4e60 9e3d ec3e 07bd
000000c0: 72b2 89be ee55 053e 5d17 49bd 7a84 ff3d
000000d0: f586 25bc 690d 60be b81f 20be 88b6 0bbc
000000e0: dcec 783d 3609 0b3c e0b4 d6bd 247d 64bd
000000f0: 8640 c63d b0e0 c7bb f99f 14be 6bd3 da3d
00000100: a357 11be 76f9 5ebd 50f7 03be a7a9 303e
00000110: 575c 66bc b1ac 5b3e 0ca8 a03d c31b f73c
00000120: 5177 c0bd b47d 9cbe 2f03 dd3d 1e08 c5bd
00000130: 2595 733e 7ca1 503d 8aff c0bb 076b 6b3b
00000140: 2622 0dbd 9e81 d0bc fb59 8c3d 132a 5dbe
00000150: 8692 483c 17a8 8a3d add8 993d 52d1 a43c
00000160: cc22 603e 7115 3b3e 64e5 4cbd 562b f8bd
00000170: 33eb 1ebc a823 b13d a669 e03c 403b f1bd
00000180: 6b73 f2bd 7d27 37be 0c16 233d be3f 593e
-0.085588485 0.06930151 0.105181344 0.095700935 -0.04951406 -0.02445966 0.036962725 -0.15555318
-0.048507612 -0.018036464 0.027467135 0.044042837 0.064389065 -0.03553697 0.06938948 0.13380957
0.08175542 -0.0030443522 -0.009275176 0.20354424 -0.07525842 0.14737046 -0.017319057 0.24301158
0.1764937 -0.2207365 -0.21803817 -0.1055225 -0.1504271 -0.050093286 0.26607257 0.03485596
0.26253805 0.021902513 -0.13815469 -0.25640154 -0.07077724 0.07083878 -0.32307625 -0.030443128
-0.22983195 0.05797472 0.16267696 0.07196872 0.2107897 -0.052111734 0.077332124 -0.03301899
-0.26893955 0.13021061 -0.049094547 0.1247644 -0.010102977 -0.21880116 -0.156371 -0.008527406
0.06077276 0.008486083 -0.10483718 -0.055783406 0.096802756 -0.006099783 -0.1451415 0.10684856
-0.14193587 -0.054437123 -0.12887311 0.17252217 -0.0140601015 0.21452595 0.078445524 0.030164605
-0.09397758 -0.30564654 0.10791623 -0.09620689 0.23787363 0.050935254 -0.0058898376 0.0035921948
-0.034456395 -0.025452431 0.068531 -0.21598081 0.012241965 0.06770342 0.07512031 0.020119343
0.21888274 0.18269898 -0.05002345 -0.12117641 -0.009699631 0.08649379 0.027394127 -0.11778879
-0.118384205 -0.17886157 0.039815947 0.21215722

weight f4 [9, 100]
00000000: f721 a9be 3ed0 85be b266 b93d 8a61 4d3e
00000010: 324d 65bf c3fb 94be 3093 25bf 1f89 2abf
00000020: a94f 98bc 841e a9be 5fcb 96be b756 71be
00000030: 08f2 423e cda0 0abf fec1 b1be 7b06 c8be
00000040: 11b7 11bd 9c74 0ebe 8112 9ebe 467a 593c
00000050: 2124 033d 4e18 083e 7478 763d d142 1f3e
00000060: f614 263d 7cd1 9dbe ce62 38be 041a a3bb
00000070: 4564 aabc d946 89be b5b3 bb3e d4b3 0ebe
00000080: d167 24bc 1286 d83d 23ad 9cbf a0f0 8bbe
00000090: 687d a4be e772 713e 0861 5ebe 9496 e73e
000000a0: 9dfa cbbd 41b4 cb3c 5601 f83c f9db 92be
000000b0: c0eb de3d 2077 8a3d 562a 9dbe 57a8 94be
000000c0: 3ff0 ffbe 0cd9 7cbe 4928 08be aca7 d63d
000000d0: 569d d1be dc09 a3be f429 06bf e643 a0be
000000e0: cd08 15be 0fb6 043c f1bf 483d c654 a9be
000000f0: 392e d4be 6402 05bf a56b ffbe b580 5ebe
00000100: 831f c4be ce40 85be beb7 c5be 1fea b53d
00000110: a734 a0be 847b ee3e 9294 463e 6f34 bebc
00000120: 131f 8c3e cc97 11be a1a8 833e 3c75 dbbe
00000130: 5e98 6e3b d2ff bebd b139 febd b95e e7bc
00000140: 183f 14bd a7e3 653e 0f3a ecbe 244c 833d
00000150: 945e fe3b 732c 82bd c7fb a93e 57ba 7fbe
00000160: 2231 f23d b9d6 ab3e 3e17 d33b cca5 adbe
00000170: 0e1e 67be 3ee7 2fbe eadb bfbe b413 29bf
00000180: e42a 453e 9b6d 8abe d475 aabe 6a08 753e
00000190: a8ae c13d fb77 06bc a1de 8cbd 9285 80be
000001a0: d22b 72be 519a fe3d dfc3 b0bc d25a d6be
000001b0: b6a2 06be 6802 263c 0e50 80be 2b22 92bd
000001c0: 120a 4e3d 16f6 08be 87a7 fabd f980 7abe
000001d0: ce93 f33d a28c 213d c5b8 383e 2077 2dbe
000001e0: e6ac b1be ecfb 3ebe f01b c9bd ce36 59bb
000001f0: a046 d33d 7c65 81be d8c1 d23d cfba 633e
00000200: dcc8 85be 152a db3c 9c09 e33d 3bee 5c3c
00000210: e9ba d1bd a5cd fdbe 751a 5dbf 8ecf c3bc
00000220: 31fb 8fbe 2f22 c2be dbb3 98be d7bb babe
00000230: b632 34be 02db 79be 1f3b c8bc 95af a6be
00000240: b0bf 0f3a bf57 573e 7148 51be 18d2 8f3e
00000250: 505d abbd 7a01 0cbd 6b1b 7b3c 030b a1bd
00000260: 2ff4 bfbe 1f56 edbe ade9 97bb 488b 54bf
00000270: 0e67 fbbe bd0d 833c 18df 2cbd 5a17 713d
00000280: 6264 08be 1801 8c3b d66b c9be 484c b43d
00000290: 6b56 0dbe adcc 4cbe 3298 c2bd ef62 f8bd
000002a0: d782 053c 0813 dd3d 3a6a 123e b498 43be
000002b0: 082f bb3e 674a 8dbd fda4 f73d 1466 83bd
000002c0: 7977 0d3c 26dc 44bd c57a dabe 7cb9 963d
000002d0: f3d8 1f3e c565 e43d 3cca 3bbd 1d27 0b3e
000002e0: 46fa 84bd 88be d9be 12e0 86be 388f 563d
000002f0: 5d04 413e fce4 c23d 03f7 33be 55bc 96be
00000300: 45c0 d8be 626e 3ebc 70f4 a2bb 5684 6ebe
00000310: 0aad abbe ec5f 8a3d 6c58 e9be 6931 573e
00000320: 99ae f93d 224f 683c 0875 b4bd 8dfa 11bf
00000330: d10c c23d d07f a4be a9a8 0d3e e2dd 53be
00000340: c389 bebd 6db8 d83d 1994 3a3c b5d3 4a3d
00000350: a146 483e 9a89 a43c 69a5 ef3d bc05 e8bc
00000360: c2a4 ce3d ef18 16ba 7513 7fbe 8a79 43bd
00000370: 333a 73be 8761 cebd a399 033e 1878 b8bd
00000380: bc90 a0bd 6eb9 90bd b8a1 ecbe 2e34 18be
00000390: e1b2 3d3d a9ed dbbd 5338 c9bd c6c3 9cbd
000003a0: 6667 93bd 6188 253d 8d7b 21bd b494 d8be
000003b0: c9b3 19bf ee4d 36be 55d6 913d 56e0 9a3d
000003c0: dd5f 3ebb 3fe9 db3d 3c8e 24be 67cf 17be
000003d0: 7877 59be 0b08 a7be 804d ccbe a89e 033e
000003e0: fef7 eebe 0405 42be f7f6 6fbe 2725 233d
000003f0: 8dbb 20bd a92e a93e 5e84 9abe 3af4 f6bd
-0.33033726 -0.2613544 0.09052791 0.2005674 -0.89570916 -0.2909833 -0.64677715 -0.6661548
-0.018592672 -0.33031094 -0.29452035 -0.23568235 0.1903764 -0.5415161 -0.34718317 -0.39067444
-0.035574976 -0.1391167 -0.30873492 0.013273781 0.032016877 0.13290522 0.060173467 0.15552832
0.040547334 -0.30823886 -0.18006441 -0.0049774665 -0.020799765 -0.26811865 0.36660543 -0.13935786
-0.010034517 0.10572447 -1.2240337 -0.2733202 -0.32126927 0.23578988 -0.21716702 0.4523207
-0.0995991 0.024866225 0.030274075 -0.2868345 0.108848095 0.067610025 -0.30696362 -0.29034683
-0.4998798 -0.24692172 -0.13296618 0.104811996 -0.4094035 -0.3184346 -0.52407765 -0.31301802
-0.14554138 0.008100047 0.049011175 -0.3307249 -0.41441515 -0.5195677 -0.49886814 -0.21728785
-0.38305292 -0.26026005 -0.38616747 0.08882546 -0.3129017 0.4657861 0.19392613 -0.023218362
0.27367458 -0.14218062 0.2571459 -0.4286288 0.0036406736 -0.093261376 -0.124133475 -0.02824341
-0.036192983 0.22450124 -0.46138045 0.06411007 0.0077627394 -0.06356134 0.33199903 -0.24973427
0.118257776 0.33562258 0.0064419797 -0.33915555 -0.22570059 -0.17178056 -0.3747247 -0.6604569
0.19254643 -0.27036747 -0.3329302 0.23928991 0.09457141 -0.0082073165 -0.068784006 -0.25101906
-0.23649529 0.12431777 -0.021577774 -0.41866165 -0.13148007 0.01013241 -0.25061077 -0.07135423
0.050302573 -0.13375124 -0.122389846 -0.24463262 0.11893426 0.03944076 0.18039234 -0.16939974
-0.34702224 -0.18650788 -0.09819782 -0.0033144238 0.10316205 -0.2527274 0.10290879 0.2223923
-0.26129806 0.026753465 0.11085817 0.013484533 -0.102407284 -0.49570957 -0.86368495 -0.02390268
-0.2812133 -0.37916705 -0.2982472 -0.36471435 -0.1759747 -0.24399951 -0.024442254 -0.32555833
0.0005483581 0.21029566 -0.2043779 0.28089976 -0.08367407 -0.034181096 0.015326361 -0.078634284
-0.37490985 -0.46354768 -0.0046360106 -0.83025026 -0.49102062 0.015997762 -0.042204946 0.05886016
-0.13319543 0.0042725913 -0.39340085 0.08803612 -0.13802497 -0.19999953 -0.09501685 -0.12128245
0.00814887 0.107946455 0.14298335 -0.1910122 0.3655932 -0.06898957 0.12092016 -0.06415954
0.0086344415 -0.048061512 -0.4267179 0.07359597 0.15610103 0.111522235 -0.045847163 0.1358914
-0.06493048 -0.42528176 -0.26342827 0.052382678 0.1884932 0.095163316 -0.17574696 -0.2944056
-0.4233419 -0.011622997 -0.004972987 -0.2329267 -0.33530456 0.06756577 -0.45575273 0.21014942
0.12191505 0.014179023 -0.088113844 -0.57022935 0.09475101 -0.32128763 0.1383387 -0.2069011
-0.0930362 0.105820514 0.011387848 0.049518306 0.19558193 0.020085145 0.11701471 -0.028323047
0.10090019 -0.00057257613 -0.24909766 -0.04772333 -0.2375267 -0.100771956 0.12851577 -0.09007281
-0.07840106 -0.07066618 -0.46217132 -0.14863655 0.04631317 -0.107386895 -0.09825196 -0.07654528
-0.07197456 0.040413264 -0.039424468 -0.4230095 -0.60039955 -0.17803165 0.07120959 0.0756232
-0.0029048838 0.107378475 -0.16069883 -0.14825211 -0.2123698 -0.32623324 -0.39902878 0.12853491
-0.46673578 -0.18947226 -0.23434053 0.039830353 -0.039241362 0.3304341 -0.30179113 -0.12058301

bias f4 [9]
00000000: 6245 053e 4f1b 7f3c b639 9bbd 2cf0 e4bd
00000010: 5f32 dfbc 182d 9fbd 1f2f 3ebc 086e 483d
00000020: a2ed e53d
0.13014749 0.015570476 -0.07579367 -0.11178622 -0.027245698 -0.07772273 -0.011607914 0.04893306
0.112269655
