models/classifier_143features_200x300x200_0.0001lr_50e_0.4dropout_64bs_kaiming_norm.pth (torch_old, 609023 bytes, 8 tensors)

weight f4 [200, 143]
-0.031037576 0.06454327 0.054263804 0.018144991 -0.08301249 -0.0054172548 -0.17355905 -0.0008411068
0.06462987 0.049944658 -8.278787e-05 0.25691274 0.33619112 -0.060841296 -0.008219662 -0.009165855
0.02223526 -0.023317719 0.08816344 -0.13455766 0.0996846 0.10442367 -0.09070542 -0.1498878
-0.28455883 -0.04363027 0.15191635 -0.23033261 -0.015479181 0.04772337 -0.18917516 0.15721147
0.09112776 -0.2157461 -0.050683618 0.17025943 -0.036424085 0.07973321 0.018311154 0.015549203
-0.022156058 -0.1713442 0.046337582 0.0047803354 0.14861698 -0.015782924 0.073660575 0.06444119
-0.07444529 -0.05999903 -0.21521574 0.19561996 0.045374222 0.075507134 0.00785137 -0.21675585
-0.020117871 -0.03152098 -0.17450164 -0.20421182 0.05803204 -0.1502781 0.1355433 -0.12973784
0.078121476 -0.053296693 -0.14436887 0.035075806 -0.068118185 0.19074725 -0.08146678 -0.01051251
0.027827596 -0.08179629 -0.07046956 0.08192808 -0.023172535 -0.13197072 0.23589978 0.1047292
0.006983893 0.017340206 0.043016408 -0.00017503371 0.18078962 0.0049157455 -0.08584577 -0.012123558
0.016541004 -0.14532413 -0.25722885 -0.11301715 0.20445405 0.03209109 -0.04068543 -0.13817373
0.038850203 0.04688127 0.043830615 0.02534079 -0.075622745 -0.083022594 0.1983964 0.093722336
-0.006326141 -0.41676548 0.09213958 0.027355164 0.0043995287 0.019105822 -0.35922718 0.061946217
-0.10117868 -0.23743075 0.07437281 -0.0036377392 -0.047154136 0.24805973 -0.15406117 -0.086073905
0.043647368 0.041336033 -0.14164864 0.19837825 -0.009528394 -0.20265102 -0.008340936 -0.089144774
-0.0033210216 -0.008283285 0.030179622 0.03912457 -0.042725008 0.049679425 0.080453455 0.19206756
0.0921634 -0.29035205 0.051247615 0.08827547 -0.07864891 0.28245404 0.049838446 0.064725146
-0.1431232 0.1456423 -0.07828768 0.33851886 -0.057909664 0.027858935 -0.08366679 -0.0013085816
-0.0450608 0.02427641 -0.21018413 -0.12603407 0.01935953 0.245067 0.15852883 -0.0964545
-0.03529711 -0.0892032 0.0818977 -0.15601549 0.21745025 0.03927745 -0.12183639 -0.050790865
-0.12869695 -0.11837695 0.16771746 0.010709266 -0.013693187 -0.0389694 -0.065969676 0.0043271813
0.108816735 0.020363681 -0.15241188 -0.07706386 -0.010814612 -0.02042586 0.11113033 0.052244782
-0.13790105 -0.14408146 0.111200035 -0.097138524 0.18808025 -0.010571316 -0.0425602 0.005755579
-0.06897996 -0.27508438 -0.28734598 -0.08794917 0.12348722 -0.29139844 0.010095635 -0.05016699
0.21951222 -0.104397655 0.08688849 -0.1143528 0.02890938 0.011367262 0.091703296 0.0881884
-0.095755436 0.021109886 0.044483036 -0.037852064 0.18685901 -0.009130013 0.08042549 0.0022482516
0.102915384 -0.019621657 0.046487994 -0.0049222526 -0.026780521 -0.11819454 0.1828751 0.106072254
-0.2957109 0.11420309 0.11967975 0.08451257 -0.13221194 -0.005479172 -0.18823205 0.0424445
0.04648344 -0.03946709 -0.15593402 0.06253873 0.1449852 0.03210708 -0.19898719 -0.001283066
0.06535499 0.022112519 0.024017183 0.14557639 -0.08205161 0.0013275747 -0.046937544 -0.041956175
0.009691958 -0.060002238 0.04403301 -0.008661373 0.088599 0.31504416 0.085711956 0.20341916
00000000: 8442 febc 432f 843d b943 5e3d cea4 943c
00000010: 7402 aabd 3a83 b1bb 77b9 31be b97d 5cba
00000020: aa5c 843d c592 4c3d 669e adb8 118a 833e
00000030: 3e21 ac3e b934 79bd c3ab 06bc 622c 16bc
00000040: b826 b63c cd04 bfbc 098f b43d 7cc9 09be
00000050: 7127 cc3d 14dc d53d c3c3 b9bd 307c 19be
00000060: b2b1 91be a7b5 32bd f68f 1b3e 50dc 6bbe
00000070: 649c 7dbc 9579 433d 22b7 41be 0bfc 203e
00000080: 31a1 ba3d 8cec 5cbe a099 4fbd 7d58 2e3e
00000090: 6c31 15bd 2a4b a33d 4601 963c 16c2 7e3c
000000a0: 9f80 b5bc db74 2fbe 7acc 3d3d 5ca4 9c3b
000000b0: 0d2f 183e 314b 81bc 5bdb 963d bef9 833d
000000c0: c676 98bd 8bc1 75bd 8461 5cbe 9950 483e
000000d0: 52da 393d 7ca3 9a3d 08a3 003c 3ff5 5dbe
000000e0: 3cce a4bc 251c 01bd 8fb0 32be e71c 51be
000000f0: 01b3 6d3d 81e2 19be ddcb 0a3e ffd9 04be
00000100: 27fe 9f3d a24d 5abd 6fd5 13be a6ab 0f3d
00000110: 8c81 8bbd 3f53 433e 0ed8 a6bd aa3c 2cbc
00000120: b3f6 e33c d084 a7bd 5852 90bd e9c9 a73d
00000130: 54d4 bdbc 5523 07be b68f 713e 437c d63d
00000140: 24d9 e43b 0c0d 8e3c f931 303d 4189 37b9
00000150: ea20 393e 4314 a13b e8cf afbd e3a1 46bc
00000160: 0081 873c d9cf 14be 80b3 83be 8975 e7bd
00000170: 675c 513e f271 033d c4a5 26bd 6a7d 0dbe
00000180: 6421 1f3d 9306 403d bb87 333d 7d97 cf3c
00000190: 19e0 9abd c007 aabd 6d28 4b3e 7ff1 bf3d
000001a0: 844b cfbb 4962 d5be adb3 bc3d f017 e03c
000001b0: ec29 903b d083 9c3c a0ec b7be 51bb 7d3d
000001c0: c536 cfbd 0c21 73be c650 983d 2367 6ebb
000001d0: b224 41bd 5f03 7e3e 36c2 1dbe 8447 b0bd
000001e0: 95c7 323d f94f 293d 570c 11be ab23 4b3e
000001f0: fb1c 1cbc c083 4fbe 6ca8 08bc 8991 b6bd
00000200: 7fa5 59bb 9eb6 07bc 413b f73c 1641 203d
00000210: 6b00 2fbd a77c 4b3d c8c4 a43d 5cad 443e
00000220: 2ac0 bc3d 06a9 94be 05e9 513d c5c9 b43d
00000230: ae12 a1bd d19d 903e 6623 4c3d 9e8e 843d
00000240: e38e 12be 4123 153e 4b55 a0bd 5852 ad3e
00000250: af32 6dbd 6c38 e43c 7e59 abbd b684 abba
00000260: ac91 38bd 52df c63c 823a 57be 130f 01be
00000270: e197 9e3c d8f2 7a3e 6255 223e f089 c5bd
00000280: b493 10bd 2bb0 b6bd fbb9 a73d 86c2 1fbe
00000290: 47ab 5e3e 64e1 203d 5b85 f9bd 150a 50bd
000002a0: 22c9 03be 9d6f f2bd 20be 2b3e eb75 2f3c
000002b0: 6459 60bc 619e 1fbd 1c1b 87bd 07cb 8d3b
000002c0: 4fdb de3d bcd1 a63c dc11 1cbe a8d3 9dbd
000002d0: c52f 31bc 2254 a7bc 4c98 e33d a0fe 553d
000002e0: ef35 0dbe 178a 13be d8bc e33d 90f0 c6bd
000002f0: 1c98 403e 5033 2dbc 9b53 2ebd 4c99 bc3b
00000300: 5e45 8dbd dcd7 8cbe 031f 93be b21e b4bd
00000310: dee6 fc3d 2d32 95be 2a68 253c e77b 4dbd
00000320: d0c7 603e 70ce d5bd 98f2 b13d cd31 eabd
00000330: 5dd3 ec3c c13d 3a3c f0ce bb3d 1f9c b43d
00000340: 6d1b c4bd a4ee ac3c d833 363d c40a 1bbd
00000350: f857 3f3e 0d96 15bc 1fb6 a43d 6757 133b
00000360: 4dc5 d23d 99bd a0bc 326a 3e3d d94a a1bb
00000370: d362 dbbc fb0f f2bd 9c43 3b3e 693c d93d
00000380: 6b67 97be 4fe3 e93d a81a f53d ed14 ad3d
00000390: 9162 07be a08a b3bb e7bf 40be 49da 2d3d
000003a0: 6b65 3e3d 3ea8 21bd 2bad 1fbe 4e14 803d
000003b0: 0077 143e b782 033d 4cc3 4bbe 8d2c a8ba
000003c0: d6d8 853d 5025 b53c afbf c43c fa11 153e
000003d0: ad0a a8bd 0402 ae3a 9541 40bd 3dda 2bbd
000003e0: 05cb 1e3c e8c4 75bd f55b 343d 6ee8 0dbc
000003f0: 6473 b53d 784d a13e c089 af3d 1d4d 503e

bias f4 [200]
-0.085450515 -0.095791146 -0.1779664 -0.08163504 -0.009480273 -0.072405286 -0.07385797 -0.042413443
-0.07207152 -0.10256644 -0.12566513 -0.09500183 -0.040065233 -0.087083764 -0.005070811 -0.0008866681
-0.06165188 0.033363014 0.08506563 0.04134401 -0.06831388 0.03525725 -0.13313575 -0.06804934
-0.018223474 -0.118284695 -0.13204631 0.010223192 -0.068905674 -0.11239368 -0.076434575 -0.1489374
-0.1899983 -0.07246572 -0.09120727 -0.04012807 -0.027515013 -0.112785906 -0.15870312 0.05941182
-0.080371454 -0.057322092 0.025283564 -0.1232927 -0.1251909 -0.051841427 -0.04235488 -0.07142824
-0.039381392 -0.06882266 -0.05765239 -0.06325392 -0.04777897 -0.07282533 -0.11222155 -0.14964111
-0.11675738 -0.10805396 -0.08255537 -0.11600076 0.069532044 -0.05959474 -0.06555232 -0.04310646
-0.062379863 -0.049397588 -0.04844002 -0.046985243 -0.14938496 -0.07945125 0.036035284 -0.057376444
-0.077817604 -0.05151393 -0.12190513 -0.013373126 0.07624178 -0.10426531 -0.17652574 -0.023879668
-0.012620992 0.031122511 -0.21975952 -0.08189735 -0.022182327 -0.107252665 -0.17835574 -0.07213307
-0.017560879 -0.16973817 -0.14632186 -0.12683974 -0.058443714 -0.09880478 0.027201274 -0.3130802
-0.023848074 -0.09008158 -0.12545544 -0.08628871 -0.13901052 -0.10940805 -0.12410288 -0.05683794
-0.06522217 0.009333444 -0.06694185 -0.060597822 0.02268821 -0.1525102 -0.07645346 -0.12223212
-0.09523419 -0.11474872 -0.11116608 -0.09518941 -0.09283609 -0.06794789 -0.13411374 0.020072315
-0.08326169 -0.038648345 -0.013469624 0.010421029 -0.003928875 -0.06103451 -0.0061774566 -0.05207848
-0.08483762 -0.057735797 0.0071372217 -0.28031057 -0.09676797 -0.014276795 -0.10759423 -0.078098804
-0.039138425 -0.012754262 -0.15504673 -0.044646673 -0.08266371 -0.08494029 -0.09499119 -0.040166665
-0.01103801 -0.07126979 -0.089008585 -0.02896515 -0.019882789 -0.06994434 -0.09255162 -0.059775975
-0.15062718 -0.21649021 -0.018552428 -0.06486297 -0.14489916 -0.033641994 0.050251372 -0.086660445
-0.12716681 -0.07068303 -0.058881115 -0.11276206 -0.09424078 -0.15335096 -0.05015269 -0.059076145
-0.031117313 -0.06609535 -0.092670165 -0.11970787 -0.13195002 -0.031189166 -0.12559481 0.00894756
-0.09789487 -0.028098915 0.109071754 -0.08776954 -0.03688196 -0.10678804 -0.21590398 -0.11056596
-0.14142895 -0.019957608 -0.11489476 0.015358562 -0.056191403 -0.07855398 -0.10748743 -0.09078544
0.039405484 -0.050220534 0.06777015 -0.03546371 -0.07984147 -0.09419245 -0.09099939 -0.14063622
00000000: ae00 afbd 262e c4bd d33c 36be 4630 a7bd
00000010: 2653 1bbc 3949 94bd d942 97bd b8b9 2dbd
00000020: 3c9a 93bd 5b0e d2bd 5cae 00be 5290 c2bd
00000030: 711b 24bd f958 b2bd 0c29 a6bb 4a6f 68ba
00000040: af86 7cbd a8a7 083d e436 ae3d 5658 293d
00000050: 26e8 8bbd e869 103d bd54 08be 745d 8bbd
00000060: 6549 95bc 3f3f f2bd 2637 07be 2d7f 273c
00000070: 6b1e 8dbd a82e e6bd bb89 9cbd 0c83 18be
00000080: ea8e 42be e868 94bd e1ca babd 555d 24bd
00000090: 2a67 e1bc 4cfc e6bd 1283 22be cf59 733d
000000a0: ca99 a4bd 92ca 6abd 7a1f cf3c e280 fcbd
000000b0: 0b32 00be ad57 54bd 507c 2dbd f848 92bd
000000c0: 624e 21bd e5f2 8cbd ea24 6cbd 458b 81bd
000000d0: e2b3 43bd 7225 95bd 69d4 e5bd 853b 19be
000000e0: 7e1e efbd 654b ddbd ca12 a9bd ce91 edbd
000000f0: d166 8e3d 9d19 74bd 4b40 86bd 6690 30bd
00000100: 0782 7fbd 2055 4abd 0b69 46bd 9973 40bd
00000110: 5ff8 18be 56b7 a2bd bc99 133d 9003 6bbd
00000120: d65e 9fbd 4500 53bd 66a9 f9bd f51a 5bbc
00000130: a624 9c3d 0d89 d5bd 2ac3 34be 4b9f c3bc
00000140: 47c8 4ebc a3f4 fe3c a408 61be ccb9 a7bd
00000150: b6b7 b5bc 49a7 dbbd e3a2 36be 81ba 93bd
00000160: d5db 8fbc d8cf 2dbe 66d5 15be 47e2 01be
00000170: ad62 6fbd 295a cabd 35d5 de3c 0c4c a0be
00000180: 095d c3bc b17c b8bd 6477 00be 23b8 b0bd
00000190: c658 0ebe 5411 e0bd a729 febd e6ce 68bd
000001a0: 3393 85bd 4deb 183c cf18 89bd 6c35 78bd
000001b0: a0dc b93c a22b 1cbe a293 9cbd d554 fabd
000001c0: 250a c3bd 6001 ebbd 0bab e3bd aaf2 c2bd
000001d0: d920 bebd 4328 8bbd 1d55 09be b26e a43c
000001e0: 1b85 aabd ba4d 1ebd b3af 5cbc f7bc 2a3c
000001f0: cbbd 80bb 53ff 79bd 436c cabb 3f50 55bd
00000200: 59bf adbd 5f7c 6cbd 5bdf e93b de84 8fbe
00000210: 492e c6bd 38e9 69bc 5d5a dcbd 44f2 9fbd
00000220: 9d4f 20bd 41f7 50bc 92c4 1ebe 6edf 36bd
00000230: 974b a9bd 2df5 adbd be8a c2bd cd85 24bd
00000240: c5d8 34bc e5f5 91bd 224a b6bd 5248 edbc
00000250: 3be1 a2bc fa3e 8fbd b48b bdbd a7d7 74bd
00000260: 033e 1abe 9caf 5dbe 43fb 97bc e0d6 84bd
00000270: 7260 14be 30cc 09bd 62d4 4d3d 087b b1bd
00000280: 0438 02be 44c2 90bd 532d 71bd cbef e6bd
00000290: 4f01 c1bd 0908 1dbe e86c 4dbd d4f9 71bd
000002a0: bce9 febc 005d 87bd dbc9 bdbd 6629 f5bd
000002b0: e81d 07be 6c80 ffbc ed9b 00be c998 123c
000002c0: 1b7d c8bd b22f e6bc 0361 df3d 84c0 b3bd
000002d0: 8a11 17bd b0b3 dabd ef15 5dbe 6870 e2bd
000002e0: c0d2 10be 237e a3bc f24d ebbd 7aa2 7b3c
000002f0: f528 66bd e9e0 a0bd 5f22 dcbd b7ed b9bd
00000300: a567 213d 0cb4 4dbd 14cb 8a3d 6542 11bd
00000310: ed83 a3bd f9e7 c0bd e35d babd f102 10be

weight f4 [300, 200]
0.098241486 -0.015558476 0.088915475 -0.058891512 -0.009768365 0.05523744 -0.010231024 0.10460151
0.1783269 0.0025302328 0.14537017 0.06621011 -0.022951538 0.052278753 0.08832708 -0.0024130812
0.03248323 0.14386448 0.017122172 -0.0022907509 -0.007891026 0.1432506 -0.09918931 0.00091081276
-0.053849317 -0.104545034 0.025603617 0.059440687 0.14631274 -0.112203814 0.11371696 0.01598116
0.039306015 0.025195355 -0.09364135 -0.2667923 -0.016800998 0.033008035 0.13187875 0.029616635
0.038382992 -0.066906765 0.05037987 0.026300948 0.08841299 -0.10259078 -0.065731876 0.08415399
-0.076457635 -0.04114128 -0.042680055 -0.09224382 -0.037220113 -0.18165955 0.09085944 -0.13890085
0.031172784 -0.22833289 0.1315922 -0.09797678 -0.0097837895 -0.02619078 -0.06617643 -0.0960565
0.26489437 -0.11777411 -0.11764639 -0.12673265 -0.08672649 -0.0433644 0.035586394 -0.00807552
0.08209001 -0.0190145 -0.28923473 -0.091612265 0.21425179 0.146481 0.036306214 0.103364155
0.061059117 0.018364161 -0.028496314 0.053305913 -0.094088934 -0.13367237 0.014719027 -0.15250592
0.06660516 -0.043400723 0.07337209 -0.024848556 -0.17437369 -0.10191872 -0.01450771 -0.086335935
-0.065340444 0.033393275 -0.23792796 0.11596865 0.073825195 -0.06140497 -0.10337399 -0.021302326
-0.051571324 -0.008043952 -0.068275586 0.019116016 -0.03940587 -0.15535255 -0.013848784 -0.22653864
0.10497263 -0.009623501 0.062935136 0.063696355 -0.1779697 0.08840287 0.1572193 0.030299343
0.015338073 -0.10957199 -0.020735769 0.07266759 -0.18496795 0.0067818896 0.02152177 -0.027509177
-0.09183092 -0.04279259 0.07062517 0.009356227 0.09660927 -0.02431309 -0.11762255 -0.16221312
-0.08277332 -0.0085952375 -0.040898018 -0.0066882237 0.06315241 -0.008085403 0.02817547 -0.13712515
-0.038564183 -0.13154846 -0.078908145 -0.004312704 -0.112029456 0.13092503 -0.09281691 -0.06026427
0.0514356 -0.020009182 0.010993 0.050550688 -0.089934684 -0.009701039 0.122881286 -0.074057564
-0.10296976 0.0042252457 0.15108138 -0.04942743 -0.09460554 -0.078379706 -0.040594097 -0.08019342
0.017453395 0.09537919 0.05496876 -0.025587004 -0.032758094 -0.17224997 -0.015101001 0.017362315
-0.18072218 -0.08900134 0.07754986 -0.051138606 0.040384855 -0.04152068 -0.14614801 0.01063923
-0.0103384685 -0.03335255 -0.1784316 0.11342926 -0.043984573 -0.08143739 -0.06842212 0.003873106
0.24087408 0.12849458 0.08784082 -0.06609732 -0.09913106 -0.01567461 -0.0075140833 -0.19466828
0.103315786 -0.03172021 0.036275964 0.10794005 0.24266359 -0.0826221 0.024175983 0.037482914
-0.06990523 0.00079218857 0.14063576 -0.02941017 -0.07985032 0.038382836 -0.036613658 -2.0349122e-05
-0.029679881 0.08808986 0.14397186 -0.16662082 -0.04067709 -0.03497987 0.108237505 -0.1058811
-0.13468677 0.1414086 -0.05394517 0.087912284 -0.30180445 0.08345495 -0.08242598 -0.05577855
0.12991874 -0.108770095 0.043163758 0.042678233 -0.1271089 0.24910793 0.07307076 0.026595192
-0.106613114 0.0131133525 -0.057526924 0.016332837 0.06244601 -0.09624241 -0.107141756 -0.10393061
0.017771129 -0.11456972 0.017534584 0.15969734 -0.08341248 -0.20777425 0.00894951 0.08640189
00000000: d532 c93d fae8 7ebc 5119 b63d 3a38 71bd
00000010: 7e0b 20bc a740 623d 06a0 27bc 5139 d63d
00000020: 549b 363e 43d2 253b ebdb 143e 2b99 873d
00000030: dd04 bcbc 3f22 563d d4e4 b43d c924 1ebb
00000040: 230d 053d 3651 133e cc43 8c3c 6c20 16bb
00000050: 5d49 01bc 49b0 123e c423 cbbd 9cc3 6e3a
00000060: 1a91 5cbd b51b d6bd adbe d13c 1478 733d
00000070: 02d3 153e 1dcb e5bd 70e4 e83d ecea 823c
00000080: 58ff 203d 7d66 ce3c 09c7 bfbd 0099 88be
00000090: 3fa2 89bc 6f33 073d 390b 073e 969e f23c
000000a0: 7c37 1d3d 6a06 89bd 1f5b 4e3d 1675 d73c
000000b0: df11 b53d 1d1b d2bd 6f9e 86bd ed58 ac3d
000000c0: d295 9cbd c283 28bd 48d1 2ebd 54ea bcbd
000000d0: 1e74 18bd f604 3abe 8414 ba3d 063c 0ebe
000000e0: 115e ff3c 19d0 69be 1bc0 063e 0da8 c8bd
000000f0: 304c 20bc 0c8e d6bc 8287 87bd 45b9 c4bd
00000100: 3ca0 873e 8d33 f1bd 97f0 f0bd 34c6 01be
00000110: a89d b1bd de9e 31bd 0ac3 113d 304f 04bc
00000120: cf1e a83d 4cc4 9bbc 9316 94be 369f bbbd
00000130: d264 5b3e 1eff 153e d3b5 143d 96b0 d33d
00000140: 2019 7a3d 7070 963c 1a71 e9bc 4d57 5a3d
00000150: b3b1 c0bd 69e1 08be 1328 713c 832a 1cbe
00000160: 4968 883d f5c4 31bd 1b44 963d 338f cbbc
00000170: 048f 32be c3ba d0bd bfb1 6dbc e5d0 b0bd
00000180: 36d1 85bd 63c7 083d 63a3 73be f980 ed3d
00000190: aa31 973d c783 7bbd beb5 d3bd 3782 aebc
000001a0: 743c 53bd c8ca 03bc 12d4 8bbd 3199 9c3c
000001b0: 0d68 21bd bd14 1fbe 03e6 62bc bff9 67be
000001c0: e4fb d63d e4ab 1dbc 23e4 803d 3c73 823d
000001d0: b03d 36be 900c b53d 19fe 203e 5436 f83c
000001e0: 8a4c 7b3c 4867 e0bd 0fde a9bc bfd2 943d
000001f0: 3d68 3dbe 9d3a de3b 6c4e b03c ed5a e1bc
00000200: d911 bcbd 4847 2fbd eea3 903d dc4a 193c
00000210: 15db c53d 3f2c c7bc 17e4 f0bd 321b 26be
00000220: 0f85 a9bd 0ad3 0cbc ae84 27bd e328 dbbb
00000230: 0d56 813d a378 04bc 3ed0 e63c 896a 0cbe
00000240: 7af5 1dbd a4b4 06be 989a a1bd 9551 8dbb
00000250: b36f e5bd 3611 063e cb16 bebd abd7 76bd
00000260: 23ae 523d 4cea a3bc fc1b 343c 3d0e 4f3d
00000270: ad2f b8bd 1bf1 1ebc 2fa9 fb3d 7eab 97bd
00000280: cfe1 d2bd ee73 8a3b 14b5 1a3e 6b74 4abd
00000290: 8dc0 c1bd 8a85 a0bd ff45 26bd 733c a4bd
000002a0: 6cfa 8e3c 2a56 c33d ec26 613d d69b d1bc
000002b0: 5a2d 06bd 4c62 30be 306a 77bc 6a3b 8e3c
000002c0: 3c0f 39be 5646 b6bd 76d2 9e3d b776 51bd
000002d0: 976a 253d 9711 2abd d3a7 15be 2a50 2e3c
000002e0: ae62 29bc af9c 08bd c6b6 36be 9a4d e83d
000002f0: 2b29 34bd a5c8 a6bd e520 8cbd f0d3 7d3b
00000300: b2a7 763e 1594 033e e3e5 b33d 085e 87bd
00000310: 3a05 cbbd 0a68 80bc b338 f6bb 1f57 47be
00000320: 3a97 d33d 0ded 01bd 1b96 143d ac0f dd3d
00000330: ce7c 783e c735 a9bd b60c c63c af87 193d
00000340: 792a 8fbd e0aa 4f3a d202 103e 99ed f0bc
00000350: 9188 a3bd 5237 1d3d 34f8 15bd 68b3 aab7
00000360: 3923 f3bc 7568 b43d 5c6d 133e a69e 2abe
00000370: 059d 26bd 0d47 0fbd a0ab dd3d 31d8 d8bd
00000380: 54eb 09be 6bcd 103e 9cf5 5cbd 5b0b b43d
00000390: 1d86 9abe 6eea aa3d f4ce a8bd 0d78 64bd
000003a0: 6b09 053e dbc2 debd 7bcc 303d 5fcf 2e3d
000003b0: d628 02be 2616 7f3e 1fa6 953d 29de d93c
000003c0: fa57 dabd 63d9 563c 5aa1 6bbd 71cc 853c
000003d0: 63c7 7f3d be1a c5bd 236d dbbd 92d9 d4bd
000003e0: c294 913c 88a3 eabd b0a4 8f3c b387 233e
000003f0: 2ad4 aabd c6c2 54be f7a0 123c 79f3 b03d

bias f4 [300]
0.07085003 -0.037583444 -0.0013462049 0.057641637 0.047643725 0.07280389 0.0148792425 -0.11662396
-0.020069536 -0.004809757 -0.028794048 0.040096246 -0.006478171 0.07126785 0.0077727316 0.06217787
0.040724065 -0.055978004 -0.005566488 -0.14471184 -0.060243472 0.0030050117 -0.020126741 0.025869474
-0.09190019 -0.09928603 0.027164428 -0.013873101 -0.018666906 0.060990788 -0.03172336 -0.22508548
0.07538322 -0.098629564 -0.039379805 -0.023844749 -0.071027406 -0.015107849 0.02244066 0.024266193
0.07544038 0.08752815 -0.004898623 0.06352993 0.006180948 0.057646386 -0.15379809 0.009444916
0.047188275 0.047341254 -0.085526206 0.042159583 -0.09343417 -0.03875387 0.013741242 0.026999863
0.049958926 -0.02868385 -0.22963902 -0.19366588 0.046312384 0.13331267 -0.13634926 0.027658941
-0.15037876 -0.06327975 -0.03502725 -0.07812795 0.005466583 0.028776836 -0.1057484 0.084560886
0.011511812 -0.025787005 -0.03343446 -0.08594447 -0.062097654 -0.054303598 -0.0021374058 -0.06583721
-0.01637838 0.080262035 0.038520254 -0.13774495 0.091806464 -0.11317837 -0.047075026 -0.007339493
0.001616563 -0.08097274 -0.24319628 -0.0024192366 -0.08302431 0.03016909 0.04997022 0.01874798
0.028150609 0.08449385 -0.0071339947 -0.0101620015 -0.12415571 -0.057341732 0.03553185 0.06229189
0.04116772 -0.020512016 -0.013617815 -0.333453 -0.067256615 0.013184333 -0.08157016 0.07723218
-0.11166878 0.08401032 0.020298012 0.11478349 -0.052187026 -0.09892992 0.02366987 0.04805196
0.0298777 0.03851214 0.005647089 0.003636361 0.005918776 0.050812583 -0.0011274085 0.041377384
-0.10707035 0.1327582 0.049264688 0.06777427 -0.013577237 -0.0060123093 0.05663759 -0.056895047
-0.089252695 -0.09838553 -0.2768322 -0.1265286 -0.006056168 -0.13287051 -0.01215173 0.029237155
0.042838488 0.031187912 0.005018156 -0.11016437 -0.02662773 0.033627488 -0.029017467 -0.011184794
0.024548873 0.055990007 0.019734384 -0.01143116 -0.15485267 0.03775552 -0.024571123 0.030564444
-0.008048977 -0.053905137 0.08037953 0.071886234 -0.23694003 -0.08867776 -0.013222413 0.090838775
0.047995284 0.022054153 -0.019216454 -0.007226134 -0.06422359 0.021442225 0.0267477 -0.008370931
0.036851745 0.00637545 -0.13077839 -0.004782996 -0.04668939 -0.10746318 0.0030108134 -0.039734934
0.08351818 -0.021458264 -0.13694036 0.10026654 -0.07242194 -0.09152926 -0.20883673 0.0026388115
-0.0045866678 -0.0033523503 0.016093785 -0.052020803 0.046267767 -0.07602955 0.024362225 -0.14414568
-0.081076555 -0.014212195 -0.10649899 -0.0870486 -0.01998162 0.08140872 -0.1308561 -0.05233663
-0.109279215 -0.17799054 0.030345196 -0.01592253 -0.11584249 0.043678593 0.016332157 0.0733193
0.04906799 -0.13615704 -0.0019560128 0.009089544 -0.07206032 -0.14024678 0.0070170024 0.023394639
-0.14036451 0.048645575 0.008191846 -0.0147938365 0.056939833 -0.033702206 -0.089747295 -0.09607633
-0.27467832 -0.112735994 -0.037950784 -0.04718299 -0.018666932 0.028444165 0.07783023 0.006415063
0.006823401 0.016161881 -0.009355385 -0.023840861 -0.15932254 -0.0013509222 0.022196176 -0.13160132
-0.05420329 0.0034850254 -0.056964304 0.026777774 0.020101989 0.062342748 -0.14333697 -0.037962493
00000000: d219 913d 19f1 19bd 2473 b0ba a319 6c3d
00000010: 1126 433d 351a 953d 11c8 733c 8bd8 eebd
00000020: de68 a4bc 2b9b 9dbb 7fe1 ebbc f63b 243d
00000030: d646 d4bb e1f4 913d 66b2 fe3b 39ae 7e3d
00000040: 47ce 263d 3149 65bd 1667 b6bb 572f 14be
00000050: dcc1 76bd bbef 443b d6e0 a4bc 38ec d33c
00000060: 2b36 bcbd 7956 cbbd ef87 de3c 014c 63bc
00000070: 57eb 98bc 7ad1 793d 5bf0 01bd cf7c 66be
00000080: 8562 9a3d 4cfe c9bd b84c 21bd 1056 c3bc
00000090: d176 91bd e986 77bc 7ad5 b73c e5c9 c63c
000000a0: 7c80 9a3d f541 b33d a184 a0bb fb1b 823d
000000b0: 8d89 ca3b 9e1e 6c3d 3f7d 1dbe d9be 1a3c
000000c0: 7e48 413d e7e8 413d 5d28 afbd 87af 2c3d
000000d0: 6a5a bfbd 61bc 1ebd f222 613c d12e dd3c
000000e0: bba1 4c3d 65fa eabc 7e26 6bbe 5950 46be
000000f0: 0eb2 3d3d 1e83 083e 249f 0bbe 0195 e23c
00000100: e4fc 19be d098 81bd bc78 0fbd 8c01 a0bd
00000110: 0621 b33b 66bd eb3c 9e92 d8bd 422e ad3d
00000120: 0a9c 3c3c 453f d3bc 93f2 08bd a703 b0bd
00000130: 1c5a 7ebd 736d 5ebd b813 0cbb a9d5 86bd
00000140: f42b 86bc 6c60 a43d 6ac7 1d3d 030d 0dbe
00000150: 0705 bc3d 10ca e7bd bed1 40bd 2180 f0bb
00000160: dae2 d33a 09d5 a5bd 7208 79be 0e8c 1ebb
00000170: a608 aabd 2b25 f73c 93ad 4c3d 5d95 993c
00000180: 1b9c e63c 1d0b ad3d 49c4 e9bb 867e 26bc
00000190: 5945 febd 2adf 6abd d889 113d c825 7f3d
000001a0: 7c9f 283d d108 a8bc 421d 5fbc 5aba aabe
000001b0: d6bd 89bd 1a03 583c 420e a7bd e82b 9e3d
000001c0: 9ab2 e4bd 9a0d ac3d 0448 a63c 9b13 eb3d
000001d0: 10c2 55bd c59b cabd 51e7 c13c 22d2 443d
000001e0: 14c2 f43c e8be 1d3d 370b b93b 0450 6e3b
000001f0: 4bf2 c13b db20 503d 8dc5 93ba 557b 293d
00000200: b347 dbbd c4f1 073e c5c9 493d 3dcd 8a3d
00000210: 0f73 5ebc e802 c5bb d1fc 673d c80a 69bd
00000220: 1eca b6bd 5a7e c9bd f3bc 8dbe b790 01be
00000230: d272 c6bb 350f 08be 0d18 47bc c282 ef3c
00000240: 6977 2f3d cb7d ff3c 586f a43b db9d e1bd
00000250: 6622 dabc fabc 093d 0ab6 edbc 6d40 37bc
00000260: b81a c93c c755 653d 01aa a13c c349 3bbc
00000270: b391 1ebe 88a5 1a3d 6149 c9bc 4962 fa3c
00000280: dbdf 03bc a2cb 5cbd 069e a43d 1739 933d
00000290: 68a0 72be af9c b5bd d2a2 58bc ae09 ba3d
000002a0: b496 443d e9aa b43c d36b 9dbc 35c9 ecbb
000002b0: a887 83bd 9ba7 af3c fe1d db3c 3b26 09bc
000002c0: dbf1 163d 27e9 d03b c5ea 05be aeba 9cbb
000002d0: 603d 3fbd a815 dcbd 1151 453b 19c1 22bd
000002e0: 940b ab3d 3ec9 afbc 183a 0cbe 8b58 cd3d
000002f0: f451 94bd b173 bbbd 4cd9 55be e9ef 2c3b
00000300: c24b 96bb 1bb3 5bbb 1dd7 833c c413 55bd
00000310: 4583 3d3d 61b5 9bbd 4a93 c73c ed9a 13be
00000320: 770b a6bd 44da 68bc 241c dabd 8946 b2bd
00000330: 7fb0 a3bc 9db9 a63d 24ff 05be ef5e 56bd
00000340: c8cd dfbd 2743 36be 7d96 f83c f76f 82bc
00000350: d43e edbd 53e8 323d 04cb 853c 6e28 963d
00000360: 84fb 483d c06c 0bbe 7330 00bb 50ec 143c
00000370: 5c94 93bd da9c 0fbe e2ee e53b 1da6 bf3c
00000380: b7bb 0fbe 9540 473d 1837 063c d961 72bc
00000390: be39 693d 530b 0abd 6ecd b7bd abc3 c4bd
000003a0: a3a2 8cbe 21e2 e6bd 4872 1bbd f342 41bd
000003b0: 65eb 98bc bd03 e93c 7565 9f3d 7335 d23b
000003c0: d696 df3b ec65 843c 5447 19bc e94d c3bc
000003d0: 7325 23be 6d11 b1ba c1d4 b53c 7fc2 06be
000003e0: 4504 5ebd 0665 643b 6753 69bd 105d db3c
000003f0: edac a43c 1c5b 7f3d edc6 12be 8f7e 1bbd

weight f4 [200, 300]
-0.0057363557 0.0053544883 0.012850451 0.034087166 0.12386863 -0.027196074 -0.14207311 -0.07690754
0.015218414 -0.024618626 -0.062073167 -0.013905913 -0.030329738 -0.017985146 0.07419068 -0.112754285
-0.13269903 0.010341453 -0.033927843 -0.09354577 0.021429462 -0.13890384 -0.009367563 -0.057373207
-0.0882873 -0.05429969 -0.041241296 -0.06245651 0.014295991 -0.043116517 0.10189433 0.08517765
-0.07587061 -0.058037624 -0.023601476 0.027730545 0.05420987 -0.00059180957 -0.09639539 0.0051969476
-0.12154937 0.028514907 -0.010500071 -0.18485683 -0.07442445 -0.0755654 -0.1578688 -0.062771395
-0.0014500818 -0.045795463 -0.015264128 -0.1468927 -0.17493181 -0.021540092 0.01559883 -0.07163734
-0.04475674 -0.050060034 -0.14462046 -0.013834154 0.02040557 -0.08817979 0.0055244365 0.024051985
0.007375301 -0.0068814224 -0.056695666 -0.04960746 0.065977626 0.055821706 0.07229194 -0.062744044
0.0140177505 0.06863677 -0.1584487 -0.06604338 0.0123066595 -0.010736555 -0.08830035 -0.006869042
-0.09475247 -0.025663381 0.056118425 -0.056591943 -0.091956876 0.029195407 0.065553494 -0.1573516
-0.0027523797 -0.005208776 0.053946126 -0.00048174517 -0.10874501 -0.0019856107 -0.131955 -0.042061873
-0.04151925 0.08716946 -0.04107526 0.048769854 -0.04733026 -0.036100376 -0.15693247 0.04941759
0.024784088 -0.065968044 -0.07715815 -0.042439453 0.0022759773 -0.14882728 -0.050395362 -0.19556533
-0.006421565 -0.022057699 -0.107631326 -0.09031714 0.002952809 0.001279047 -0.027668422 -0.033736724
-0.06598112 -0.066230156 -0.06364427 -0.0772157 0.030157993 -0.04693582 -0.043698695 0.10986164
0.07689451 -0.071869075 -0.038215738 -0.1346762 0.088419706 0.038122073 -0.031224312 -0.10548436
0.023408419 0.0144660175 0.011822393 -0.01138911 0.12133865 -0.027824825 0.09677203 0.040540684
-0.051511537 0.069321774 -0.052986212 -0.095564626 -0.014799578 -0.0965767 0.060487617 -0.0771816
-0.048215758 -0.0071876547 0.05740908 -0.047097355 -0.027995637 -0.057909895 -0.05032551 -0.0042493176
0.0024020446 -0.16956426 0.017964117 -0.10429086 -0.0075372206 0.035270452 -0.003224334 -0.021119582
0.05444608 -0.07905797 0.039068468 0.066190846 -0.039105 -0.011607111 -0.09824046 -0.04477872
-0.052762136 0.06256289 0.052082233 0.024364138 -0.050848063 -0.09196386 -0.15755543 -0.08052507
0.14323758 0.03375932 -0.14449555 0.0962007 0.11594312 -0.12404333 -0.054610167 -0.11217445
0.09551184 0.045724083 -0.0998183 -0.023377664 -0.028905129 -0.12870875 0.0970243 0.07702093
-0.22712497 -0.050814316 0.03564217 0.045491904 -0.10000136 -0.06347729 -0.15063664 -0.002528731
-0.19970842 0.0715984 -0.04307782 0.06226046 0.07700698 0.06271887 -0.014457807 0.069289036
0.22330694 -0.017200446 0.022628982 -0.107345246 -0.05589994 0.14403805 -0.05583746 0.025494235
-0.04284557 0.0032724182 0.036877967 -0.14074731 -0.11272031 -0.012290821 -0.20361878 -0.0037446206
-0.06433539 0.008425712 0.0014828758 -0.0877089 -0.054685965 0.05894508 -0.00035204686 0.042295307
0.035457827 0.028969802 -0.096482806 0.077420205 -0.040486522 0.009232255 -0.047167167 -0.15087411
-0.03728666 -0.10806449 0.009331601 0.0052113547 0.08340039 -0.06793172 -0.0024991133 0.13331026
00000000: 0af8 bbbb b474 af3b b38a 523c fc9e 0b3d
00000010: d6ae fd3d 4dca debc 9d7b 11be b381 9dbd
00000020: a856 793c 00ad c9bc 6f40 7ebd a0d5 63bc
00000030: 1276 f8bc 9655 93bc 49f1 973d b8eb e6bd
00000040: 41e2 07be 336f 293c ecf7 0abd ed94 bfbd
00000050: d78c af3c cf3c 0ebe 687a 19bc 2b00 6bbd
00000060: f9cf b4bd 5a69 5ebd a2ec 28bd 66d2 7fbd
00000070: bb39 6a3c f29a 30bd f9ad d03d 9f71 ae3d
00000080: 0d62 9bbd dcb8 6dbd e257 c1bc 2b2b e33c
00000090: 2b0b 5e3d ab23 1bba f26a c5bd 284b aa3b
000000a0: e0ee f8bd 1898 e93c 7d08 2cbc 1c4b 3dbe
000000b0: d96b 98bd 08c2 9abd 5ca8 21be 4a8e 80bd
000000c0: ac10 beba 0694 3bbd 6516 7abc 0a6b 16be
000000d0: 5321 33be d974 b0bc 3c92 7f3c 99b6 92bd
000000e0: d852 37bd c00b 4dbd 6317 14be a6a8 62bc
000000f0: 9529 a73c 9b97 b4bd 5506 b53b ab08 c53c
00000100: 82ac f13b 8e7d e1bb b739 68bd 3131 4bbd
00000110: 471f 873d 4da5 643d cc0d 943d f37f 80bd
00000120: b5aa 653c 6f91 8c3d 6040 22be c041 87bd
00000130: dfa1 493c 60e8 2fbc d0d6 b4bd b315 e1bb
00000140: 950d c2bd 033c d2bc 6fdc 653d f4cc 67bd
00000150: e353 bcbd 352b ef3c e940 863d c720 21be
00000160: 4561 34bb 61ae aabb 9df6 5c3d be92 fcb9
00000170: b4b5 debd 0521 02bb 361f 07be 1249 2cbd
00000180: 1710 2abd e785 b23d 883e 28bd e6c2 473d
00000190: 60dd 41bd fddd 13bd e8b2 20be 196a 4a3d
000001a0: 0008 cb3c 411a 87bd 1805 9ebd fed4 2dbd
000001b0: 9028 153b 2e66 18be 5e6b 4ebd 4742 48be
000001c0: fe6b d2bb 59b2 b4bc d06d dcbd 31f8 b8bd
000001d0: ea83 413b b2a5 a73a e3a8 e2bc 852f 0abd
000001e0: 1c21 87bd ada3 87bd ed57 82bd 4423 9ebd
000001f0: e50d f73c c63f 40bd 67fd 32bd 24ff e03d
00000200: de7a 9d3d 1830 93bd 1b88 1cbd 8fe8 09be
00000210: 6415 b53d e425 1c3d 21ca ffbc 2f08 d8bd
00000220: 03c3 bf3c e002 6d3c b6b2 413c 6499 3abc
00000230: 6680 f83d e3f0 e3bc 6a30 c63d fd0d 263d
00000240: c3fd 52bd 93f8 8d3d 1208 59bd 63b7 c3bd
00000250: ee79 72bc 01ca c5bd ddc1 773d 6311 9ebd
00000260: e37d 45bd 6b86 ebbb c925 6b3d 28e9 40bd
00000270: 1b57 e5bc ed32 6dbd 1f22 4ebd dc3d 8bbb
00000280: 9f6b 1d3b 41a2 2dbe 7c29 933c 7296 d5bd
00000290: cafa f6bb c077 103d 594f 53bb f902 adbc
000002a0: da02 5f3d 25e9 a1bd 4206 203d 118f 873d
000002b0: 912c 20bd c12b 3ebc 4b32 c9bd e469 37bd
000002c0: 1c1d 58bd f920 803d 2e54 553d 4d97 c73c
000002d0: 0f46 50bd 8c57 bcbd 3656 21be 54ea a4bd
000002e0: dfac 123e 3647 0a3d a4f6 13be df04 c53d
000002f0: 9673 ed3d 6e0a febd e9ae 5fbd b8bb e5bd
00000300: b69b c33d 2d49 3b3d 896d ccbd 8482 bfbc
00000310: 73ca ecbc 3acc 03be adb4 c63d 26bd 9d3d
00000320: 7393 68be ac22 50bd 86fd 113d b855 3a3d
00000330: 83cd ccbd 6200 82bd 7e40 1abe 11b9 25bb
00000340: 5d80 4cbe 2fa2 923d 5e72 30bd d304 7f3d
00000350: d6b5 9d3d c072 803d 70e0 6cbc 69e7 8d3d
00000360: 93aa 643e f3e7 8cbc 6a60 b93c d3d7 dbbd
00000370: 56f7 64bd b67e 133e d2b5 64bd 49d9 d03c
00000380: d67e 2fbd 1176 563b 5a0d 173d 1020 10be
00000390: e8d9 e6bd 715f 49bc 7181 50be 4f68 75bb
000003a0: 46c2 83bd ff0b 0a3c 0e5d c23a b9a0 b3bd
000003b0: 64fe 5fbd 6570 713d ee92 b8b9 d83d 2d3d
000003c0: 3a3c 113d 1452 ed3c c798 c5bd 7c8e 9e3d
000003d0: 32d5 25bd e242 173c 5c32 41bd be7e 1abe
000003e0: e6b9 18bd ea50 ddbd 92e3 183c 03c4 aa3b
000003f0: d3cd aa3d c91f 8bbd 2ac8 23bb 7c82 083e

bias f4 [200]
-0.04415817 -0.046184093 -0.09246391 -0.088395186 -0.15840614 0.1145013 -0.070457935 -0.047036257
0.08121106 -0.00022565166 -0.068329014 0.09080582 -0.0728148 0.12598053 0.01213833 -0.014787755
-0.08867852 0.08461044 0.053055618 -0.059772957 0.15303741 0.04679195 0.056388523 0.055162314
0.07787566 -0.015646074 -0.016852558 -0.035720002 -0.014939715 0.06977484 -0.02922081 0.08142072
-0.1067873 0.07936694 0.0021957222 0.0341331 -0.113825575 0.00412965 -0.043379825 -0.06160355
-0.100914754 0.12213774 -0.06971573 0.083419345 0.11587171 -0.04688316 0.08325461 0.07180976
0.12409827 0.10482943 -0.034704223 -0.093695424 -0.037780587 -0.055529155 0.11537695 -0.019364037
-0.07001897 0.06604565 -0.08833391 -0.04191503 -0.027023267 0.11574225 0.10226447 -0.039583985
0.06990336 -0.048610114 -0.09029095 -0.019576622 0.077740304 -0.1112899 0.111149 -0.016445296
-0.06860385 -0.011069643 0.019374901 -0.04616149 0.014031167 0.08954234 0.09953216 -0.04223053
0.08964332 -0.0043848786 -0.06130914 -0.0005679489 0.08485865 0.053077742 0.15014623 -0.065775715
0.0669074 0.10774349 -0.07810562 0.032630116 0.11486521 -0.045709707 -0.029744372 0.057150617
-0.1334621 0.019632597 -0.061298113 0.12651128 -0.027199129 0.04750579 0.025747202 -0.024853699
0.040681537 -0.03324079 0.12730952 -0.11193507 0.0060256384 -0.024315203 -0.013864474 0.011142393
0.15784709 0.037608538 -0.015201084 0.14081514 -0.10677654 0.031327546 -0.0134994695 -0.05537379
0.058789358 -0.069260806 0.18048011 -0.08862716 -0.07153892 0.06154388 -0.048058633 0.020637168
-0.08344277 0.08119525 -0.05872158 0.11503725 -0.060057003 -0.007916359 0.15587278 0.14758681
0.11361964 -0.04088237 -0.029186023 0.050373673 -0.064742066 -0.0009228853 0.057080433 0.075424485
0.05020832 0.052950352 -0.07093439 0.011517403 -0.06404153 -0.031180114 -0.069271006 0.09177591
0.018112456 0.111865066 0.15382998 0.13890332 -0.020133426 -0.0694154 0.06352761 -0.10086459
0.017023593 -0.05648454 0.03540339 -0.061416827 0.086961105 -0.063135654 0.07694093 -0.052527595
0.015915606 0.028109623 -0.06520618 -0.011575305 -0.013254654 -0.039114203 0.17136152 -0.098462604
0.03499279 -0.04544957 0.056836046 0.00932377 0.05279711 -0.081563964 0.062439755 -0.10948799
-0.06893015 -0.06087232 0.011351625 0.036497243 -0.055971134 -0.059720762 -0.003977654 0.076388784
-0.072276235 -0.011893402 0.006014906 -0.08746801 0.00131645 0.060139596 -0.06538831 -0.057816606
00000000: 33df 34bd 882b 3dbd b85d bdbd 8908 b5bd
00000010: 3835 22be a87f ea3d 404c 90bd 17a9 40bd
00000020: fc51 a63d e89c 6cb9 15f0 8bbd 67f8 b93d
00000030: ed1f 95bd 0a01 013e d9df 463c 5748 72bc
00000040: 159d b5bd 3d48 ad3d d950 593d 7dd4 74bd
00000050: d7b5 1c3e eaa8 3f3d a7f7 663d e1f1 613d
00000060: 467d 9f3d 322c 80bc 600e 8abc 234f 12bd
00000070: b5c5 74bc 1ce6 8e3d 7b60 efbc e8bf a63d
00000080: 4db3 dabd 228b a23d 1be6 0f3b 26cf 0b3d
00000090: 621d e9bd 0452 873b 0baf 31bd 0154 7cbd
000000a0: 65ac cebd 5a23 fa3d 1fc7 8ebd c3d7 aa3d
000000b0: 264e ed3d 8e08 40bd 6581 aa3d ff10 933d
000000c0: 3c27 fe3d d0b0 d63d 0426 0ebd 63e3 bfbd
000000d0: d1bf 1abd 8a72 63bd c04a ec3d 54a1 9ebc
000000e0: 1b66 8fbd f142 873d 69e8 b4bd 18af 2bbd
000000f0: e65f ddbc 460a ed3d 0970 d13d d122 22bd
00000100: 7e29 8f3d 661b 47bd 76ea b8bd 275f a0bc
00000110: 4f36 9f3d f6eb e3bd 16a2 e33d 49b8 86bc
00000120: 2d80 8cbd 735d 35bc 1db8 9e3c d513 3dbd
00000130: fbe2 653c f961 b73d 84d7 cb3d ecf9 2cbd
00000140: eb96 b73d 07af 8fbb 4b1f 7bbd 68e2 14ba
00000150: 5fca ad3d 0c68 593d efbf 193e 6bb5 86bd
00000160: bf06 893d 9ea8 dc3d d7f5 9fbd 28a7 053d
00000170: 743e eb3d 1a3a 3bbd 78aa f3bc c416 6a3d
00000180: 4aaa 08be 8ad4 a03c bb13 7bbd 2c8c 013e
00000190: b5d0 debc 6e95 423d cceb d23c fc99 cbbc
000001a0: afa1 263d 7f27 08bd 6d5d 023e 373e e5bd
000001b0: b872 c53b ad30 c7bc d227 63bc 958e 363c
000001c0: aba2 213e 690b 1a3d f80d 79bc d831 103e
000001d0: a9ad dabd 5051 003d e12c 5dbc a1cf 62bd
000001e0: 1ccd 703d 9cd8 8dbd c7cf 383e 2882 b5bd
000001f0: ff82 92bd 6f15 7c3d 21d9 44bd 470f a93c
00000200: 0be4 aabd b249 a63d 0a86 70bd a698 eb3d
00000210: 55fe 75bd 9eb3 01bc 1d9d 1f3e ff20 173e
00000220: 6ab1 e83d 4674 27bd 8717 efbc a054 4e3d
00000230: 7d97 84bd c9ed 71ba 2ccd 693d 2778 9a3d
00000240: 3da7 4d3d 78e2 583d 0d46 91bd 7db3 3c3c
00000250: 3528 83bd 706d ffbc f5dd 8dbd 02f5 bb3d
00000260: 9360 943c 8319 e53d 9b85 1d3e ac3c 0e3e
00000270: dbee a4bc a929 8ebd c31a 823d 1892 cebd
00000280: 1075 8b3c 555c 67bd 2503 113d 3690 7bbd
00000290: aa18 b23d 444d 81bd 3593 9d3d 2d27 57bd
000002a0: 7261 823c 2746 e63c d18a 85bd 59a6 3dbc
000002b0: 0c2a 59bc 3736 20bd 6579 2f3e c3a6 c9bd
000002c0: 9a54 0f3d 5429 3abd eacc 683d bac2 183c
000002d0: c841 583d 020b a7bd d4c0 7f3d 3d3b e0bd
000002e0: 402b 8dbd 4155 79bd 2bfc 393c 227e 153d
000002f0: fd41 65bd c29d 74bd fb56 82bb b971 9c3d
00000300: 9005 94bd 8bdc 42bc b018 c53b 6e22 b3bd
00000310: bb8c ac3a f054 763d 4eea 85bd 1bd1 6cbd

weight f4 [9, 200]
-0.036652107 -0.10992862 -0.08668165 -0.04061063 -0.07861921 0.21793056 -0.029176213 -0.077610485
0.15783878 0.12111719 -0.05681083 0.22153425 -0.13273422 0.068822816 -0.059840914 0.13384777
-0.12920687 0.12330428 0.21151927 0.058437042 0.19166584 0.22343288 -0.056978986 -0.21649882
0.2231617 -0.22163956 0.05201531 -0.04522505 -0.07245205 -0.20296319 0.031596 -0.27191398
-0.102735475 0.09741271 0.07339289 -0.33015555 -0.007653553 0.102850474 -0.02350094 -0.027168743
-0.04079785 0.10542201 -0.011257285 -0.13983162 -0.21330768 -0.07216927 -0.005530152 -0.05150836
-0.1723647 0.121585205 0.041703016 0.13227567 -0.142397 -0.14782886 0.09414544 0.06301841
-0.10971241 0.09480787 -0.07794302 -0.1656044 0.04199043 0.1644658 -0.24731031 0.104965895
-0.2320613 -0.026562402 0.060308654 -0.1686427 0.014725386 0.04719685 0.10944075 0.07552358
0.061893824 0.011718732 0.107466735 -0.10079403 -0.027217932 -0.2494285 0.017691573 -0.022131769
0.14925455 0.019042809 0.0034927886 -0.084859945 0.08324766 -0.1701369 -0.17340289 -0.0425136
-0.16488104 0.109017305 -0.039218374 0.06830176 -0.16420038 -0.1202036 -0.21296087 0.11169643
0.148291 -0.024546636 -0.018834494 0.050314777 -0.004807794 0.100186825 0.119061716 0.049540672
-0.034420196 0.03253733 0.073204614 -0.014006584 0.17338423 -0.08981673 -0.026504224 0.10075426
-0.117034756 -0.12253782 -0.033482622 -0.032029632 0.10242863 -0.16607481 -0.13468428 0.10436358
0.25052387 -0.10063695 -0.070399985 0.03781915 -0.10581248 -0.16846822 0.035418633 0.11216269
-0.023988912 -0.11207328 -0.055935644 -0.16264872 -0.08054149 -0.26306793 -0.30662328 -0.15413754
0.14149101 -0.036485437 0.07446892 -0.16130944 0.008005738 0.02905098 -0.1133848 -0.13965717
-0.0614736 -0.17900905 -0.019806141 -0.06111031 0.04891065 -0.09547439 0.09977315 -0.15303394
-0.13883108 -0.32528836 -0.21929227 -0.33454502 0.08738593 -0.07293116 -0.1619689 -0.05796771
-0.060907923 0.03305733 0.16072139 0.048967194 0.2067098 -0.09576045 -0.0653143 0.0027482545
-0.08612297 -0.0723728 0.050110027 -0.027825842 0.024937447 -0.1126748 -0.19717178 -0.01231098
0.034805283 -0.019082818 -0.14109686 0.11470857 0.10925714 0.051272206 -0.0056477375 0.005444732
0.007042583 -0.012164248 0.08254657 0.04832525 0.101222254 -0.09882288 -0.07910557 0.06370798
-0.08793147 -0.25981015 -0.2261021 -0.029308151 0.07516897 -0.09940839 -0.10073354 -0.0933638
-0.034175854 -0.09300649 -0.048253518 -0.09708182 -0.1381578 0.06073286 0.016088272 -0.12220143
0.028881583 0.08954125 0.01653879 0.0016830072 -0.020855682 0.003804542 -0.13098148 -0.020696701
-0.08202921 0.032225765 -0.03478113 -0.13760827 0.10694113 -0.014482912 0.008865985 -0.0862584
0.080392525 -0.030787118 -0.0026059907 -0.0040963218 -0.031939313 0.0048978375 -0.046100475 -0.099315874
-0.043197095 0.07804224 -0.040075425 -0.11637384 0.029196661 0.01339289 -0.0025810618 -0.052551005
-0.04932971 0.033316445 0.14164762 -0.0687759 -0.03113756 -0.012347249 0.051526368 0.014655613
-0.020156497 0.10829803 0.040548284 0.014894986 0.17066762 0.027410526 0.045841016 -0.027430542
00000000: 8520 16bd 4222 e1bd 2686 b1bd 5557 26bd
00000010: 1c03 a1bd 3029 5f3e f402 efbc 3ff2 9ebd
00000020: 7da0 213e 4a0c f83d 79b2 68bd e0d9 623e
00000030: 7beb 07be faf2 8c3d bf1b 75bd 640f 093e
00000040: ce4e 04be f486 fc3d 8298 583e ae5b 6f3d
00000050: 0d44 443e 97cb 643e cc62 69bd deb1 5dbe
00000060: 8084 643e 7bf5 62be 010e 553d e73d 39bd
00000070: be61 94bd 95d5 4fbe cf6a 013d 4f38 8bbe
00000080: fa66 d2bd 5180 c73d 034f 963d 260a a9be
00000090: a8ca fabb 45a3 d23d 0b85 c0bc fc90 debc
000000a0: a51b 27bd 7fe7 d73d 7a70 38bc 0530 0fbe
000000b0: 546d 5abe 7bcd 93bd 4736 b5bb 6efa 52bd
000000c0: 5f80 30be aa01 f93d c8d0 2a3d 4673 073e
000000d0: 85d0 11be 7360 17be 53cf c03d cc0f 813d
000000e0: e6b0 e0bd a12a c23d 97a0 9fbd 3394 29be
000000f0: 28fe 2b3d b969 283e ea3e 7dbe 5cf8 d63d
00000100: 7aa1 6dbe 6599 d9bc 3506 773d acb0 2cbe
00000110: bf42 713c 7c51 413d 7922 e03d 1bac 9a3d
00000120: 6184 7d3d edff 3f3c 8517 dc3d 1a6d cebd
00000130: 24f8 debc 2f6a 7fbe ebed 903c af4d b5bc
00000140: 2fd6 183e aaff 9b3c 45e7 643b 0dcb adbd
00000150: c07d aa3d 5e38 2ebe 8790 31be be22 2ebd
00000160: 93d6 28be 7744 df3d 72a3 20bd cbe1 8b3d
00000170: 2524 28be 4e2d f6bd 6a12 5abe 19c1 e43d
00000180: 99d9 173e 0716 c9bc cc4a 9abc de16 4e3d
00000190: b38a 9dbb c02e cd3d a1d6 f33d 29eb 4a3d
000001a0: 31fc 0cbd dd45 053d 4dec 953d df7b 65bc
000001b0: a38b 313e d5f1 b7bd 631f d9bc 4058 ce3d
000001c0: ebaf efbd 1cf5 fabd 1325 09bd 8131 03bd
000001d0: 1ac6 d13d 840f 2abe adea 09be 93bc d53d
000001e0: aa44 803e bf1a cebd de2d 90bd 41e8 1a3d
000001f0: 37b4 d8bd ef82 2cbe 2113 113d 8db5 e53d
00000200: 6584 c4bc ad86 e5bd c61c 65bd 638d 26be
00000210: f0f2 a4bd d7b0 86be bafd 9cbe 3bd6 1dbe
00000220: 05e3 103e c171 15bd 2983 983d 4d2e 25be
00000230: 802a 033c 52fc ed3c 4a36 e8bd 4a02 0fbe
00000240: becb 7bbd 264e 37be 7d40 a2bc ce4e 7abd
00000250: 8956 483d 1488 c3bd de55 cc3d eeb4 1cbe
00000260: bc29 0ebe 328c a6be 278e 60be 7c49 abbe
00000270: 65f7 b23d ef5c 95bd 2ddb 25be 8d6f 6dbd
00000280: 967a 79bd 1f67 073d 2694 243e d391 483d
00000290: bcab 533e 0e1e c4bd 81c3 85bd 0f1c 343b
000002a0: 3d61 b0bd 3138 94bd 2c40 4d3d 05f3 e3bc
000002b0: 9e49 cc3c 0cc2 e6bd 66e7 49be feb3 49bc
000002c0: fc8f 0e3d 9253 9cbc b27b 10be 54ec ea3d
000002d0: 35c2 df3d ce02 523d a810 b9bb b969 b23b
000002e0: 78c5 e63b 8e4c 47bc 2d0e a93d b3f0 453d
000002f0: 9d4d cf3d a663 cabd 1a02 a2bd 5479 823d
00000300: 6a15 b4bd d605 85be 4f87 67be a617 f0bc
00000310: 30f2 993d a096 cbbd 634d cebd 8535 bfbd
00000320: fbfb 0bbd 307a bebd 7ba5 45bd d5d2 c6bd
00000330: 3d79 0dbe 05c3 783d 8dcb 833c be44 fabd
00000340: 1299 ec3c 6761 b73d 5b7c 873c 5a98 dc3a
00000350: 89d9 aabc 9f55 793b 0220 06be 218c a9bc
00000360: eefe a7bd 2aff 033d a876 0ebd 2fe9 0cbe
00000370: f303 db3d bc49 6dbc a342 113c 3ea8 b0bd
00000380: d6a4 a43d 4435 fcbc 45c9 2abb 703a 86bb
00000390: ccd2 02bd 0a7e a03b dad3 3cbd 1f66 cbbd
000003a0: 70ef 30bd 9cd4 9f3d 2126 24bd 6855 eebd
000003b0: d62d ef3c da6d 5b3c 0827 29bb b93f 57bd
000003c0: f30d 4abd d376 083d 130c 113e 61da 8cbd
000003d0: 3214 ffbc 1e4c 4abc 500d 533d 191e 703c
000003e0: 3d1f a5bc 5ccb dd3d f515 263d 190a 743c
000003f0: 7ec3 2e3e 0a8c e03c cac3 3b3d 04b6 e0bc

bias f4 [9]
-0.0008278127 -0.016439978 -0.016859828 -0.02582596 0.006887547 0.03934562 0.04282448 0.029190218
-0.061074793
00000000: 9201 59ba 22ad 86bc 9f1d 8abc f790 d3bc
00000010: efb0 e13b df28 213d b968 2f3d 5320 ef3c
00000020: 9029 7abd
