models/classifier_143features_50x75x25_0.001lr_50e_0.5dropout_256bs_kaiming_norm.pth (torch_old, 86816 bytes, 8 tensors)

weight f4 [50, 143]
000000 0d 8e 0e be 99 8b 9b 3e 25 ea 18 3d ce 9a 54 bd
       -0.13921376 0.30379942 0.037332673 -0.051905446
000010 e0 4c 53 3e 0a 4d d7 3e da cc 30 be 80 1d d6 bd
       0.20634794 0.42050964 -0.17265645 -0.104548454
000020 75 7b 3b 3e 64 6e bf be 4d 1b dd 3e b8 da 06 3e
       0.18308814 -0.3738891 0.4318489 0.13169372
000030 ca 48 c2 3c ba 7a 44 3d ba 30 5c bd dc 59 8e 3e
       0.02371635 0.047968604 -0.053757407 0.27802932
000040 6f 6a f6 3e d3 a8 3e be 27 3d 03 bd 5d 8d 9e bd
       0.48128077 -0.18619089 -0.03204074 -0.07741807
000050 32 2a c8 3c 95 92 53 bd d3 9c 1a be 55 25 56 bd
       0.024434183 -0.051653463 -0.15098886 -0.052281696
000060 3d a7 a7 be ed 6e 75 3d f0 78 bf bd c8 be 89 be
       -0.3274478 0.05992024 -0.09349239 -0.26903367
000070 0e e7 07 bb 95 77 37 be 66 db 8f be 5c 4c 2a 3d
       -0.0020737085 -0.1791671 -0.28097075 0.04157673
000080 3c 44 57 be 93 26 99 be e3 b6 35 be c6 9b c5 be
       -0.21022123 -0.29912242 -0.17745547 -0.38595408
000090 80 e5 29 3e 5d 8a 2c 3e 60 10 ab 3e f9 26 8e bd
       0.16591454 0.16849656 0.3341093 -0.06941027
0000a0 20 ac 19 3f 68 09 9a bd 10 8b ad 3d d3 9c f4 be
       0.60028267 -0.07521325 0.0847379 -0.47775897
0000b0 01 a2 23 3e 7e a3 12 3e b4 8a 56 be b2 e8 4e be
       0.15979768 0.1432018 -0.20951349 -0.20205954
0000c0 63 29 ae be 19 8f d8 3d d3 8e ea bd 70 0f e8 3c
       -0.3401595 0.10574169 -0.11453023 0.028327674
0000d0 42 09 91 bc 70 61 34 be 73 6d 38 be 05 6f 78 bd
       -0.01770461 -0.17615294 -0.18010502 -0.06065275
0000e0 f1 79 c8 be 9b c6 8a be ff 2a 24 bc cf e0 d7 3d
       -0.39155534 -0.2710465 -0.010020017 0.10540926
0000f0 34 13 a0 3e 69 93 1e 3e 7d 86 b5 be 99 ac d9 be
       0.3126465 0.1548592 -0.3545417 -0.42514494
000100 de 19 30 3f 37 d5 80 be 1a 29 db be 89 61 b0 be
       0.6878947 -0.2516267 -0.42804796 -0.34449413
000110 f9 b5 ae 3e ce 3c 78 bc 32 49 b0 bd 49 eb 73 be
       0.3412321 -0.015151216 -0.08607711 -0.23820223
000120 1b 76 0a be 11 38 8d be 29 22 2f 3f 3e ab 4f 3e
       -0.13521616 -0.27581838 0.684115 0.20280167
000130 62 1b 0d be cd a9 1b bc 1f 2f 55 3e 58 6f 66 3d
       -0.13779977 -0.009500933 0.20818757 0.05625853
000140 da bf 55 3e 7b cb 9b bc 08 48 0d 3e b2 fd 8c 3e
       0.20873967 -0.019017925 0.13797009 0.27537304
000150 dd 64 45 bd 4b f6 36 be 20 2e 16 bd a5 55 a7 bd
       -0.048191894 -0.17867391 -0.036665082 -0.08170632
000160 8c da 85 3e a1 6f aa 3b 6b 7c 4c 3d 8b df 5e 3a
       0.261433 0.0052012955 0.04992334 0.00085019384
000170 45 ed 30 3e 78 31 60 3d 0f 2e 1c 3e ba 75 26 3d
       0.17278011 0.054734677 0.15251945 0.040639617
000180 f8 73 8e 3d 87 79 80 3c 5f e6 3c 3e 36 e8 63 bd
       0.06955713 0.015682949 0.18447255 -0.055641375
000190 fe eb 9b 3e bb 70 fc bd 8e ae b1 b9 7e 0b a4 bd
       0.30453485 -0.12326189 -0.00033890124 -0.080100045
0001a0 18 f6 6f 3d f5 6d bd be 54 3d 21 bd 5f be 0a 3e
       0.058584303 -0.36997953 -0.039365128 0.13549183
0001b0 82 e7 41 3e 87 9a 51 be 0d 52 11 3e 33 1d 7e be
       0.1893597 -0.20469104 0.14191456 -0.24815826
0001c0 52 8b 33 3e ef 94 40 3e ef 48 49 3b 39 96 d8 3d
       0.17533615 0.18806814 0.0030713638 0.10575528
0001d0 48 0e 06 be 81 de ac 3d 4c e8 df bd 62 88 7b 3e
       -0.13091385 0.08440877 -0.10932979 0.24563745
0001e0 15 21 83 3d 94 8d df 3d d5 b4 ce 3e 36 03 12 bf
       0.06402794 0.10915676 0.4037234 -0.5703615
0001f0 03 7f 02 bf f0 92 25 bf fe a4 f1 be ec 89 a1 be
       -0.50975055 -0.64677334 -0.47196192 -0.3155054
000200 b3 5e 82 bd 68 0e ae bd 12 07 ea bc 15 0a 4b 3e
       -0.06365719 -0.084988415 -0.028567825 0.19828065
000210 2d ae f1 bd 33 ea 50 3e 1c 3d a2 3e 33 e1 b4 bd
       -0.118007995 0.2040184 0.31687248 -0.08832016
000220 f7 8e 86 3d d6 14 2d 3d 8a ca 3a 3f c7 1e 43 bf
       0.06570237 0.0422562 0.729653 -0.7621884
000230 d6 42 0f 3f 60 9a 80 bd ae ec b9 3d bd 13 35 3e
       0.5596136 -0.06279445 0.09078346 0.17683311
000240 87 16 8c be a2 41 f3 3e 38 32 c3 be 15 23 21 3f
       -0.27360937 0.4751101 -0.3812425 0.62944156
000250 97 26 b6 bc 83 25 80 3e e1 5a 1c 3d 0c 88 42 bc
       -0.022235198 0.2502862 0.038172606 -0.011873256
000260 dc c6 b1 be cf 46 f0 3d 2f 7e a2 3e 4c c4 b3 bc
       -0.3472203 0.11732256 0.31736895 -0.021944188
000270 ed 5e b4 bd 36 fe 0e 3d 0e c5 d3 bd 0e 23 00 bd
       -0.08807168 0.034910403 -0.103403196 -0.03128343
000280 e8 c8 ac bd a6 c4 a2 3d 7d dc 8d bd 66 dd 5e 3c
       -0.08436757 0.07947664 -0.069268204 0.01360259
000290 96 5a 5f bd 91 51 1c 3f ba a5 13 3f 07 24 fc 3d
       -0.05452975 0.6106196 0.57674754 0.12311559
0002a0 dd a0 ac be 56 ec 3a be 74 cb e3 bd 07 92 44 bd
       -0.3371648 -0.18254218 -0.1112279 -0.047990825
0002b0 0b 77 ac 3e 11 45 5a 3e 3e 07 01 3e 72 bd 82 be
       0.33684573 0.21315409 0.12600419 -0.2553516
0002c0 62 2f b5 be ef f6 3d be a8 b6 f8 be 1a b7 07 bf
       -0.35387713 -0.18551229 -0.48576856 -0.53013766
0002d0 25 17 b7 be c4 1f fd bc 0e c5 c6 be 73 32 94 3c
       -0.35759845 -0.030898936 -0.38822216 0.018090462
0002e0 c9 90 ee 3d 27 71 24 bd bd f0 e1 be f9 18 bb 3c
       0.11648709 -0.040146973 -0.4412898 0.022839056
0002f0 fe a4 d4 be 4a 6d 99 bd 15 f0 e3 3d 41 44 5a 3e
       -0.4153213 -0.07491548 0.111297764 0.213151
000300 e6 e8 39 3e 0f 5e c8 3d d9 21 03 3e d3 5a 0b bb
       0.1815525 0.09783565 0.1280588 -0.0021263852
000310 01 88 93 be f0 a0 93 3e 1d b9 e9 bd 5c 7d bb be
       -0.288147 0.28833723 -0.11412261 -0.3661908
000320 0c dc 43 be e3 2b 0a 3e e1 f4 4c 3e 5b b8 c0 3d
       -0.1912691 0.13493304 0.20015289 0.09410163
000330 f2 ce c5 3d 8b 9e 46 be ad ba 02 be e0 76 07 3f
       0.09658612 -0.19396417 -0.12766524 0.52915764
000340 23 fa d5 3d a7 4b b5 3d ef d3 aa be 51 a0 7a 3e
       0.104481004 0.0885232 -0.33364818 0.24475218
000350 ca 2c b8 3e 63 f8 1a 3e 62 e6 18 3e 3d ae a4 3d
       0.3597167 0.15133815 0.14931634 0.08041046
000360 9e f7 a3 3c ed 49 20 3f 6f f3 72 be ae 49 b4 3d
       0.020015534 0.626128 -0.23725675 0.08803116
000370 16 bf a0 3e 16 d1 6f 3e a6 1c 3d bd 76 8f 90 3d
       0.31395787 0.23419604 -0.0461699 0.07058613
000380 37 f1 36 bd 94 bd 13 3e ff 17 52 3e c2 ea c6 bb
       -0.044663634 0.14427787 0.20516966 -0.006070466
000390 10 14 44 3e ff e1 f1 3d 0a 46 25 3e 60 cf 13 3e
       0.19148278 0.118106835 0.16139999 0.14434576
0003a0 74 3b 9f 3d 1c 32 e0 bc 98 e0 6a be a9 80 31 3e
       0.07775012 -0.027367644 -0.22937238 0.17334236
0003b0 01 a5 06 3e 82 00 b1 3d 97 6a 58 bd 1c 0d 2e 3e
       0.13148881 0.08642675 -0.052836027 0.16997188
0003c0 f3 da 17 3f 78 8c 68 3e a6 3c 73 bd b9 68 4d be
       0.59318465 0.22709835 -0.05938401 -0.2005948
0003d0 c1 d2 36 3e 32 fc 47 bd 3b 55 45 3e e3 1c 3f 3e
       0.17853834 -0.048824497 0.19270794 0.18663363
0003e0 aa 67 d3 3e 0e f2 21 3e 47 d6 c7 bd 72 73 13 3e
       0.41290027 0.15814993 -0.09757667 0.14399508
0003f0 66 86 ac bd c4 81 1d 3e ee bf 13 bd 78 83 41 3e
       -0.08424072 0.15381533 -0.03607171 0.18897808

bias f4 [50]
000000 62 49 a8 be db 84 0d bf d7 cb 53 be 2e da cc be
       -0.32868487 -0.55280846 -0.20683227 -0.40010208
000010 ec be d3 be 36 27 87 be 67 32 1f be 4c 5d 50 be
       -0.413566 -0.26397103 -0.1554657 -0.2034809
000020 14 d2 a8 be 1f 00 16 be 47 f2 f6 bd ab f7 9e be
       -0.32972777 -0.14648484 -0.120579295 -0.3104833
000030 56 ef cf bd 55 01 9f be b5 30 8e be 45 d2 fe be
       -0.101530716 -0.31055704 -0.27771536 -0.49769798
000040 05 4d 53 be b5 c3 cb be 92 95 3a bf a0 59 bb be
       -0.2063485 -0.3979775 -0.72884476 -0.36591816
000050 f8 30 b2 be 35 43 a5 be f7 96 aa be 7c 1e e5 be
       -0.34802985 -0.32277837 -0.33318302 -0.4474982
000060 2c b0 cc be e5 04 de be 00 df bb be ba 87 cd be
       -0.39978158 -0.4336311 -0.36693573 -0.40142614
000070 0b bc f2 be 36 ce bc be fc 64 c6 be ab 31 c3 be
       -0.4740909 -0.36876076 -0.3874892 -0.3812383
000080 06 a1 e5 be d7 ff df be 9f 56 82 be 8f 76 b2 be
       -0.44849414 -0.43749878 -0.25456712 -0.34856078
000090 53 27 ff be 4f 61 fe be 73 bf 4e be 39 92 81 be
       -0.4983469 -0.49683616 -0.2019022 -0.25306872
0000a0 86 c4 4b be 5f 3f 97 be 95 61 e1 be 5c 41 3f be
       -0.19899186 -0.29540536 -0.44019762 -0.18677276
0000b0 50 71 a3 be 5a 1f 32 be 8d a7 3f be 79 8f a9 be
       -0.31922388 -0.17394772 -0.1871626 -0.33117273
0000c0 22 14 cf be 52 0c b3 be
       -0.40445048 -0.34970337

weight f4 [100, 50]
000000 fa 81 71 3d 47 c9 54 3e 3f eb 70 be 69 fd 15 3e
       0.058961846 0.20779906 -0.2352724 0.1464745
000010 0d 90 0e 3d 85 e9 f9 3d 15 32 81 3d 53 b5 d4 bd
       0.034805346 0.122027434 0.063083805 -0.10386147
000020 93 7b 32 be 9e 4e 3e 3e e2 ca 42 be 28 1d a4 bd
       -0.17429952 0.18584678 -0.19022706 -0.080133736
000030 63 8a c0 be c5 87 78 be 16 b0 95 bd d1 6b 69 bf
       -0.3760558 -0.24270542 -0.07308976 -0.9118014
000040 70 52 90 3d db 9d 83 be a5 20 54 3d ad 3c a6 be
       0.07046974 -0.25706372 0.051788945 -0.32468167
000050 3b 15 05 3e f3 12 ab bd 3b 08 17 be 0d e3 10 bd
       0.1299638 -0.08353224 -0.14749233 -0.035372782
000060 03 d9 44 bd 9c b5 d0 be 6a bf da 3d d3 a7 40 be
       -0.04805852 -0.40763557 0.106810406 -0.1881402
000070 5a 66 21 bf 63 a8 ff bc c3 d7 34 bd 79 07 b9 3e
       -0.630468 -0.031208223 -0.04415108 0.36138514
000080 f7 9f 44 be 24 25 9d be 86 d7 df be 9b 4e 77 be
       -0.19201647 -0.306924 -0.4371912 -0.2415108
000090 61 26 67 be 06 fb 95 be 94 46 17 bf 58 f5 f9 bc
       -0.22573234 -0.29293078 -0.5909207 -0.030512497
0000a0 8f 6f a1 be e5 65 b7 bd d9 d0 b7 be 5b 37 1c be
       -0.31530425 -0.08954982 -0.35901526 -0.15255491
0000b0 b6 cf c8 bd aa 30 ef be c8 11 40 3e a5 a2 f7 3d
       -0.09805243 -0.46716815 0.18756783 0.12091569
0000c0 2a 9b 76 be 71 d0 ec 3d 2b c7 4d bd 7f 4e 42 3e
       -0.24082628 0.115631945 -0.05023877 0.18975256
0000d0 de 40 0c 3d cd 6a 4e be a1 e2 75 be d4 9e 5d 3e
       0.03424155 -0.20157929 -0.24012233 0.2164262
0000e0 6c 1b 9f bd 68 55 89 3d a9 ab c2 be d4 27 31 3a
       -0.07768902 0.06705743 -0.3802159 0.0006757949
0000f0 ad ca b4 3d 9a ec be be 16 98 46 3a f8 4f 69 3e
       0.0882772 -0.37289888 0.0007575763 0.22784412
000100 7e ec 0f be e9 47 99 3c f8 f1 ab 3d 6e 73 e1 be
       -0.14055058 0.018711047 0.08395761 -0.44033378
000110 a1 64 92 be 46 e6 0d bf 44 a7 12 be 76 c4 3b 3c
       -0.285924 -0.55429494 -0.1432162 0.011460414
000120 32 fd 8f 3d 2c 99 8d 3e 86 91 14 be 31 e7 09 3e
       0.07030715 0.27655923 -0.14508638 0.13467099
000130 56 c4 79 3e 80 3a 6a be 27 b2 c5 bd 52 ab a4 3e
       0.24391302 -0.22873878 -0.096531205 0.32161957
000140 84 34 12 bf fa 7f 85 be c6 2a 20 bf 9c 44 11 3d
       -0.5711138 -0.260742 -0.6256527 0.03546582
000150 f0 44 98 bc fd a2 82 bf 14 ad c3 be dc 54 6e bd
       -0.01858756 -1.020599 -0.38217986 -0.058186397
000160 54 07 1c bf d2 3d 26 be ea 8f d1 bd df 4d 95 be
       -0.6094868 -0.1623452 -0.102325276 -0.29160973
000170 f8 d0 b4 bd 01 9f a0 3d 24 de 0a bd 5d a3 fa 3d
       -0.0882892 0.078428276 -0.033903256 0.1223819
000180 5f 2f 56 3e c4 de 45 bc 4f 7e 92 bd 46 04 9a 3e
       0.20916508 -0.012077037 -0.07152998 0.30081385
000190 4b 5e 99 be 72 13 f1 3e a1 57 02 be 56 8c bc bd
       -0.29954752 0.47085148 -0.1272874 -0.092064545
0001a0 13 5f 8d be 64 d2 8b 3c c4 91 70 bd 8b 1e 8e bd
       -0.27611598 0.017068096 -0.058732763 -0.06939419
0001b0 f3 e9 a6 be 8b 71 19 be c6 36 9c be 5a 7f f2 be
       -0.32600364 -0.1498472 -0.3051054 -0.47362787
0001c0 f9 ce 47 3d 6b 0e 9e bd 4a c9 7d be e1 14 d1 3d
       0.04878137 -0.07717594 -0.24783817 0.102090605
0001d0 27 da 90 3e fe e1 5f 3e da 85 52 be 09 fa 26 bd
       0.28291437 0.21863553 -0.20558873 -0.040765796
0001e0 42 f8 6c be f5 3a bb 3e 22 4a 8f be 86 7d e3 bd
       -0.23141578 0.36568418 -0.27986246 -0.11107926
0001f0 d7 6c 76 3e d7 2c ed 3d 6d 1b 40 bf 6b 14 79 3c
       0.24064957 0.11580818 -0.7504185 0.015202622
000200 cc 11 28 3e ce 69 89 3e fb 5c c4 be a6 af 73 be
       0.16413039 0.26838535 -0.38352188 -0.23797473
000210 94 53 bc bd 3f 34 9e be cf c9 78 bd c3 ac a5 3d
       -0.09195629 -0.30899236 -0.060739335 0.08089592
000220 bc e7 96 be 1d 0f d5 be 9e 09 93 3e 24 63 4b 3e
       -0.29473674 -0.41613093 0.28718275 0.19862038
000230 99 57 ca bd 61 fc 65 be 8b db 0a be c2 ff 84 3d
       -0.09879989 -0.22459556 -0.13560311 0.064940944
000240 a9 6e 86 be fd fd 30 bd 3c 9f 1f 3c 90 d6 68 3e
       -0.26256302 -0.043210972 0.009742554 0.22738099
000250 0c 28 82 be d8 ae 81 3e 33 86 6f be b6 65 0a 3d
       -0.25421178 0.25328708 -0.23391037 0.033788405
000260 40 d0 8d be 0a 09 8e be ac 36 f9 3d f3 aa 4e bd
       -0.27697945 -0.2774127 0.12168631 -0.050456
000270 b9 5e 25 be 2d 23 18 be 87 4e c3 bd 89 0a 2d 3d
       -0.16149415 -0.14857168 -0.09536462 0.042246375
000280 cb a7 b1 bd 93 76 36 be 15 7e 73 3e 4c f2 8a be
       -0.08674582 -0.1781867 0.23778565 -0.27137983
000290 8d 4f 1d 3d ac a8 12 bf 31 f6 f2 bd 4d 72 82 be
       0.038405944 -0.5728862 -0.118633635 -0.2547783
0002a0 95 00 b6 bd c9 6a a2 bd 92 71 1e be 0e 4c 99 3e
       -0.0888683 -0.07930524 -0.15473011 0.29940838
0002b0 6a 44 ce 3e e2 36 86 3c 63 c9 6e 3e 4c d0 fe bd
       0.4028657 0.016383592 0.2331901 -0.12442073
0002c0 86 4d ab bd a5 15 3a be 2d 55 18 bf ec c7 c6 be
       -0.08364396 -0.18172319 -0.5950497 -0.38824403
0002d0 76 a6 e6 bc fd 74 19 be 1b d3 b4 be 8e 52 19 be
       -0.028155547 -0.14986034 -0.3531731 -0.14972898
0002e0 6a fd be 3d 91 ca 7e 3d e0 60 b5 be a6 9a be be
       0.09325679 0.0622049 -0.35425472 -0.37227362
0002f0 61 ee 7f bd 7d 95 89 be ea 4d 7d 3d 7c 0a a2 3c
       -0.062483195 -0.26871863 0.061841883 0.01978039
000300 3e 81 8c be 12 d6 46 3e 78 a1 c1 3d 34 c7 5d bb
       -0.27442354 0.19417599 0.09454626 -0.0033840658
000310 7f 47 8b bd f3 ba 77 bf 29 d2 87 bd 6d 8b 56 bd
       -0.06800746 -0.96769637 -0.06631882 -0.05237906
000320 96 eb d9 3d 78 e2 e2 3e e4 84 f6 3c 38 22 88 bd
       0.106406376 0.44313407 0.030092664 -0.06647152
000330 3f f9 81 be 04 14 21 be a5 79 bc bd b3 6d 03 be
       -0.25385472 -0.15730292 -0.09202889 -0.12834816
000340 05 65 a4 be 1e 4a 9c bd 48 8b 48 be fe ba 5a be
       -0.32108322 -0.07631324 -0.19584382 -0.21360394
000350 3c 94 84 bd 47 63 ac 3e 00 55 0a 3e de b7 89 be
       -0.06473586 0.33669493 0.13508987 -0.26898092
000360 08 d3 b2 3d c8 01 01 bf bc 22 53 be 4d b6 51 be
       0.08731657 -0.5039334 -0.20618719 -0.20479698
000370 6b f0 7c bd 17 a9 65 3e 90 bb aa 3d 44 1c 31 be
       -0.061752718 0.22427784 0.08336556 -0.17295939
000380 4d 17 96 be 19 f7 58 be ae c2 49 be 81 70 eb 3c
       -0.29314652 -0.2118801 -0.1970317 0.02874017
000390 60 77 a8 bd cd 16 5f bf 9c 27 cf be 6d f9 8f 3e
       -0.08225894 -0.87144166 -0.40459907 0.28119984
0003a0 d4 1a 6c be d7 d1 37 3e 0f 20 81 be bd 8f c1 be
       -0.23057109 0.17951141 -0.2521977 -0.37804976
0003b0 8d 6a a6 be 8f 01 82 be d5 53 9c bb 26 08 95 3e
       -0.32503167 -0.25391814 -0.0047707357 0.2910778
0003c0 72 7e 9d ba ca f5 8d be b8 0e de bc cf 2a fb 3b
       -0.0012015833 -0.27726585 -0.027106628 0.0076650153
0003d0 84 e7 25 3e 4a 34 7b be b6 e1 40 bc 1f bf 7a be
       0.16201597 -0.24531665 -0.011772564 -0.2448697
0003e0 6c 52 08 be 76 8f 85 3c a6 12 9c 3e 01 b9 84 3c
       -0.13312691 0.016303759 0.30482978 0.016201498
0003f0 66 71 c2 3d e2 45 3b 3e 9f 56 e4 be 06 31 b0 bd
       0.09494285 0.18288377 -0.44597337 -0.086031005

bias f4 [100]
000000 a2 94 0c 3e 6d b5 79 3d d9 79 84 bc 02 3c 35 3e
       0.13728574 0.060964037 -0.016171383 0.17698672
000010 b1 c9 8e bd 68 14 05 3e 20 30 b6 3d ac 86 76 be
       -0.06972063 0.12996066 0.08895898 -0.2407481
000020 eb 4e 43 3d 9d cc aa 3d d8 9e c7 3d 24 67 2d 3c
       0.047682684 0.08339808 0.09747094 0.010583673
000030 e6 b7 10 3e 2e e7 0e bf b4 7c f0 bd 13 c4 e1 bd
       0.14132652 -0.558215 -0.11742535 -0.11023726
000040 5d ed a2 bc 54 30 98 be a0 02 41 be 96 44 85 bd
       -0.019888574 -0.2972437 -0.18848658 -0.06507222
000050 f9 e1 1f bf 62 f1 f6 3d fd 85 81 be 60 74 4f 3d
       -0.6245418 0.12057759 -0.25297537 0.050648093
000060 b4 23 04 be 6b 48 26 3d e4 5a 5a 3d 47 b1 74 3d
       -0.12904245 0.040596407 0.053309336 0.059739377
000070 2b 32 cf 3d b5 e8 30 bf f0 31 ea 3d f0 6a fa be
       0.10116991 -0.6910508 0.11435306 -0.48909712
000080 f3 e8 a0 bf f7 ae df 3d c5 de 25 bf 2f 57 04 be
       -1.257109 0.10922044 -0.64793044 -0.12923883
000090 af 1c 56 bf 34 a0 03 3e db b1 c9 be cb e2 ac bf
       -0.8363752 0.12854081 -0.39393505 -1.3506712
0000a0 0c f6 a0 bf da b9 fc 3d a3 40 6c be dd 6a b6 bc
       -1.2575088 0.12340136 -0.23071532 -0.022267753
0000b0 01 43 a7 be 45 21 8e bd 57 5c 7a be e3 6b 06 bd
       -0.32668307 -0.069399394 -0.24449287 -0.032817733
0000c0 ad 07 a6 3d 9b d3 45 3e c6 75 89 3c 18 81 92 3d
       0.08106933 0.19319002 0.016779792 0.07153529
0000d0 e9 be a9 3d 82 09 89 be b9 36 0b 3e eb 8a 24 3e
       0.08288366 -0.26765066 0.13595094 0.16068618
0000e0 66 e3 4b 3d 60 07 b3 3c e0 3a ff 3d 69 9d 89 3d
       0.04977741 0.021854103 0.124624014 0.06719477
0000f0 3e b4 c3 3d b2 9b bd 3d 1f 8e 68 3d 4e 22 4f bf
       0.09555863 0.09258212 0.056776162 -0.8091172
000100 38 58 b5 bc 5c 28 e2 3d 1d b4 b3 bf a3 c8 89 3c
       -0.022136793 0.11042854 -1.4039341 0.016819304
000110 46 51 31 be e3 5d c1 be 2c 2e fb 3c c5 d3 fe 3d
       -0.1731616 -0.37766942 0.030661665 0.124427356
000120 bc ec 0c be f4 ff 33 bc 5c fc 41 be d3 83 8c 3d
       -0.13762182 -0.010986317 -0.18943924 0.06861081
000130 2c 7d 8c bf 92 17 de 3d d5 09 4f bf 91 c9 34 be
       -1.09757 0.108443394 -0.8087438 -0.17655016
000140 d8 b2 19 bf b9 0a 36 3e 7d db 81 be 28 e9 53 3d
       -0.6003852 0.17777528 -0.2536277 0.051736027
000150 03 e4 89 3d f8 db 75 3e 09 d7 46 bd e8 67 80 bd
       0.06732943 0.24009693 -0.048544917 -0.062698185
000160 10 79 09 3e 07 5c ab 3d 66 77 b5 be f3 6b 27 be
       0.13425088 0.08367162 -0.35442656 -0.16349773
000170 55 5a 05 3e 0a 92 27 3d f0 d5 bb 3d 2c 28 42 3e
       0.1302274 0.040910758 0.09171665 0.18960637
000180 d8 be 09 3e a6 80 db ba 55 19 e4 be 44 b4 4d bf
       0.13451707 -0.0016746714 -0.44550577 -0.8035319

weight f4 [75, 100]
000000 45 79 6e be 97 09 12 bf 32 39 ad be 7a 41 cd bd
       -0.23288448 -0.5704588 -0.338327 -0.10022254
000010 72 a9 18 3e c2 98 1b bd 6b b4 c6 3d 09 0b 10 bf
       0.14908388 -0.037987478 0.09702381 -0.5626684
000020 5d 42 3d bd d3 10 1f bd 05 13 64 3e 3b ae a0 be
       -0.046205867 -0.038834404 0.2227288 -0.31382927
000030 df 92 0e 3e 99 2c 37 bd 12 44 99 ba 00 c5 cc 3d
       0.13923214 -0.044720266 -0.001169326 0.09998512
000040 10 01 88 3b 79 f6 ba 3b 6e 7d 98 bd ff 88 19 3d
       0.0041505173 0.0057056514 -0.07445799 0.037484165
000050 36 23 c3 3e 33 e1 21 3e 4b d3 50 be 87 be 11 bf
       0.381128 0.15808563 -0.20393102 -0.56931347
000060 f5 ef 34 be 30 9c e7 3c f2 73 93 3e 99 4c 5a 3e
       -0.17669661 0.028272718 0.28799397 0.21318282
000070 bb 40 88 3d d4 2f 05 3e e7 f1 87 be 4a aa c6 bd
       0.06652971 0.13006526 -0.26551744 -0.09700449
000080 ce 9b 86 bd c1 81 f0 bd 8c dd 58 3e 42 a0 52 be
       -0.06572686 -0.117434986 0.21178263 -0.20568946
000090 dd 25 8f be c3 b9 7d 3e 03 2d 0b be 2d 4a cc bd
       -0.27958575 0.24777894 -0.1359139 -0.099750854
0000a0 53 b1 75 be 3a a6 06 be 4e bc 93 bd 8e f4 2c 3e
       -0.23993425 -0.13149348 -0.07213651 0.16890165
0000b0 cb 96 bb 3e 57 8d 8e bd b6 42 9c be 4e be da 3d
       0.36638483 -0.06960552 -0.30519646 0.10680829
0000c0 70 42 09 3c ec 19 d8 be 78 c0 a6 bc e2 ae 65 bd
       0.008377656 -0.42207277 -0.020355448 -0.056074984
0000d0 a9 10 fd be ff ee 05 3b 74 41 51 be 8c 1b 06 bf
       -0.49426773 0.0020436642 -0.20435125 -0.52385783
0000e0 0a 0e 44 3e c8 48 de 3d 0f 6e 10 bb 0f 95 8a be
       0.1914598 0.10853726 -0.0022038256 -0.27066848
0000f0 39 47 c6 bb 70 44 05 bf 37 1e 00 be d8 1c 12 be
       -0.006050971 -0.5205755 -0.12511526 -0.14268816
000100 73 9e 92 3d ce f2 03 3e e5 e8 17 be 75 a7 99 3e
       0.07159128 0.12885591 -0.14834936 0.30010572
000110 bc 12 64 be 61 c1 82 3d cd ce f8 3b cd d4 a4 3d
       -0.22272772 0.0638454 0.007593012 0.08048401
000120 21 d9 ab bd 12 a8 80 be 61 cc 60 3d dd d1 86 3e
       -0.083910234 -0.25128227 0.05488241 0.26331988
000130 26 a4 90 be e4 f0 84 bf fe a1 b8 3d 5c 27 16 bd
       -0.28250235 -1.0386014 0.090152726 -0.03665863
000140 51 eb d8 bc 23 7c 7a 3e 9c a0 a4 bb 82 49 75 bd
       -0.026479395 0.24461417 -0.005024029 -0.059884556
000150 d2 10 02 3f 3e c7 d4 ba 25 8d 74 3e 50 85 19 be
       0.50806916 -0.0016233695 0.23881967 -0.14992261
000160 2d f1 ae 3d c3 8a 14 3e 05 20 cb be 61 bf 19 3d
       0.085420944 0.14506058 -0.39672866 0.03753603
000170 42 35 a5 bd 57 93 50 bd 86 69 e9 bc f8 6d 2c 3d
       -0.08066799 -0.050921764 -0.0284927 0.042097062
000180 24 22 56 bd 56 dc b8 3d 43 3f 3e be a5 65 1a bd
       -0.052278653 0.09026401 -0.1857882 -0.037694592
000190 df a5 0d be 9e 8d 98 be 34 8e a0 3d 31 60 d1 be
       -0.13832806 -0.29795545 0.07839623 -0.408937
0001a0 e2 42 86 be 3b ce 86 bd 35 4c 07 3e 0e 33 27 3d
       -0.26222903 -0.06582304 0.13212664 0.040820174
0001b0 f6 c4 67 3e ef a7 71 3e 5a 73 c7 3c c9 e6 b3 be
       0.22633728 0.23599218 0.024346996 -0.35137013
0001c0 d0 a5 8e 3d 76 ca ca bd 56 20 f2 bd 12 33 ff 3d
       0.0696522 -0.099018976 -0.11822574 0.12460913
0001d0 56 b9 38 3e fc 5d 03 be e5 9d bf be 15 23 20 3e
       0.1803945 -0.12828821 -0.3742515 0.15638383
0001e0 4a 9c 9b be c5 3f e7 3d d1 a6 97 bd f1 a0 b3 be
       -0.30392677 0.1129146 -0.074048646 -0.35083726
0001f0 15 1f 34 be 7d 11 9b 3e 21 c3 7d 3e bc 0f 1d be
       -0.17589982 0.3028678 0.24781467 -0.15338033
000200 ca 4b 9b be 10 ff b8 3d a7 ca 25 bd 81 0a 18 3e
       -0.3033126 0.09033024 -0.040476467 0.14847757
000210 dd 0b 4c be 1e 93 95 bd 13 b6 23 3d 3c 36 84 be
       -0.199264 -0.07303451 0.03996856 -0.25822628
000220 2f 63 a0 3d 6b 62 bf 3d b9 ab 67 be 39 c6 7b be
       0.07831418 0.093449436 -0.226241 -0.24587335
000230 31 67 c1 bb 69 7d 85 bc 31 ad d6 3d ff 2c cb be
       -0.005902194 -0.016295152 0.104822524 -0.39682767
000240 67 c4 ae be da 18 a9 3d 50 2c f6 be 1f c6 30 be
       -0.34134218 0.08256693 -0.48080683 -0.17263077
000250 c8 82 34 be e6 fa 57 be 37 84 9e 3c e0 62 36 3e
       -0.17628014 -0.21091804 0.019350154 0.17811155
000260 07 dc 72 be 76 96 d2 bd 90 65 a5 3d 8d da 2d be
       -0.23716746 -0.102826044 0.08076012 -0.16977902
000270 0f c1 57 be cb 95 10 3e 92 8b d7 3d e1 c6 d5 be
       -0.2106974 0.14119641 0.10524668 -0.41753295
000280 f6 2d 95 3d bd 44 9a be 23 2a 31 bf 98 49 21 be
       0.07284157 -0.30130568 -0.6920492 -0.1575073
000290 ab 93 d3 bd 16 72 83 3e 11 d9 08 3b e1 c4 06 be
       -0.103309 0.25672978 0.0020881335 -0.13161041
0002a0 2a 03 b6 be 92 cf 4f bd d3 35 c0 3d 86 69 db be
       -0.3554929 -0.050735064 0.09385266 -0.42853945
0002b0 5c cd f7 be 0b 87 ee bd 87 f5 97 3e 06 e1 a4 bc
       -0.48398864 -0.11646851 0.2967951 -0.02012683
0002c0 fd 09 15 bd 21 e2 0f bf 4c 4b ff bd 2d 61 44 be
       -0.03638648 -0.5620442 -0.124655336 -0.19177695
0002d0 76 5e 8d be 66 2f 96 3d 0a af 89 bb d9 b8 03 3e
       -0.2761113 0.07333259 -0.0042017745 0.12863483
0002e0 5e 5f 83 3e fa 5d 64 bd bd 6f c4 bd 4e 4c 05 bd
       0.25658697 -0.055753686 -0.09591625 -0.032543473
0002f0 87 be a5 3d 8c f0 14 be fd 9c f9 bd ad e5 40 be
       0.08092981 -0.14544886 -0.12188146 -0.18837614
000300 27 90 d5 3d 07 29 fe be 39 7f 51 be 19 0a d9 3d
       0.104278855 -0.49640676 -0.20458688 0.10597629
000310 ef a9 02 bc da 4a a5 bd e7 7e 11 be 31 7c 79 be
       -0.007975086 -0.080709174 -0.14208566 -0.24363782
000320 1f fb 9d be e5 61 bc be b8 e3 6a be dc 7b 45 be
       -0.30855653 -0.36793438 -0.2293843 -0.1928553
000330 66 63 81 be 60 70 10 bf 74 0f 38 be f6 72 62 3e
       -0.25271147 -0.5642147 -0.17974645 0.22114167
000340 b3 45 86 3d 2f 61 c8 3e 50 65 a3 3d a9 b4 ef be
       0.06556263 0.39136645 0.07978308 -0.4681752
000350 35 e8 78 be 4c e9 25 be d4 99 ef be 4f 28 9f bd
       -0.2430733 -0.16202277 -0.4679705 -0.0777136
000360 15 72 82 3e c6 40 6d bd c8 94 5d be 01 0c a2 3c
       0.25477663 -0.0579231 -0.21638787 0.019781115
000370 18 cd fd bd 6e 74 25 bd 80 c1 0c be 4b 7e 28 be
       -0.12392634 -0.04039424 -0.1374569 -0.16454427
000380 f2 43 c4 bd 62 85 af bd 3b fb 43 bd f1 d2 ae 3e
       -0.09583272 -0.08570363 -0.047847014 0.3414531
000390 66 2d 21 be 5a 8f 4d 3e a2 59 a5 be 05 e0 30 3a
       -0.15739974 0.20074216 -0.32294947 0.00067472487
0003a0 04 5d ec bd fb 8e 1f 3d 56 e0 0c 3e 25 54 82 3d
       -0.11541179 0.038954716 0.13757452 0.063637055
0003b0 4b f0 5f be b9 17 b5 3b a3 43 bd 3d ef 09 02 be
       -0.21869008 0.0055265096 0.09241416 -0.12699102
0003c0 c4 aa 5a be c8 e9 a8 be da dd 1b 3e 9c 1b 07 be
       -0.21354204 -0.3299086 0.15221348 -0.13194126
0003d0 01 6a 9c 3c 42 90 af 3d 12 d5 5a 3d d9 84 1c 3e
       0.019093515 0.08572437 0.053425856 0.15285052
0003e0 b7 ed bc be 0e 10 b5 bd 25 20 ce bd f9 0f 4f bd
       -0.36900112 -0.08840953 -0.10064725 -0.050552342
0003f0 1f f2 e5 be 43 7a aa be d4 c6 4c bf 83 4e 42 be
       -0.44911286 -0.33296403 -0.7999089 -0.18975262

bias f4 [75]
000000 b8 77 26 3e 90 ae 1e 3d 21 3c 94 3e 26 99 91 bc
       0.16256607 0.038740695 0.28952125 -0.017773222
000010 f6 88 be bd 40 3e 83 3d 57 35 8f be c4 3b 2d be
       -0.09303467 0.064083576 -0.27970383 -0.1691733
000020 31 68 46 3e 4a 2f 8f 3d c8 62 de bd fe 9b 12 3e
       0.19375683 0.069914415 -0.10858685 0.14317319
000030 be 7e 85 3e 3a 08 40 3c 09 a3 39 bd 55 2f 9f bd
       0.2607326 0.011720711 -0.045321498 -0.077727
000040 4e de b2 be d3 97 ec 3d 36 b0 ee 3d c5 47 af 3d
       -0.3493523 0.11552396 0.11654703 0.08558611
000050 42 af d3 3d ce 14 a0 3d 01 1e d5 3d 1f 3e 96 be
       0.10336162 0.07816468 0.104061134 -0.2934427
000060 22 b3 21 3e 23 8e a6 3d d1 1c d8 3d e4 67 39 be
       0.1579099 0.08132579 0.10552371 -0.18106037
000070 50 79 26 3e 75 75 1c be 3f cd 36 3e 5a 80 64 3e
       0.16257215 -0.15279181 0.17851733 0.22314587
000080 99 4f 92 be 8b 9c 8e 3e bb 5e 5d 3d 6e e0 3b 3e
       -0.28576353 0.27853808 0.05404542 0.18347332
000090 df 4c d7 3d d4 a0 40 be d2 66 84 3d 24 c0 a6 be
       0.10512709 -0.18811351 0.06464924 -0.32568467
0000a0 ed a2 e7 bc 3b 68 1e 3e 7c 4c c9 be 0a 4d 6b 3d
       -0.028275931 0.15469448 -0.39316165 0.057446517
0000b0 8f 4a 91 3e 3c 6a 59 3e 2b 1f 5d bd b2 27 1f bf
       0.28377196 0.21231931 -0.053984802 -0.62169945
0000c0 97 21 37 be 21 41 f3 be 31 37 95 3d fd a2 03 3d
       -0.17883907 -0.47510627 0.072859176 0.03213786
0000d0 4a e0 99 3e 4b d0 b5 3d fe 8d ca 3d c2 fc 94 be
       0.3005393 0.08877619 0.09890364 -0.2909909
0000e0 a1 00 6f 3e 2e 45 ed 3d 88 c2 0c 3d 8b 07 0d 3e
       0.23340084 0.115854606 0.034365207 0.13772409
0000f0 09 42 36 3e 94 b3 a5 be 9c f8 a9 be c5 69 96 bd
       0.17798628 -0.3236357 -0.33197486 -0.07344393
000100 b7 08 ab 3e 24 ce 14 be 81 fb f8 3d 8f 84 67 3e
       0.33405086 -0.14531761 0.121573456 0.22609161
000110 09 46 1d 3d ce 0f 1c 3e db 9c d0 3d 17 36 c2 3d
       0.03839687 0.15240404 0.10186168 0.09482973
000120 27 ad 4a 3d 11 25 15 3e 19 05 f9 3d
       0.049481537 0.14564921 0.121591754

weight f4 [9, 75]
000000 8b bd 82 3d 82 3c 97 bc 03 3d 59 3e dd f7 cb bd
       0.06383809 -0.01846147 0.2121468 -0.099593855
000010 78 f8 e6 be 09 a2 ab be fa ad b1 be 59 c0 78 be
       -0.45111442 -0.3352206 -0.34703046 -0.24292125
000020 86 fb f9 3c a6 8f 4f bf 78 7e 0e bf c1 8c 21 be
       0.030515444 -0.81078565 -0.55661726 -0.1577635
000030 bd 1e 24 3e e4 36 6e be fa ee 6f be 35 82 b8 be
       0.1602735 -0.23263127 -0.23431006 -0.3603684
000040 c5 2c 3b be fb a0 73 bd 36 61 bf be 9d 3c 08 bf
       -0.18278797 -0.059479695 -0.37378854 -0.5321749
000050 de d3 e4 be 90 f3 ec be 16 23 91 3d 64 a0 f7 be
       -0.44692892 -0.46279573 0.0708677 -0.48364556
000060 f4 38 b7 be cf c2 c7 bd 75 1e b1 be b0 22 15 bc
       -0.3578564 -0.09753954 -0.3459355 -0.009102508
000070 48 3c 5e be 75 95 53 be 25 11 d0 3d 89 46 3c 3e
       -0.21702683 -0.20662482 0.1015952 0.18386282
000080 4d 15 d6 be e3 6f 15 3e 45 72 f0 be bd 77 e2 3e
       -0.41813126 0.14593463 -0.4696218 0.44231978
000090 7e 2f 50 bd 9d 7b 6b be 18 30 2d be 79 91 c6 be
       -0.050826542 -0.22996373 -0.16912878 -0.38782862
0000a0 05 ad 1f bf 48 13 16 be e4 d1 1e bf 6a 48 b2 bc
       -0.6237338 -0.14655793 -0.6203902 -0.021763045
0000b0 77 97 26 3e 6e 53 f1 3d 8c f1 13 bf eb 0f 77 be
       0.16268717 0.11783491 -0.57790446 -0.24127166
0000c0 5f 8a 06 bf 95 19 36 be f3 d2 85 bd 75 a1 a0 bd
       -0.5255489 -0.17783196 -0.06534376 -0.078432955
0000d0 47 68 8c 3e 8a ed 27 be 69 e3 e2 be 42 f7 1b be
       0.27423307 -0.16399208 -0.44314125 -0.1523104
0000e0 6c 56 2f be 61 77 97 be c5 bd 0b bf 6a 4d c8 3e
       -0.17122811 -0.29583266 -0.5458644 0.39121562
0000f0 18 a9 53 3e 7f 28 46 bc d2 67 b3 be 1d c7 f5 be
       0.20669973 -0.012094616 -0.35040146 -0.48003474
000100 e9 63 97 bd 3f 9b be be 3d 6f da be 3b 5d c0 3e
       -0.07392103 -0.37227818 -0.42662993 0.3757113
000110 4a a6 ac be 13 8b 90 be 2c 6e bf be 88 04 7c bf
       -0.33720618 -0.28231105 -0.37388742 -0.98444414
000120 6f 29 21 be 71 5d a9 be ea ba b8 bd a0 ba 7e bb
       -0.15738462 -0.33079103 -0.09020026 -0.0038868561
000130 98 97 91 be 99 37 7e bb f1 01 11 bd e2 6b 2c bd
       -0.2843597 -0.0038790463 -0.035402242 -0.042095073
000140 c0 fa 4a be 06 ba 77 be 45 86 86 be 72 53 f9 bd
       -0.19822216 -0.24192056 -0.26274315 -0.12174119
000150 41 ad c4 be e5 69 c9 be 46 75 02 bf 6c 83 3d bd
       -0.38413432 -0.39338604 -0.50960195 -0.04626791
000160 a3 9d 56 3d 14 02 b4 be 5f 64 88 be 0a 76 29 be
       0.052396428 -0.35157835 -0.26639077 -0.16548935
000170 dd 3e 33 3c 15 f7 64 3d fe ad 7b be 93 df 4a 3c
       0.010940281 0.0558997 -0.24578092 0.012382406
000180 7b 16 46 be d4 fb 4f 3b a9 d4 98 be 28 2f b1 bd
       -0.19344513 0.0031735795 -0.29849747 -0.086515725
000190 2a ec 5e be 4a c8 c1 bc a0 65 55 bd c5 36 07 3e
       -0.21769777 -0.023655076 -0.05209887 0.13204487
0001a0 de 91 9d be 7b 5e 51 3e 6f 2b 16 3d 2c 58 21 3d
       -0.3077535 0.20446198 0.036662515 0.039390728
0001b0 7f 2e 2d be 8c a7 8e be ed ec e0 bd ed 5f 94 3d
       -0.16912268 -0.27862203 -0.1098269 0.07244859
0001c0 94 ad 49 be 39 36 dc 3d 05 3d 60 bd e3 9d 8c be
       -0.19695121 0.1075253 -0.054745693 -0.27464208
0001d0 fd e4 44 be 7b 4d 69 bf ee 79 3f 3c 5f 83 72 3c
       -0.19227977 -0.9113385 0.011686785 0.014801829
0001e0 a0 6a b0 3d 45 50 b3 bd 54 0b 91 be 27 aa b0 be
       0.08614087 -0.087555446 -0.28328955 -0.34504816
0001f0 f9 4d ca 3c b7 68 75 3e 93 33 9a bd 3b 13 d8 bb
       0.024695383 0.23965727 -0.07529368 -0.0065940893
000200 07 2e 4c be e3 75 04 bc fb ce be 3d 41 3e f8 bd
       -0.19939433 -0.008084747 0.09316822 -0.12121249
000210 a1 3d 0e bd 71 59 4b be 5d db 32 be ca 47 24 be
       -0.034726743 -0.19858338 -0.17466493 -0.1604301
000220 9b cd 0e bb 8b 62 e9 be d0 c4 01 bf 57 b1 0d be
       -0.002179003 -0.45582995 -0.5069094 -0.13837181
000230 65 21 20 be 0d bf 6d be b0 7a 9c 3d 52 c1 09 bc
       -0.15637739 -0.23217411 0.07640588 -0.008407908
000240 9f a9 2d bd 9e 93 77 be 44 95 f3 be 04 7e 8a bc
       -0.04239809 -0.24177405 -0.47574818 -0.016905792
000250 46 d8 1d be be e0 0b be 5b 40 b2 bd 06 5d ba be
       -0.15414533 -0.13659951 -0.08703681 -0.36399096
000260 61 92 bb bb 4c ee f3 3d 11 08 00 bd 53 10 44 be
       -0.005724237 0.11910686 -0.031257693 -0.19146852
000270 b7 6f b5 3d 76 f7 89 be 37 0d 74 be 0e 3d 98 3d
       0.088591985 -0.2694661 -0.23833166 0.0743352
000280 88 13 1e be 8e d4 1c bd 8b 0c 6d bd 23 9e ac 3d
       -0.15437138 -0.038288645 -0.05787329 0.084286
000290 fd 14 2b bb 15 19 6c bd d7 27 09 be 0d 2b 1c be
       -0.002610504 -0.057641108 -0.13394104 -0.15250798
0002a0 bf 4c 3d 3e 2f 1b e2 bc b3 a1 4a bd c9 c8 a6 3c
       0.18486308 -0.027600853 -0.049470615 0.020359414
0002b0 bc b3 02 3d 0a d9 e5 bd d7 76 06 3d 20 90 3b be
       0.03190969 -0.112230375 0.03282818 -0.18316698
0002c0 cd 82 6c bd 0d 33 6d be bf 98 e1 3c 2e a0 9a be
       -0.05774193 -0.23164006 0.027538655 -0.30200332
0002d0 79 4f 8d 3c 1b 08 27 bd be 49 ea be 78 35 5d be
       0.01724981 -0.040779214 -0.45759386 -0.21602428
0002e0 f1 63 aa be 2a ce d2 bd 7e 60 95 be 60 51 ea bd
       -0.33279374 -0.10293229 -0.2917518 -0.11441302
0002f0 07 17 1c 3e aa ed e1 bc 11 bb d1 be 1d c1 8c 3d
       0.15243159 -0.027579147 -0.40963033 0.06872771
000300 64 fa 81 be 3a 8e 4a 3d f5 a8 c5 be 9d b5 0a be
       -0.25386345 0.049452044 -0.38605466 -0.13545842
000310 d4 e4 74 be 77 ca 58 be 44 3c a2 be 3f 1c 12 bd
       -0.23915416 -0.21170984 -0.31686604 -0.03567147
000320 c8 5f 24 3e 50 0b 06 bd 80 20 0e be bf df fe be
       0.16052163 -0.032725632 -0.13879585 -0.4978008
000330 68 19 0d 3e f0 f3 d5 be 89 50 ae bd 7b f8 4e 3d
       0.13779223 -0.41787672 -0.085114546 0.05052994
000340 ed b4 19 be 45 1e df bd d6 7f 2b bd e8 49 7a be
       -0.15010424 -0.10894445 -0.04186996 -0.24442255
000350 ae bd 8f be d7 26 c5 be a7 09 5b be 05 7f ef be
       -0.28074402 -0.38506195 -0.21390401 -0.46776596
000360 18 f7 ae bc 35 90 32 be 3c 20 9d bd 2b 09 17 be
       -0.021358058 -0.17437823 -0.07672164 -0.14749591
000370 d7 0a 87 bd fc ed 41 3c a5 bb 93 bd 71 8c 04 3d
       -0.065938644 0.011836525 -0.07213525 0.032360498
000380 30 51 41 be c4 ff a7 3c 17 90 96 3d 82 c5 66 3d
       -0.18878627 0.0205077 0.07351702 0.056340702
000390 aa 29 a1 be eb 48 96 bd 2c ec 59 be 24 10 96 bc
       -0.314771 -0.07338127 -0.21281499 -0.018318243
0003a0 68 c0 9c be 8d 0c 4d be 94 8e 3f 3e a8 b8 85 be
       -0.30615544 -0.20024319 0.18706733 -0.26117444
0003b0 a3 8f 77 be fc 77 13 3e 8a 3a 84 bd 0a e6 df be
       -0.24175887 0.14401239 -0.06456478 -0.43730193
0003c0 35 87 f7 be 2a a9 aa be d3 dd 4a 3d b8 1e e3 3d
       -0.48345342 -0.33332187 0.049527954 0.110898435
0003d0 f0 77 c9 bc 3e 9b 72 3d 64 ed 86 3d 58 88 d8 3c
       -0.024593323 0.05923008 0.065882474 0.026432201
0003e0 c3 e4 29 3c 19 3d ec 3c 6e a3 5e be 36 d9 08 bc
       0.010369482 0.028837727 -0.21742031 -0.008352568
0003f0 8a f2 a0 bc e5 60 04 3d aa 40 c7 be 09 0e 70 be
       -0.019646902 0.03231897 -0.38916522 -0.23442854

bias f4 [9]
000000 bf b0 12 3e 90 05 26 3d 89 a7 6c bd 72 1a d2 bd
       0.14325236 0.04053265 -0.05777696 -0.1025895
000010 a0 33 46 bd 21 e0 a6 bd 4a 52 c0 bd 38 14 5b 3d
       -0.048389077 -0.08148218 -0.093906954 0.05348608
000020 ec 3b 19 3e
       0.14964265
