models/classifier_143features_100x100x100_0.001lr_50e_0.5dropout_64bs.pth (torch_old, 146616 bytes, 8 tensors)

weight f4 [100, 143]
00000000: fd6f 44bd 3faf a3be eead 8a3e d83d 453b
00000010: 5b2e 53be e80f 293e be42 223d cf2f 80bd
00000020: cabf 3fbe 7795 89bd f7a9 cabd a2a1 523d
00000030: 464b 2dbe b18b c5bb 99df b03c e9ea d93c
00000040: f31d 08be 5965 bb3c 5326 d63d c16a 383e
00000050: e9e8 b83d 87ca 9c3c f712 2abd 686b 993d
00000060: 90ac 09bd 6102 233e d0e9 55bd 912c 963d
00000070: 5542 e33d 9972 1d3d a002 023d efc3 bb3d
00000080: 363c e8bd c574 a7bd 80ac 4a3e aff4 a53d
00000090: bd7c 41be 76e2 2f3e 95fa 0ebe 1521 b43e
000000a0: e484 983e 910c 12be 37d7 ddbd 3939 9a3d
000000b0: 9923 153d 9534 ef3d 62c9 0cbe 6b75 85bd
000000c0: a355 ff3c 37b5 62bd 766b a1be 7988 d93c
000000d0: 496a 87bd a6dc ce3c 507b a1be a761 6dbe
000000e0: f2fb f4bc ef91 99bc b3a7 77be 0641 66be
000000f0: 1c06 12bd 4e34 e73d 6468 14be 2c48 adba
00000100: 0457 11bd c09e f63d e1b3 4f3e 84c3 19be
00000110: 3167 45bd a221 0a3f 04bd 883d 5b32 e1bb
00000120: 2624 2a3e 44c2 c2bd 242d 9b3e e80a 14bd
00000130: 5445 493d c35f ac3c 027e b53d bb80 cd3d
00000140: d22a 9f3d d703 8d3d 88d3 623d ec2c 753b
00000150: 6388 033e 2120 123e d07c 4bbc d942 e53c
00000160: 3915 003d 7b69 86bc 5a5d d7bd 8b82 a63c
00000170: aafb 81bc c170 163e a510 60bd ef2d e03b
00000180: 5a11 b53d 13e8 b83d cf9c 193e c94a b1bf
00000190: c361 6ebb 5d8d 8dbd 8d86 933e 41da 013e
000001a0: 33e0 fd3c 99b1 0abf 80cc 553c 2bea a93d
000001b0: a422 1d3d 8c9c 83bd d268 cc3b dc4c cc3d
000001c0: 9171 183d 3c7e 44bc a9e6 98bd ef1c 9fbe
000001d0: 0e5f e9bd 1656 153c 7534 76bd a52e 993d
000001e0: 80a0 2d3e 3e87 bb3d dfb5 cebe cf9f af3e
000001f0: ae41 96bd 7d62 41be f4fd 8abe 2d74 63bd
00000200: a7e4 2c3d b893 8d3e 77d7 e13c bc6e 1c3e
00000210: 0237 923e ae50 eb3d c706 c23e d4ed b83c
00000220: d372 fb3d aa93 153f 959b 03bd b4ad de3e
00000230: 8935 953e b21f 89be 9681 6e3d 6be5 8c3c
00000240: b00b 8cbe 00ef 80bb 697d 8c3d 4130 3f3e
00000250: a4dd 183e d93e f13d 7f07 1cbe d6fd 9c3e
00000260: ad51 123e ad91 9b3e c0b6 c5be 841d 813e
00000270: 2713 bcbe 4b84 4d3e d525 c8be 3df2 ae3d
00000280: 65af 913d 52b0 473e af40 543d c547 23bd
00000290: 5edb 3a3d ebd9 a1be 51b2 abbe b06b a1be
000002a0: e4fe a6be b76c 1bbd 0c83 c5bd e997 c3be
000002b0: 86eb 84be 6963 a1be ebe4 423e 3f84 493a
000002c0: a99b bf3c cf6a 30be f048 343c 9a8d 133d
000002d0: d607 45be bbc8 80bd aa97 423d 7f4d 003e
000002e0: 6fb5 bc3c bd11 413d 6648 87bd 5840 a8bb
000002f0: ac5d cfbd 9ee6 2b3e e780 b13d 5617 5b3d
00000300: d065 09be fceb 433e 3df1 0e3e a77a b03d
00000310: 7970 973b 613a f9be d54d 0dbe a196 da3d
00000320: 3086 df3d c403 37be 1084 193e 6b2a 00be
00000330: 09c8 893e c514 e43d 22a6 973d bce4 58bd
00000340: 9be2 f2bc d509 20bd 8d67 943c d032 11be
00000350: b6be ef3e d5a8 5cbe 0002 fd3b b687 46be
00000360: 8f57 a43d 2b2a 103e 653f ce3c 8441 4c3d
00000370: d689 7cbc f3fd 033d 8622 f93d 9d6d 2f3d
00000380: ba4a 413e da15 82bc 1971 a13d 7fe8 f03c
00000390: 6448 073e 6ee6 e33d bb53 ba3d 29e7 1abc
000003a0: 292b bd3d d364 333e 474f 1d3e 3528 073d
000003b0: a5f6 643e ca73 ae3c 68ee 893d 047d 2abc
000003c0: 4b61 f43c 5aa9 283e de56 aebf dbba 803d
000003d0: 6e21 78bc e307 e53c f8a5 35be 49e1 10bc
000003e0: eb64 b4be ce76 1c3e dd94 273e 167f 31be
000003f0: 7c1a cf3e 744b 023e 3e96 04bc ed3b ec3d
-0.047958363 -0.3196964 0.27085823 0.0030096676 -0.20623152 0.16509974 0.03961443 -0.06259119
-0.18725505 -0.06717961 -0.098956995 0.051423676 -0.16923246 -0.0060286154 0.021590995 0.026601272
-0.13292675 0.022875475 0.104565285 0.18009473 0.09028799 0.019139541 -0.041521993 0.07491189
-0.033611834 0.15918876 -0.052224934 0.07332719 0.11096636 0.038439367 0.031740785 0.09168231
-0.11339609 -0.08176569 0.19792366 0.0810331 -0.1889524 0.17176232 -0.13962777 0.3518149
0.29788888 -0.14262606 -0.108320646 0.075304456 0.0364109 0.11679951 -0.13748696 -0.06516536
0.031168764 -0.0553486 -0.315273 0.026554333 -0.06612069 0.025251698 -0.31539392 -0.23181783
-0.029905293 -0.018746344 -0.24185066 -0.22485742 -0.035650358 0.11289273 -0.14492947 -0.0013220361
-0.035483375 0.12041998 0.20283462 -0.1501599 -0.048194114 0.5395757 0.06676677 -0.006872458
0.16615352 -0.095097095 0.30307877 -0.036143214 0.049138382 0.021041756 0.08861925 0.10034319
0.07771839 0.06885498 0.055377513 0.0037410809 0.12844996 0.14270069 -0.012419894 0.027985977
0.03127024 -0.016407719 -0.10515852 0.02032592 -0.015867073 0.1469145 -0.054703373 0.006841413
0.088412 0.0902864 0.15001224 -1.3850948 -0.0036374188 -0.069117285 0.28813592 0.12680914
0.030990696 -0.5417724 0.013049245 0.08296617 0.038363114 -0.06426343 0.0062380815 0.09975597
0.03721768 -0.011992987 -0.0746587 -0.31076762 -0.11395083 0.009114763 -0.06010862 0.074796
0.16955757 0.09156655 -0.40373132 0.34301612 -0.07336746 -0.18885227 -0.27146876 -0.055530716
0.042210247 0.27651763 0.027568562 0.15276617 0.28557593 0.11489998 0.37895796 0.022574343
0.1227776 0.5842844 -0.032130796 0.434919 0.29142407 -0.26781994 0.05822905 0.017199239
-0.27352667 -0.003934741 0.068598576 0.18670751 0.14928299 0.11779565 -0.15237235 0.3066241
0.1428897 0.3038458 -0.3861599 0.2521783 -0.36733362 0.20069997 -0.39091364 0.08542297
0.07113532 0.19500855 0.0518195 -0.039863367 0.04561936 -0.3161157 -0.33534482 -0.31527472
-0.3261634 -0.037945475 -0.09644136 -0.38201836 -0.2596094 -0.31521156 0.19032638 0.00076872477
0.023389654 -0.17228244 0.011003718 0.036023714 -0.1924127 -0.06288286 0.04750792 0.12529562
0.023035733 0.047136057 -0.06605606 -0.0051346235 -0.10125288 0.16787192 0.08667164 0.05348905
-0.13417745 0.1913299 0.13959213 0.08617144 0.004621562 -0.48677352 -0.13799222 0.106732614
0.10914266 -0.1787253 0.14991784 -0.12516181 0.26910427 0.11136774 0.07404734 -0.052952513
-0.02964907 -0.039071877 0.018115783 -0.1417954 0.46825188 -0.2154878 0.0077211857 -0.19387707
0.08024513 0.14078586 0.025176713 0.049867168 -0.015413722 0.032224607 0.12164788 0.042829145
0.18876162 -0.01587956 0.078829 0.029407738 0.13211209 0.11127935 0.090980016 -0.009454527
0.09236748 0.1751893 0.15362273 0.03299733 0.22359712 0.021295447 0.067349255 -0.010405783
0.02983155 0.16470852 -1.362026 0.0628564 -0.015144689 0.027957862 -0.17739093 -0.008842775
-0.35233244 0.15279695 0.1636538 -0.17333636 0.40449893 0.12724096 -0.008092461 0.115348674

bias f4 [100]
00000000: 7c1f a0be 6590 8cbe 933a db3c 815e f0be
00000010: 7c51 28be 7846 51be 72c8 12bf e72f 423d
00000020: 44d1 8fbe 5399 1abf 0050 edbe 15e4 e9be
00000030: 9562 c4be d9a8 febe 8035 7bbe 1217 c0be
00000040: 39c5 2ebd e180 8dbf 4b83 5fbe 46e6 d1be
00000050: 377d dbbe 1946 babe 985f 0dbe 9d8a 47bf
00000060: b439 94be 511b cbbc b3ec 32be 9402 d0be
00000070: 52a5 0ebf aef8 bcbe bc0f eebe 13fc 01bf
00000080: 3ba1 b6be f8c6 84be 9dec eabe d15a 10be
00000090: ce90 b3be 8be5 12be 78b0 96be 3257 4bbe
000000a0: 8f69 42bf b08d debc 6906 74bd 423e 28be
000000b0: 0d94 cebe 0af6 fdbe 3110 a5be bf53 c1be
000000c0: 929b cbbe ec5e b6be 7f20 0bbf 3b87 9f3d
000000d0: 5111 0bbf 5dbe e4be 5989 0dbe 7701 acbe
000000e0: 1d9c f4be 46f3 c6bc 9891 76be 4e21 cb3d
000000f0: 2939 e1be ea12 88bd 8a0e febe 1616 3dbf
00000100: c212 20bf 1cb7 d4be 0a05 96be baf0 afbe
00000110: 93a6 f7be 7453 30be 2b54 bdbe 90ba cfbe
00000120: 07f0 c4be 1d3d bbbe c0c0 18bf 9bcf a73d
00000130: f8ac b2be 55ae 68be ab97 a0be 9d74 cabe
00000140: 1d0a f3be 94e0 99be 8ba6 90be 9c8d bdbe
00000150: 90ad 0abd e4cf e5be c774 f1be f298 d9be
00000160: 4a4c 4bbe 6038 33bf 1919 f3be ac5e bfbe
00000170: 1fd0 f5be 0ac4 92be d3a5 8bbe 96c1 a1be
00000180: a07e d4be e9a8 bfbe e20b 17bf e1ad d7be
-0.3127402 -0.27453914 0.026761329 -0.469471 -0.16437334 -0.20437038 -0.57337105 0.047408964
-0.28089345 -0.60390204 -0.46350098 -0.45681825 -0.38356462 -0.49738196 -0.24532127 -0.375176
-0.042668555 -1.1054956 -0.21827428 -0.40995997 -0.4286897 -0.36381605 -0.13805997 -0.7794588
-0.28950274 -0.024793299 -0.17473106 -0.40626967 -0.5572101 -0.36908478 -0.4649638 -0.5077526
-0.35669884 -0.2593305 -0.45883647 -0.14097144 -0.35071415 -0.14345376 -0.2943151 -0.19857481
-0.7594232 -0.027167171 -0.059576426 -0.1643 -0.4034733 -0.49601775 -0.32238916 -0.37759206
-0.39767128 -0.35619295 -0.5434646 0.07789465 -0.543233 -0.44676486 -0.13821925 -0.33594868
-0.47775355 -0.024285924 -0.24078977 0.09918462 -0.43988922 -0.066442326 -0.49620467 -0.73861825
-0.6252862 -0.4154595 -0.2930072 -0.34363347 -0.48369274 -0.17219335 -0.36978278 -0.40572023
-0.38464376 -0.36570063 -0.59669113 0.081938945 -0.3489759 -0.22722752 -0.31365713 -0.39542094
-0.47468653 -0.30054152 -0.28252062 -0.37022102 -0.03385693 -0.4488517 -0.47159407 -0.424995
-0.1985332 -0.70007896 -0.47480085 -0.37376916 -0.48010346 -0.2866519 -0.2727495 -0.31593007
-0.41502857 -0.37433556 -0.59002507 -0.42124847

weight f4 [100, 100]
00000000: 0157 f53c 4d7d 293d 11d1 d53d ab89 9bbe
00000010: 5a66 913d 17dc 7fbd 5039 e23b 0ac6 12bc
00000020: 5207 0bbe deea 6c3e aab3 43be 6207 96be
00000030: b500 02be cf47 b2be 740a 263e 919c 333e
00000040: f645 4d3d ca98 b5bd ec95 77be b4e1 ddbe
00000050: b9db adbe 9fd7 99be 8d60 e83d d2d3 fdbd
00000060: 1377 4b3d eb87 23be adf2 b93d e077 d1be
00000070: 5cf0 49be 26e5 34be a600 8ebe 0d8d ebbe
00000080: 0e57 bebb 90c9 fb3c 20d8 45be 11f7 20be
00000090: 3594 5c3c 8b26 0abe d82a 6b3d 814d 70be
000000a0: 7995 c53d 7e3d a73d 7ee4 c33d f27f 573d
000000b0: 0f6a e93d b124 923c 58d6 c3bd 3536 32be
000000c0: 660e 35be 828a 01be 8db9 1a3d 1d8d 7dbd
000000d0: 95a7 603e b2d0 2bbe 393c 033e 7c00 0dbe
000000e0: 02b5 8bbe 0e12 c13d 570f 92bc 9469 b53d
000000f0: 35c0 833e 130d f93d cae6 9cbe 56bb ef3d
00000100: a3ab 66be 277a a4bd 801d 72bd 27d1 423e
00000110: 01c6 84be 6aed 23bd d019 6fbd bd54 f4bc
00000120: ddaf 0d3d e1d5 243e 5036 b63d 6944 cbbd
00000130: 2633 0abe 1197 263e 5317 a1bd 0cd9 94bd
00000140: fd3b aebe cad6 13bc adc0 a8bd 045b 1bbe
00000150: 86c7 9a3c b68d 21be dd5d d4bd bf06 22bd
00000160: 214b 313d 8985 073e ba33 7fbe a7c1 403e
00000170: 1ff6 81be 99d3 16be f69b 623c 92fe 343c
00000180: 21d8 a6be b1dc 00be ba6c a93d d1ab 1cbd
00000190: 12d6 b6bc 3794 02be 5564 923d ad12 98bd
000001a0: 07ff 16be eecd 82be 7c7d 00bf 1c3b 65bd
000001b0: 3d16 c3bd 8b33 47be 9ee0 8fbe 8976 593e
000001c0: ad29 753b bf4e 533e d463 433e e064 36be
000001d0: 8bda 5abe 38bf c5bd 589a 87be 1c50 b9bd
000001e0: 0480 113e fc38 d53d 8515 07ba 91a1 26be
000001f0: 8286 87bd c077 c6bd f992 a7be 4ba2 8e3e
00000200: 8c2f 05be 720f a8bd 2473 e53e c4f6 313e
00000210: 79da 913c 61c4 94be f5a6 06bc 9857 1ebf
00000220: 73f7 c5be a032 a9be 3676 863d 9688 8bbd
00000230: 135e 0bbe 3ea9 9bbe e381 1fbf 73d8 90be
00000240: fb20 dfbc 1178 0a3c 4dae d23d 95be 2d3d
00000250: 36fa 183e 892b 7cbd cdde f5be cc32 a4be
00000260: 4bef 94be 3245 d0bd 1c69 c23d ac63 e33a
00000270: 042a 3dbe c6d6 553d 4838 343e c894 1bbe
00000280: 6b89 abbe 7625 e23d 72a8 8b3e 42fd 513c
00000290: 2a0b 673d 9d73 8dbe bfd6 7abe 5e04 6b3e
000002a0: 0882 8b3d 45db ebbc bfb1 9abe e28c a1be
000002b0: 48f2 eebd 94e3 253d 66ae c8be 4d01 01be
000002c0: 6f5b 7d3e 160f 9b3c 83ad 053e e08a aebe
000002d0: 4470 9cbd bfaf b43d 1730 44be ae1e fd3d
000002e0: c0af 6dbe 6841 bebe 0c5a 76be af41 abbe
000002f0: 869f d4bd 5979 97be c332 333e 5fe0 89be
00000300: eefc 0a3e 3315 8b3e ea4d af3d a162 73be
00000310: 3a63 23be fb63 33be c3a8 65be 84b3 073e
00000320: 9678 bebe 00ca 1bbe cf27 1fbf e840 43be
00000330: 9033 123d e28d 173e 9efd 983d 2259 44bf
00000340: f64f f4bd f601 2cbe eb21 f2bd 036f 7ebe
00000350: 83b1 ffbd 33c8 dabe d85c 46bb 187a 00be
00000360: d3b4 bfbc e5ee 123d 1a5c acbd 2bee b7be
00000370: 2c09 78be 8205 bebe abb2 08bf 09a9 063e
00000380: 20b1 2abf 3a4d 61bd 1f15 593d 3393 0bbe
00000390: dc86 8dbe 72d4 fbbe 8050 2bbe 359e dfbd
000003a0: f5f9 5fbe 2aca c23d 36bb 90bd 1e57 7cbd
000003b0: 9ba7 3e3e 61b3 dabb 3409 99be 8853 4ebd
000003c0: c994 a5bd 3f78 e3bd a4f1 873d 5d6c c4bd
000003d0: aad9 3a3c 8158 58be a940 4bbe f118 00bf
000003e0: 9574 cdbe af8e 653d 7b1c 01bc eaee 853d
000003f0: 3216 35be 6252 0dbe 6bfc 1abe db67 0dbf
0.029948713 0.04137926 0.10440267 -0.3037847 0.070996 -0.062465753 0.006903805 -0.008958349
-0.13577011 0.2313647 -0.19111505 -0.29302508 -0.12695582 -0.3482041 0.16214925 0.17540194
0.050115548 -0.08867033 -0.24178284 -0.4333626 -0.33956698 -0.30047318 0.113465406 -0.12393917
0.049674105 -0.15969817 0.0907949 -0.4091177 -0.19720596 -0.17665538 -0.2773487 -0.4600605
-0.0058087176 0.03073576 -0.19320726 -0.15719248 0.01346307 -0.13491265 0.057413906 -0.23467065
0.0964765 0.081660256 0.09565066 0.052612253 0.11397182 0.017839761 -0.09562367 -0.17403491
-0.17681274 -0.12650493 0.03777461 -0.061902154 0.21938927 -0.1677883 0.12815942 -0.13769716
-0.27286536 0.09427272 -0.01782958 0.08858028 0.2573258 0.12160697 -0.30644828 0.11705653
-0.22526412 -0.08031111 -0.059110165 0.19025098 -0.25932315 -0.040021338 -0.058374226 -0.029825563
0.034591544 0.16097213 0.08897078 -0.099251576 -0.13496074 0.16268565 -0.07865777 -0.07267961
-0.34030142 -0.009023378 -0.08239875 -0.15171438 0.018893968 -0.15776715 -0.103694655 -0.039557215
0.04328454 0.13234533 -0.24922076 0.18823873 -0.25383088 -0.14729156 0.013831129 0.011047022
-0.32586768 -0.12584187 0.08272691 -0.038249794 -0.022318874 -0.12751852 0.07148043 -0.07425437
-0.14745723 -0.25547737 -0.50191474 -0.055964574 -0.09525726 -0.19453256 -0.28101057 0.21236624
0.0037408874 0.20635508 0.1908105 -0.17811918 -0.2137243 -0.09655613 -0.26484942 -0.09048483
0.1420899 0.104112595 -0.0005153048 -0.1627257 -0.06617452 -0.09690809 -0.3272932 0.27858195
-0.13006419 -0.08206071 0.44814408 0.1737929 0.017804371 -0.29056075 -0.008218517 -0.6185241
-0.3866535 -0.33046436 0.06565516 -0.06813161 -0.13610105 -0.3040256 -0.62307566 -0.28290138
-0.027237406 0.008451478 0.102871515 0.04241808 0.14939198 -0.061564956 -0.48021546 -0.32070005
-0.29088816 -0.10169448 0.09492704 0.001734843 -0.18473059 0.052206777 0.17599595 -0.15193474
-0.3350328 0.11042301 0.2727695 0.012816729 0.05640713 -0.27627268 -0.24495982 0.22950885
0.06811911 -0.02879108 -0.30213735 -0.31552798 -0.11667305 0.04050024 -0.39195555 -0.12598152
0.2474191 0.018928092 0.1305447 -0.34090328 -0.076386005 0.088225834 -0.1915897 0.12359367
-0.23211575 -0.37159276 -0.24057788 -0.3344855 -0.10381989 -0.29584768 0.17499833 -0.26928994
0.13573048 0.2716461 0.08559783 -0.23768093 -0.1595582 -0.17518608 -0.22427659 0.13252074
-0.37201375 -0.15213776 -0.6217012 -0.19067729 0.035693705 0.14800218 0.07470249 -0.76698506
-0.11929314 -0.16797623 -0.118228756 -0.24847035 -0.124850295 -0.42730865 -0.0030267742 -0.12546575
-0.023401653 0.03587236 -0.084160045 -0.35923895 -0.24222249 -0.37113577 -0.53397626 0.1315042
-0.6667652 -0.05500529 0.05299866 -0.13630371 -0.27641952 -0.4918552 -0.16729927 -0.109188475
-0.21872695 0.09511216 -0.07066958 -0.06160652 0.18618624 -0.0066742157 -0.29889834 -0.05037263
-0.08085019 -0.111069195 0.06637886 -0.09590981 0.011404434 -0.21127512 -0.19848885 -0.5003806
-0.40128008 0.056044277 -0.007880325 0.0653971 -0.17684248 -0.13800958 -0.15135352 -0.55236596

bias f4 [100]
00000000: 85b5 273e 31ea 8e3d aaa1 483e b9ac 8dbf
00000010: 10f7 313e b8fb 033e 298b 4d3e bf8a 3fbe
00000020: 788d be3d 00f6 363e 42e9 b2be fe85 433e
00000030: b261 69be 2ef4 153e 23e7 85bf e413 073e
00000040: 1f51 86bc fba9 cebe d039 5d3e 5232 223e
00000050: 3bc5 0c3e 2dc5 fb3d f823 033e 8c6d 92bf
00000060: 04e1 d13d ed67 74bf 01c9 233e 7fd6 02bf
00000070: 1205 a63c 555f 2c3e cb42 da3d 6e5d 73bf
00000080: 901d 313e d564 f83d 14e0 27bf a938 9a3d
00000090: 76f1 6ebe 414e 443b f811 c53d e89c 4e3d
000000a0: 3e3e 293e f542 923d 9a70 c53d 8bdf 8d3d
000000b0: 88e6 44bf 993b 55be 781f 093e 3b28 21bf
000000c0: 1d35 92bf 88bd 2d3e 048b a8bc 3f58 463e
000000d0: 386b 5abd 64d2 303e d1fc c73d 26a6 843e
000000e0: 2fde a6bf 4848 623e 3e9b 50be 1028 b33d
000000f0: 434e ff3d 672e 3b3d 700f 753e 78bc b8be
00000100: 56ed 043e 9ce8 94bf 4bd0 07bd a8aa 89be
00000110: bfba 613d 9a4d 9f3d 4673 50bf 1125 573d
00000120: ea99 de3d 1379 3fbe 80e9 a6be 318a 1c3d
00000130: c0c8 4b3e 5f15 b2bf b50b 703c 53e9 293e
00000140: fda6 713d 6f87 12bd 23dd 183d 1bf3 753d
00000150: ca57 d33d e4a2 21be 099c 003e 262e 413e
00000160: dd14 ed3d 03f4 26be 5c66 89bf 1da1 1b3e
00000170: 476a 4d3e 53a1 ef3d ada7 213d 1ea9 c83c
00000180: 2758 acbe b9ae f43c 2062 bebe 5d97 e73c
0.16377838 0.06978262 0.1959292 -1.1068336 0.17379403 0.12888992 0.20072617 -0.18705271
0.09304327 0.17867279 -0.34943587 0.19094083 -0.22791174 0.14643928 -1.0461162 0.13191181
-0.016396103 -0.4036406 0.21604085 0.15839508 0.13747112 0.12293468 0.1280669 -1.1439681
0.102479964 -0.9547108 0.15994646 -0.51108545 0.02026609 0.16833241 0.10657271 -0.9506444
0.17296433 0.12128607 -0.6557629 0.07530338 -0.23334298 0.002995387 0.09622568 0.050442606
0.1652765 0.07141677 0.09640618 0.06927403 -0.7691426 -0.20823516 0.1339091 -0.6295201
-1.1422459 0.16966832 -0.0205741 0.193696 -0.053324908 0.17267758 0.09765018 0.2590801
-1.3036555 0.22097886 -0.2037172 0.08747876 0.12466099 0.04569855 0.2393167 -0.3608129
0.12981161 -1.1633487 -0.033157628 -0.26888013 0.055109736 0.07778473 -0.81425893 0.052525584
0.108692005 -0.1869853 -0.3260002 0.038217727 0.19900799 -1.3912772 0.014651229 0.16592912
0.058997143 -0.03577369 0.037320267 0.060046297 0.10319479 -0.15784794 0.12559523 0.1886526
0.11576245 -0.1630402 -1.0734363 0.15198179 0.20060073 0.11700692 0.03946655 0.024494704
-0.33661005 0.02986847 -0.37184238 0.028270418

weight f4 [100, 100]
00000000: 3fbb bb3d 0114 99bd 2892 0a3d c6de acbd
00000010: 9b87 643e 8ccb b13d 5b85 133e 01b7 683d
00000020: 0556 97bd 2396 9c3d 14fe 3cb8 9669 75bd
00000030: bcb0 42be cd9b d93d ce77 083d 8168 37bd
00000040: 0fd5 9f3c b8b6 b1bc 5166 ab3d 0748 d5bc
00000050: 8311 04bd 5edc 113e 8bb6 473e e053 3dbb
00000060: facd 9fbd 2578 3bbd 6180 633d aaff 513d
00000070: 2b24 95be fe48 a53d b5fd cbbd efb7 c4bd
00000080: 89a5 af3d 9176 c73d ff6a 0f3e 9987 d1be
00000090: 122f 363e 6629 63be 31b6 cb3d dcce 5cbe
000000a0: a12d a4bd ae78 d33b d444 873d e70a f43c
000000b0: e0ee 193b 981f 243e ff6d 4b3d 7dcf a8bd
000000c0: 3837 83bd 2d46 393e a94c 75be e21f 893d
000000d0: 7d8a 84bc ccca 1d3e d881 a93d 8d3d 0a3e
000000e0: 514b 4abd 4fd8 73bd 100c c6bc 7b79 0cbe
000000f0: d72a 153e 00d5 a2be 2b83 f6bd c48f 07be
00000100: b970 8abd 9053 f2bc fdc8 3abe 26cd 393e
00000110: 8342 5fbe 67b2 6bbe ce4d bdbd ae3f 86bd
00000120: d1d2 583c 2c4e 573d 1679 9a3e 2e55 01bd
00000130: 3a89 893e 7ba5 873c 7e4b 32be 0676 e8bc
00000140: 25d4 cfbe d774 313d ba3a 89bd 2ea5 09be
00000150: 5a38 86bd 3af0 5b3d 60b4 f83b fb60 9e3d
00000160: 9452 0e3e a7af 13be 0b22 54bc 35b0 12bd
00000170: cd50 7c3d 2014 8fbd 34c6 b8be c626 e1be
00000180: e825 193e bfe6 21bd 175c 3e3e a9ce e5bd
00000190: 1053 34bf f946 923d 4e49 11bf 78a2 84be
000001a0: 4ffb 63bf f036 31bf a84f 4cbf 73ac dcbd
000001b0: 0c2c 06bb 944b e6be ff12 ccbd 1f3a ebbe
000001c0: 5ad8 31bc 6330 9ebe b1f5 ccbe 557c 0b3e
000001d0: eff7 60be b54b 70be c0a0 f7be 6be4 ffbe
000001e0: ec59 463e 54b5 413e aa39 dd3d a64a e0bd
000001f0: 9e41 30bc fb88 f3be e8f1 1bbf 1863 45bd
00000200: 7886 5a3d 4967 a8be f9bb 04be fd43 53be
00000210: 94a8 d4be a759 2dbf c7c0 e43c 0eeb 8a3c
00000220: 8d39 60be b7cd 3b3d ee04 423e 2738 cfbc
00000230: 1a56 2fbf 7de6 63be b376 cebe f9c0 0ebe
00000240: f4ea d5bd 4a61 b5be 6df8 2abf 209b 38be
00000250: a43c 33be 9e5c 21bf 8ac1 bebd af6a 263e
00000260: 5cda 82bb 30b7 22bf 9898 61bf 0aed 2dbf
00000270: 7a55 dbbe fdad 0abf 224f 95bd 8e68 a73d
00000280: 3096 19bf f92e a9bd 1be6 8dbf a8d7 8dbb
00000290: b8e9 e23d 61b0 8ebe c360 0b3d fe21 82be
000002a0: edc1 00be 9982 85be 276b 6dbe 25ea 2b3e
000002b0: 03f3 e1be c5ee adbc 8161 91be 0b0d ee3c
000002c0: 6ee1 87be 9cce 95be 29d0 c43c f24e 2b3e
000002d0: 2d03 a33d a365 e0be 7750 aebe 5341 073c
000002e0: b7c3 9a3d c110 89be 1e25 2bbe 6a90 fdbe
000002f0: 0911 d4be 6580 223e b4c0 f5be b61f 1e3e
00000300: 2964 60bf d21f 073e e54e c23d 31af e53d
00000310: 8732 48be 2da8 62bd c310 10bd 2bfb 363d
00000320: f51c 80bc 3f4a 383e 85ab 0cbf 839b b9bd
00000330: bbff fbbe 35f8 503c ae15 683d b6c0 2ebe
00000340: 4577 593e 9eea 35be 0d15 68bd 3735 52be
00000350: ca32 873d 5e6b c0bd 3c1e 4dbe 0ab6 443d
00000360: 720e f6bd 8002 a5bd b446 b0be 1159 a1bd
00000370: 8f92 033e 3852 913e dc27 733e 63cd 2cbe
00000380: f770 d63d 1307 37bd 49e9 9dbe ffdc d0bd
00000390: 6224 8b3d 017d 25bf 98bb 58be abee 21be
000003a0: 223c aebd df2e 5ebd 0ffb 11be 39c1 ea3d
000003b0: e552 84be 192e 873d 2b3e c33d 3a89 c5bd
000003c0: ae3b 0cbc 3a2d a4bd 24f3 ef3d 621b f6bd
000003d0: b6a1 92be 6119 dabc b4e6 0bbe c238 6fbd
000003e0: aac3 6bbd a1d3 13bf cf2d d33d f514 97be
000003f0: 6b68 8f3e d42f 0cbf 716f 63be 193a 37be
0.09166574 -0.074745186 0.03383079 -0.08440928 0.22317354 0.086814016 0.1440634 0.05681515
-0.07389454 0.07645824 -4.505932e-05 -0.059915148 -0.19012731 0.1062542 0.03331738 -0.044777397
0.019510774 -0.021693572 0.08369125 -0.026035322 -0.032243263 0.1424422 0.19503228 -0.0028889105
-0.07802959 -0.045768876 0.055542354 0.05126921 -0.29129156 0.08070563 -0.099605 -0.09605395
0.08576495 0.097394116 0.1400566 -0.40923765 0.17791393 -0.22183761 0.0994686 -0.21563286
-0.080165155 0.006453595 0.06604925 0.029790355 0.0023488328 0.16027677 0.049665447 -0.082427
-0.064070165 0.18093176 -0.23955025 0.06695534 -0.016179318 0.15409392 0.08276719 0.13500042
-0.049388234 -0.05953246 -0.024175674 -0.13718216 0.14567123 -0.3180313 -0.12036737 -0.13238436
-0.067597814 -0.029580861 -0.18240733 0.18144664 -0.21802716 -0.23017274 -0.09243356 -0.06555115
0.013233856 0.052564785 0.30170506 -0.031575374 0.26862508 0.0165584 -0.1741161 -0.02837659
-0.4059154 0.043324318 -0.06700654 -0.13441917 -0.06553717 0.053695895 0.0075898618 0.07733341
0.13898689 -0.14422475 -0.01294757 -0.035812575 0.061600495 -0.069862604 -0.36088717 -0.43974894
0.14955866 -0.039526697 0.18589817 -0.11221058 -0.70439243 0.07142443 -0.5675248 -0.25905204
-0.8905534 -0.6922445 -0.79809046 -0.107750796 -0.0020473031 -0.44979537 -0.09964561 -0.4594278
-0.010854805 -0.3089629 -0.40031198 0.13621648 -0.21969579 -0.2346638 -0.4836483 -0.49978957
0.1937024 0.18916827 0.10802014 -0.10951738 -0.010757832 -0.47565445 -0.60915995 -0.048190206
0.053350896 -0.328913 -0.12962331 -0.20631404 -0.41534865 -0.67714924 0.027923955 0.016957786
-0.21896954 0.04585048 0.18947193 -0.02529533 -0.68490756 -0.22255893 -0.40324935 -0.139408
-0.104452044 -0.35425788 -0.6678532 -0.18027925 -0.17503601 -0.6303195 -0.093142584 0.16251634
-0.0039933156 -0.6356077 -0.88123465 -0.6793982 -0.4283865 -0.54171735 -0.07290484 0.08174239
-0.5999479 -0.082609124 -1.1085848 -0.0043286867 0.110797346 -0.2786894 0.034027826 -0.2541656
-0.12573977 -0.260762 -0.23185407 0.16788538 -0.44130716 -0.021232018 -0.28394702 0.029058954
-0.26539177 -0.29259193 0.02402504 0.16729334 0.0795959 -0.43827543 -0.34045765 0.008255321
0.07556861 -0.26770595 -0.16713378 -0.49524242 -0.41419247 0.15869291 -0.47998583 0.15441784
-0.8765283 0.13195732 0.09487704 0.11215056 -0.19550525 -0.055336166 -0.035172235 0.044673126
-0.015638808 0.17997073 -0.5494922 -0.09062865 -0.49218544 0.01275449 0.0566613 -0.17065701
0.21236904 -0.1776528 -0.0566607 -0.20528112 0.06601484 -0.09395479 -0.20031065 0.04802517
-0.12014474 -0.080571175 -0.34428942 -0.07878316 0.12848876 0.2838304 0.23745674 -0.16875224
0.10470765 -0.04468448 -0.30842045 -0.10198402 0.06794049 -0.64643866 -0.21165311 -0.15813701
-0.08507563 -0.05424392 -0.14255928 0.114626355 -0.25844494 0.06600589 0.09533342 -0.096453145
-0.008559151 -0.08016439 0.11716297 -0.120169416 -0.28639 -0.02662343 -0.13662225 -0.058403738
-0.057559647 -0.57744795 0.10311472 -0.29508176 0.28009352 -0.5476048 -0.2221048 -0.17893256

bias f4 [100]
00000000: 0c09 f53d 8075 bd3d 0fdb 5e3e 6a1d 673e
00000010: af22 a13d c033 bdbe 682b dcbb 7ed0 c13d
00000020: 8e83 2d3e 1fc5 f5be 2fa2 703d e299 873e
00000030: 6295 173e 7bc0 373e 2db1 e5be ffc5 9c3e
00000040: 1865 263e 17f1 603e 51cc efbe 0240 633e
00000050: 89f0 2c3e 7482 f83d 55ca cabe ecb3 5b3e
00000060: 8443 acbe 4fc3 80be 1937 873e 32cb 3e3d
00000070: abed 3d3e 70e7 223e 92c3 9c3d 55f1 633e
00000080: 8080 8e3e fe98 843c 9ec7 eebe ba01 123e
00000090: 688b 463e deb7 03bf aeb3 833d 2aa6 3a3e
000000a0: af8e cf3d e8cb f63d 5ff7 543e 7909 0c3e
000000b0: fb23 0ebf f4a2 273e 317c 173e 44ec 593d
000000c0: 4c2b 443d 9610 1c3e d14c 4f3c e3ae 473d
000000d0: aa24 153d 9d54 473e 508f b03d f683 763e
000000e0: d73e ea3c 1b35 a3be 52ee ff3d 58d3 753e
000000f0: 0b7e ccbe dbea e43d 5df0 aebe fc11 78be
00000100: 7b6b 12be ddaa 85be 7fe3 5c3e 55d3 703e
00000110: dcd8 af3d 955d 0d3e 0d66 cfbe dd5e 013e
00000120: ee05 1abe 40a1 8b3d f093 2f3e 3950 403e
00000130: 0fb3 da3d 9ebe 703e f8d8 9b3e 9a12 f03d
00000140: ebe7 6abd d548 e13d 8dad 99bc d068 a03e
00000150: 1845 d53c f244 01bf 333e 693e 2eb4 263d
00000160: 8398 613e 652c 453e 5e2c 2b3e 890b ad3d
00000170: f6f2 373e 1f0d a73e 6a17 433e 3229 8e3d
00000180: 68e8 923d 7e36 70be 92f0 263d c5a3 b2bd
0.11964616 0.09250927 0.21763252 0.22569814 0.078679435 -0.36953545 -0.0067190416 0.09463595
0.16944715 -0.48001954 0.05874842 0.2648459 0.14803079 0.17944519 -0.44861737 0.3061981
0.16249502 0.21966968 -0.4683557 0.22192386 0.16888632 0.12134257 -0.39607492 0.21455353
-0.3364526 -0.2514901 0.26409224 0.0465805 0.18547694 0.15908599 0.076544896 0.2226003
0.27832413 0.016186234 -0.4663667 0.14258471 0.19389117 -0.51452434 0.064307556 0.18227449
0.101346366 0.12050611 0.2079749 0.13675489 -0.5552365 0.16370755 0.14793469 0.053203836
0.047892854 0.15240702 0.012652592 0.04875077 0.03641192 0.19465871 0.08621085 0.24073777
0.028594417 -0.31876454 0.12496628 0.24006402 -0.39939913 0.111776076 -0.34167758 -0.2422561
-0.14298813 -0.2610692 0.21571158 0.23518117 0.085862845 0.1380523 -0.40507546 0.12633844
-0.15041324 0.06817865 0.17146277 0.18780603 0.10678684 0.23510215 0.30438972 0.11722298
-0.05735008 0.1100022 -0.018759513 0.31329966 0.026033923 -0.5049583 0.22777633 0.040699176
0.22030835 0.19255216 0.16716143 0.08449466 0.17963776 0.32627198 0.190519 0.06941451
0.07173234 -0.23458287 0.04075677 -0.08722643

weight f4 [9, 100]
00000000: 0828 0cbd a353 813e e9af 313d d3fa 923d
00000010: ed67 a4be f6b1 83be 3cca 8bbe e174 1dbe
00000020: f98b cd3c 3cc4 9dbe 6929 bf3d 3eb0 e93d
00000030: acef 82be b870 1b3e 478e 8dbe 75c2 40be
00000040: 1077 52bd 8ac5 963d 8512 15bf c54b 9bbd
00000050: da4e 0dbe 2f32 4cbe b903 b8be 345d a7bd
00000060: e0bc 5bbe 1851 70be b4c8 27bd c3f9 44be
00000070: b4c9 593e 68ea 353e 1926 2bbe a03f b33d
00000080: de54 5b3d b6b1 92be 2afc f7bd b8a5 99bc
00000090: ab7a 193e 7f2f ccbe b5c7 27be baf6 18be
000000a0: 0f45 2cbe ffb4 7abe 36a0 6e3d 1f28 d4bd
000000b0: 48b2 90be 1929 cebd 5ddd 483d 7dd9 30be
000000c0: e83d 88be 3432 533b 229a 6fbe 0e0c 8fbd
000000d0: b852 80be 6590 e1bb f4e7 77be 37d1 053d
000000e0: 2c6e 86be 3b1f d7be c7e8 44be 80e8 f6bd
000000f0: 19a0 cabe 502d cf3c ea32 1dbf 7009 ebbe
00000100: a1e9 a8bc 113e 9abe 92d7 0f3d 62cc ce3d
00000110: 456b adbd 5efe a23d 6695 3fbe e9c4 f5bd
00000120: 6bd1 afbe 99eb 2fbe 4610 8d3d a33c d6bd
00000130: 4d79 32be 503c d23d 0f4f e2bb 7ec7 70be
00000140: 57a8 8fbe 5f08 cebd 1e51 acbe ca5e 333d
00000150: ed1e 79be 5b22 b0be ff95 2c3e 995f 5ebe
00000160: 59e6 0ebe 834e 05be f9bd fc3d 97d7 5abe
00000170: 9f6f 29be 0539 3fbd ff25 313d a4f7 5fbe
00000180: e285 dfbd 2f33 1cbf 33ff 74be 8ef6 3bbe
00000190: 7170 a5bd 5bf6 773c ee81 88bd 1a1b 2c3d
000001a0: 5992 1cbe 26d0 6bbe 79d5 b0bd d20c a5bc
000001b0: 1a11 6f3d 5bfe 97be 6343 9fbd add3 9cba
000001c0: baac 6fbe 969a febb 278a aebe 2f4c 88bd
000001d0: 9b3b 0b3d 10e0 30bc b8f0 bcbe 144b ddbc
000001e0: 6e1e e7bd 8edb e0bc 5cf7 12bf 9e2d 68be
000001f0: 0746 b4be d4cb c0be b60c 82bd 2d8d 9cbd
00000200: bc38 6bbc 6e21 293d 7992 eebd ea0c 93bc
00000210: 46ea 25bd 90e3 12bd 5be7 5dbe 3e98 6c3d
00000220: 6699 f03d 449f 1abf b787 abbd 7ab7 27bd
00000230: c38e b9bd 67c8 21be 4fab a8bd 43f0 22bd
00000240: f484 bdbe 6b85 83bd a750 6dbd 129e 18be
00000250: ee06 34bd f53c d1bd 3c48 08be 82ae 3abe
00000260: 58a9 f3bd 517f 24bd e539 41bd 75c0 d43c
00000270: 3bc4 d4bd 6ec4 b9be a81a 6dbe 3e60 57bc
00000280: 59b1 a0be 1085 cbbd 0c15 2ebe 00ea d7be
00000290: efa3 83be 9a12 41be cccb 8f3c 57e8 06bd
000002a0: d601 6abb 6410 10bd ea84 99be 8454 113d
000002b0: a4fc 99be 7540 22be eb70 b63c 81a4 ccbc
000002c0: e507 b4bd 1382 1c3c 23b5 5dbd d552 b2bd
000002d0: 120b 37be 1c80 85bd 4c8a 3abe ea7a eb3c
000002e0: 7547 8cbe 2d19 afbe fdd9 9ebc 635b e2bd
000002f0: 3f8e 9fbd 464c 4ebd de6c bcbc 8b47 08bd
00000300: ddf9 70bd 67f0 94bd 4c97 4bbd fe74 bfbd
00000310: 863a 09be e86f d3be 3b1d a8bd 316d b2be
00000320: d9da ee3c 39f6 d1bd 094f 7fbd 4c8e b7bd
00000330: 7fa8 e7bd 6c04 d7be c7c3 76bc c863 67bc
00000340: 3236 a7bc be81 91be 56cf 74be 4602 df3b
00000350: eb69 1ebe 9075 14bc b379 78be a194 96bd
00000360: f216 9bbd f01d 6abd f08d babe f029 51bc
00000370: f290 cdbd 42e9 96bd 9a05 92be f324 84be
00000380: e89c 32be 3e56 89be 65af 5cbd 0220 b5bd
00000390: e848 d8bd 8c62 f8bd 2f20 3ebc e992 0ebd
000003a0: 08c5 77bd 189a 723b 69fb 6fbe ee3b 9d3d
000003b0: 9132 9cbd b5f9 1ebe 9ee7 033a f343 3bbd
000003c0: da80 eabc ae28 13be e5a6 b9bd 94b6 87bb
000003d0: 3016 9dbe 2644 b93b ebd8 b6bd 6066 9fbd
000003e0: 2452 14bd 1d70 77be cded 2dbd 06ee f7bd
000003f0: a8e2 7bbc 5456 63bd 0b13 e7bc 0e1e 473c
-0.034217864 0.25259122 0.04338065 0.07176747 -0.3211054 -0.2572171 -0.2730273 -0.15376617
0.025091158 -0.30813777 0.0933407 0.11410569 -0.2557348 0.15179718 -0.27647611 -0.1882418
-0.051383078 0.07361896 -0.58231384 -0.07582811 -0.1379961 -0.19941019 -0.3594034 -0.08172074
-0.21458769 -0.23468435 -0.04096289 -0.19235902 0.2126835 0.177652 -0.16713752 0.0875237
0.053547733 -0.28651208 -0.12108643 -0.018755779 0.149882 -0.39879987 -0.16384776 -0.14937869
-0.16823219 -0.24483107 0.058258258 -0.10359215 -0.28261018 -0.100664325 0.049039233 -0.17270465
-0.2660973 0.0032225968 -0.23398641 -0.06984721 -0.2506311 -0.0068836682 -0.24209577 0.032670226
-0.2625593 -0.42016014 -0.19229423 -0.120560646 -0.3957527 0.025290161 -0.61405814 -0.45905638
-0.020619215 -0.30125478 0.035117693 0.10097577 -0.08467726 0.07958673 -0.18709335 -0.12000448
-0.3433946 -0.17179717 0.068878695 -0.10460784 -0.17429085 0.1026541 -0.006906397 -0.235136
-0.2805812 -0.100601904 -0.33655638 0.04379157 -0.24328203 -0.3440121 0.16854094 -0.21716155
-0.13955058 -0.13018231 0.12340922 -0.21371303 -0.16546486 -0.046685237 0.043249127 -0.21871811
-0.10914208 -0.610156 -0.23925476 -0.18355772 -0.08078087 0.015134419 -0.06665407 0.042018034
-0.15290202 -0.23028621 -0.08634467 -0.020147715 0.05836592 -0.29686245 -0.07776525 -0.001196494
-0.23405734 -0.007769893 -0.34089777 -0.06655156 0.03399239 -0.010795608 -0.36902404 -0.02701334
-0.11285101 -0.027448442 -0.5740869 -0.22673652 -0.35209677 -0.3765551 -0.06350081 -0.07644115
-0.014356788 0.041291647 -0.11649031 -0.017950494 -0.040506624 -0.03586155 -0.21670286 0.057762377
0.117480084 -0.6039927 -0.08375495 -0.04094646 -0.09060433 -0.15799104 -0.082357995 -0.039779913
-0.37015498 -0.06421932 -0.057938244 -0.14904049 -0.04395192 -0.10216705 -0.13308805 -0.18230632
-0.11897534 -0.04016048 -0.047174353 0.025970677 -0.103889905 -0.36282676 -0.231547 -0.0131455045
-0.31385306 -0.09937489 -0.17000216 -0.42170715 -0.2571101 -0.18854752 0.017553233 -0.03293642
-0.003570666 -0.03517188 -0.29984218 0.03548099 -0.30075562 -0.15844901 0.02227064 -0.024980785
-0.08790568 0.0095524965 -0.054127824 -0.08707205 -0.17875317 -0.065185755 -0.18216819 0.028745133
-0.27398267 -0.34198895 -0.019391054 -0.11052587 -0.07790803 -0.05036571 -0.02300113 -0.033271354
-0.05883204 -0.072724156 -0.049704835 -0.09348486 -0.13401231 -0.41296315 -0.082087 -0.3484893
0.02915709 -0.10252041 -0.062331233 -0.08962688 -0.11311435 -0.4199556 -0.015061325 -0.014122911
-0.020411585 -0.28419298 -0.23907217 0.006805691 -0.15470092 -0.009061232 -0.24265175 -0.073525675
-0.07572736 -0.057157457 -0.36436415 -0.012766346 -0.10037412 -0.07368709 -0.285199 -0.2580944
-0.17442667 -0.2682361 -0.053878207 -0.08843996 -0.10560781 -0.12128171 -0.011604353 -0.034808073
-0.060490638 0.0037018117 -0.23435749 0.07677446 -0.07626832 -0.15524943 0.0005031767 -0.0457191
-0.028625894 -0.14370987 -0.09065036 -0.004141638 -0.3068099 0.005653876 -0.089280926 -0.07783198
-0.036211148 -0.24163862 -0.042463113 -0.12105946 -0.015373863 -0.05550225 -0.028207323 0.012153162

bias f4 [9]
00000000: e688 b6bd cfcf a9bc e111 94bd b4bc e4bd
00000010: b16d 47bd 1f7f 45bd 08ce 6ebc 1e0d 973d
00000020: e002 d73d
-0.0891283 -0.020728974 -0.07229973 -0.11168805 -0.048688594 -0.048216935 -0.014575489 0.07375549
0.10498595
