models/classifier_143features_50x75x25_0.001lr_50e_0.3dropout_64bs_xavier_norm.pth (torch_old, 57215 bytes, 8 tensors)

weight f4 [50, 143]
0	0x3d22e15f	0.039765712
1	0xbdf420b6	-0.119203016
2	0x3d2fee8d	0.04295211
3	0x3c458554	0.012055714
4	0x3e2712b3	0.16315727
5	0x3e087be6	0.13328514
6	0xbdb8bc9c	-0.090203494
7	0x3d9d5277	0.076817445
8	0x3da96e53	0.08272996
9	0xbd0128b6	-0.031532966
10	0xbdd6074a	-0.10450609
11	0xbe135a22	-0.14389852
12	0x3d6419e0	0.05568874
13	0x3e2fb2b2	0.1715801
14	0x3d8f8d11	0.07009328
15	0xbdf2acd4	-0.118493706
16	0xbc7b6825	-0.015344654
17	0x3d6dfb55	0.058101017
18	0x3d35f2c4	0.044420972
19	0x3d463b4b	0.04839639
20	0xbe000092	-0.12500218
21	0xbca91c75	-0.020643452
22	0xbf7f8988	-0.9981923
23	0xbf26bf62	-0.65135777
24	0xbf2014ca	-0.6253172
25	0xbf66c8ca	-0.9015013
26	0xbe34a777	-0.17642008
27	0xbda8cd08	-0.082422316
28	0x3d3a6da8	0.045514733
29	0xbecf92cb	-0.40541682
30	0xbf3a1a67	-0.72696537
31	0x3ea18958	0.31550097
32	0xbe018528	-0.12648451
33	0x3db8fb71	0.09032334
34	0x3db37429	0.0876239
35	0x3e649550	0.22322583
36	0x3e279d5c	0.16368622
37	0xbc356b6e	-0.0110729765
38	0xbde9cb1c	-0.11415693
39	0x3e278e16	0.16362795
40	0xbdbd2f87	-0.09237581
41	0xbeb6f491	-0.35733464
42	0xbe9b8a80	-0.30379105
43	0x3d8cfd38	0.06884235
44	0x3e6b9f5a	0.23010007
45	0x3a9f8bad	0.0012172364
46	0xbdb2e0ae	-0.087342605
47	0x3e513c5b	0.2043318
48	0x3dec7016	0.11544816
49	0x3dc4992c	0.09599528
50	0xbf1ddc1c	-0.61663985
51	0x3d40d259	0.047075603
52	0xbe12c028	-0.14331114
53	0x3e4fc090	0.202883
54	0xbf3def13	-0.74192923
55	0xbd0e908d	-0.034805823
56	0x3e2b796e	0.1674554
57	0x3dd68af7	0.10475724
58	0xbcf65ca1	-0.030073466
59	0xbe8aa138	-0.27076125
60	0x3ce26c38	0.027639493
61	0x3e260849	0.16214098
62	0xbe64f176	-0.22357735
63	0x3d4ce054	0.050018623
64	0x3d4ea81e	0.050453298
65	0x3dcd7f10	0.10034001
66	0x3e15c2d7	0.14625107
67	0x3ade88b2	0.0016977994
68	0xbe8f9d75	-0.28049818
69	0x3f016784	0.5054858
70	0x3dd30a7c	0.10304734
71	0x3e4d613d	0.20056625
72	0xbd769c16	-0.06020745
73	0xbe78d2d0	-0.24299169
74	0xbf20a272	-0.6274787
75	0x3e584b57	0.2112249
76	0x3e39d4be	0.18147561
77	0x3e7df663	0.2480102
78	0x3e530d60	0.20610571
79	0x3c978a45	0.01849855
80	0x3e3e4c77	0.18583857
81	0x3e4925ba	0.19643298
82	0x3e0aeb02	0.13566211
83	0x3e8e81ff	0.27833554
84	0x3e73c77d	0.23806567
85	0xbd48ede4	-0.049054995
86	0xbda11532	-0.07865371
87	0x3dc974e6	0.0983675
88	0x3d8537e2	0.065047994
89	0xbdb06cbd	-0.0861449
90	0xbdae9c2a	-0.0852588
91	0xbc88d169	-0.016701417
92	0x3e0494ba	0.1294736
93	0xbda3e593	-0.08002772
94	0xbd731283	-0.059343826
95	0x3d472776	0.048621617
96	0x3e6e323e	0.23261353
97	0x3e8d15e6	0.2755577
98	0xbdb78dd7	-0.08962601
99	0xbcd8a560	-0.026446044
100	0x3df60d6f	0.12014281
101	0xbe5abb42	-0.21360496
102	0xbe0118cb	-0.12607114
103	0xbd089306	-0.033343337
104	0x3db798d3	0.08964696
105	0xc012ae83	-2.2919014
106	0x3e6518cc	0.2237274
107	0x3e6e992f	0.23300622
108	0x3d0ebdc6	0.03484895
109	0xbe9f154b	-0.31070933
110	0x3e788513	0.24269514
111	0xbc492afd	-0.012278316
112	0x3e969bb8	0.2941568
113	0x3e9b528e	0.30336422
114	0xbe5915d6	-0.21199736
115	0xbe26721d	-0.16254468
116	0xbdfcd2cd	-0.123448946
117	0x3e863011	0.26208547
118	0xbe7c937e	-0.24665639
119	0xbe630504	-0.22169882
120	0x3e3f38fc	0.18674082
121	0xbe120a36	-0.14261708
122	0xbe8fd97c	-0.28095615
123	0x3eed48b9	0.46344545
124	0xbe28a862	-0.16470483
125	0xbe1687e9	-0.14700283
126	0xbe85c200	-0.26124573
127	0xbe83dafd	-0.25753012
128	0xbe609875	-0.21933158
129	0xbd5a8f98	-0.053359598
130	0x3e6c1b31	0.23057248
131	0x3eba91a9	0.36439255
132	0xbdc75e67	-0.09734803
133	0x3ee47ac8	0.44624925
134	0x3efc2970	0.49250364
135	0x3e11b20f	0.1422808
136	0x3eb11cc0	0.34592247
137	0x3fca3c88	1.5799723
138	0x3e536f3b	0.206479
139	0x3ed39797	0.4132659
140	0x3ea6b5ec	0.3256067
141	0xbc07e760	-0.00829491
142	0x3e5f3f1a	0.21801415
143	0xbdc85276	-0.09781353
144	0xbeba0314	-0.36330473
145	0xbcbef3a9	-0.023309546
146	0x3c232cec	0.009959441
147	0xbe81ff9f	-0.25390336
148	0x3c41c6a6	0.011827147
149	0x3c438de6	0.011935687
150	0xbd6ffa8c	-0.05858855
151	0xbd2c5029	-0.042068634
152	0x3daef154	0.085421234
153	0xbf0f611b	-0.56007546
154	0xbeb50e1a	-0.3536232
155	0x3da13e6d	0.07873235
156	0x3e31b693	0.17354803
157	0xbe21a13c	-0.15784162
158	0xbd63f2ac	-0.05565135
159	0xbee99438	-0.45620894
160	0xbdc61a2d	-0.096729614
161	0x3da57a1d	0.08079932
162	0x3e2dd589	0.16975988
163	0x3dfdf849	0.12400872
164	0x3de38a3d	0.11110351
165	0xbda027a1	-0.078200586
166	0xbe830b21	-0.25594428
167	0xbed44da9	-0.414655
168	0xbe46d5fe	-0.19417569
169	0xbe7ee2c6	-0.24891195
170	0xbc77e115	-0.015129347
171	0x3e44fb11	0.19236399
172	0xbea3d0d1	-0.31995252
173	0xbeab73b8	-0.33486724
174	0xbd971c3e	-0.07378434
175	0x3dcfe300	0.10150719
176	0x3d97fb39	0.07420964
177	0xbd570f9c	-0.05250512
178	0x3d5c724c	0.05381994
179	0xbdbb5b5b	-0.09148284
180	0xbe31d64d	-0.17366906
181	0x3d9a4a62	0.07533719
182	0xbd713afb	-0.05889414
183	0xbe8de9a0	-0.27717304
184	0xbd136b79	-0.035991166
185	0xbd9a5402	-0.075355545
186	0x3df338b0	0.11876047
187	0x3abdc3ce	0.001447791
188	0x3ced4a0c	0.028965972
189	0x3ebf40ac	0.37354028
190	0x3e4bdf1a	0.19909325
191	0x3cfafdd6	0.030638617
192	0xbd0e8243	-0.034792196
193	0xbeb4a85b	-0.35284695
194	0x3d8716d0	0.06596148
195	0xbd682f50	-0.056685746
196	0xbd9a93f8	-0.07547754
197	0xbeb3d8bc	-0.35126293
198	0xbeb59014	-0.35461485
199	0x3c42488d	0.011858118
200	0x3e862a29	0.2620404
201	0xbd22480a	-0.039619483
202	0xbe39ece8	-0.18156779
203	0xbd8ef8fc	-0.06981084
204	0xbe9671b1	-0.29383615
205	0xbd87f7cb	-0.0663906
206	0x3e8a21b2	0.26978832
207	0xbd1438f4	-0.036187127
208	0xbdc17698	-0.09446448
209	0xbc82b3e7	-0.015954925
210	0xba4a352b	-0.0007713611
211	0xbcd8a9c6	-0.026448142
212	0x3e8caea0	0.27476978
213	0xbbb1ea86	-0.0054295687
214	0xbe764733	-0.24050598
215	0xbea7571e	-0.32683653
216	0xbe9b7985	-0.3036615
217	0x3e6d15f1	0.23152901
218	0x3eb745a9	0.35795334
219	0x3eb9ef43	0.36315355
220	0x3e9f625d	0.31129733
221	0x3dc74ffd	0.097320534
222	0x3e7e4bd6	0.24833617
223	0x3d5dfbb1	0.05419511
224	0x3eac4872	0.3364902
225	0x3e5dd041	0.21661474
226	0x3e9906ab	0.298879
227	0x3e03b2f4	0.12861234
228	0x3db6ee75	0.08932201
229	0x3d30543f	0.043049093
230	0x3e8380ff	0.25684354
231	0xbea56c32	-0.3230911
232	0xbec93b61	-0.39303115
233	0x3ec7491b	0.38922963
234	0x3ecfe175	0.40601698
235	0x3e03bf12	0.12865856
236	0xbc4dabcd	-0.0125531675
237	0xbe05aaab	-0.13053386
238	0xbe481230	-0.19538188
239	0x3dc5af1d	0.09652541
240	0x3e000bde	0.12504527
241	0x3b78b288	0.003794821
242	0xbf897c47	-1.0741051
243	0x3eac4c05	0.33651748
244	0x3c9d646c	0.019212924
245	0xbed5919e	-0.4171266
246	0xbf5aa1ca	-0.8540312
247	0x3e036d66	0.12834701
248	0xbf8ddf3b	-1.108375
249	0x3e39b898	0.18136823
250	0x3e77053c	0.2412309
251	0x3cabc7ba	0.02096926
252	0x3ed7a19d	0.4211549
253	0x3dabd194	0.08389583
254	0xbd6bf0ac	-0.05760257
255	0x3dccb2c3	0.099950336

bias f4 [50]
0	0xbea442e5	-0.32082286
1	0xbebc715a	-0.3680523
2	0x3e67a053	0.22619753
3	0xbec14dea	-0.37754756
4	0x3cc29c9d	0.02375632
5	0xbf2356e8	-0.63804483
6	0x3e20cd5b	0.15703337
7	0x3caca38c	0.021074079
8	0xbee53d19	-0.44773176
9	0xbea9b4af	-0.33145663
10	0xbebf0652	-0.3730951
11	0xbc01d0f2	-0.007923352
12	0xbdded590	-0.108805776
13	0xbf05e2ec	-0.5229938
14	0xbdedaa80	-0.11604786
15	0xbe9db8e4	-0.30805123
16	0xbcc96962	-0.024586383
17	0xbea51110	-0.3223958
18	0xbf025421	-0.5090962
19	0xbeed3199	-0.46326903
20	0xbe1f9f07	-0.15588008
21	0xbea7c2c7	-0.3276579
22	0xbeb90f5d	-0.36144534
23	0xbef0b076	-0.4700963
24	0xbea91060	-0.33020306
25	0xbec8e4e5	-0.39237133
26	0xbe4932a0	-0.19648218
27	0x3de3f2dd	0.11130307
28	0xbf561da9	-0.8363901
29	0xbf000e82	-0.5002214
30	0xbe483eec	-0.19555253
31	0xbe871499	-0.26382902
32	0x3e3756b1	0.17904164
33	0xbd8b9870	-0.068161845
34	0xbe7c60c6	-0.24646291
35	0xbebd4517	-0.36966774
36	0xbdd639f8	-0.104602754
37	0xbf20d834	-0.628299
38	0xbeae448f	-0.3403668
39	0xbebdeba7	-0.3709385
40	0xbee33b25	-0.4438106
41	0xbec2bb20	-0.3803339
42	0xbf3af7aa	-0.73034155
43	0xbefe1432	-0.49624783
44	0xbed740a6	-0.4204151
45	0xbec3c7cf	-0.3823838
46	0xbe95951a	-0.29215318
47	0xbe9ac170	-0.30225706
48	0xbedf4e38	-0.43614364
49	0xbf249bba	-0.6430012

weight f4 [75, 50]
0	0xbe7ad4a4	-0.24495178
1	0xbe7afe0b	-0.24510972
2	0xbcbf828f	-0.023377685
3	0xbd00165c	-0.031271324
4	0xbe5ec1f9	-0.21753682
5	0xbd80ee00	-0.06295395
6	0x3d91e4ca	0.07123716
7	0xbe5c6f60	-0.21526861
8	0xbdb130f8	-0.08651918
9	0xbe5c9fe3	-0.21545367
10	0xbdf60a97	-0.120137386
11	0xbc091558	-0.008366905
12	0xbdd88d10	-0.105737805
13	0xbef38412	-0.475617
14	0x3e323683	0.17403607
15	0xbebd7700	-0.37004852
16	0xbedaab25	-0.42708698
17	0xbe81b412	-0.25332695
18	0xbe6c30bf	-0.2306547
19	0x3d574f8a	0.05256609
20	0xbd2aaff9	-0.041671727
21	0xbdd88563	-0.105723165
22	0xbe2d63aa	-0.1693255
23	0xbc53defe	-0.012931583
24	0xbe69fe84	-0.22850996
25	0xbe11035c	-0.14161438
26	0xbe375b55	-0.17905934
27	0x3d9c0176	0.07617466
28	0xbe35f648	-0.1776973
29	0xbe56f5b7	-0.2099217
30	0xbeb2506f	-0.3482699
31	0x3ba5ba28	0.005057592
32	0xbe89bbde	-0.26901144
33	0xbe1e2791	-0.15444781
34	0xbe572865	-0.21011503
35	0xbe6e5c0b	-0.23277299
36	0x3e56911c	0.20953792
37	0x3e08f5f0	0.13375068
38	0xbe655828	-0.2239691
39	0xbe40b711	-0.18819834
40	0xbd9a51e7	-0.07535153
41	0x3d3fb430	0.0468027
42	0xbebc32f6	-0.3675763
43	0x3de5dad4	0.11223379
44	0x3d4fb83d	0.050712813
45	0xbe2ba637	-0.16762625
46	0xbe91fbcf	-0.28512427
47	0xbf1c246b	-0.6099307
48	0xb868db40	-5.5517303e-05
49	0x3da71846	0.08158927
50	0x3ddeb14f	0.10873663
51	0x3ca9e282	0.02073789
52	0xbee0b709	-0.43889645
53	0xbe0a12b4	-0.13483697
54	0xbdeda0cb	-0.116029344
55	0xbac35c99	-0.0014904916
56	0xbdcfdfbb	-0.10150095
57	0x3da047e4	0.07826212
58	0x3dba3903	0.09092905
59	0xbd48b65b	-0.049002033
60	0x3e1aa52a	0.15102068
61	0xbe717799	-0.23580779
62	0x3e08e9b2	0.13370398
63	0xbd4ed1c3	-0.050493013
64	0xbea4ce60	-0.32188702
65	0xbdec1768	-0.11527902
66	0x3d8d9a5d	0.06914208
67	0x3ddd5365	0.10806922
68	0xbd45d27b	-0.048296433
69	0xbd84f061	-0.06491161
70	0xbe0a9557	-0.13533531
71	0xbd8a2289	-0.06744868
72	0x3db7b9ed	0.089710094
73	0xbe078afb	-0.1323661
74	0xbf007705	-0.5018161
75	0xbca05c5d	-0.019575292
76	0xbe67ed68	-0.22649157
77	0x3ca8d903	0.020611292
78	0xbe496f96	-0.19671473
79	0x3d0910c6	0.033463262
80	0xbe445f1a	-0.19176903
81	0x3e34bc76	0.17650017
82	0xbc307ce8	-0.0107719675
83	0xbdabb0dd	-0.08383343
84	0x3d535284	0.051592365
85	0x3e88e1af	0.26734683
86	0xbe76d045	-0.24102886
87	0xbef8209f	-0.48462388
88	0x3dd1b749	0.10240037
89	0x3e63e05e	0.22253558
90	0x3c573ca3	0.0131370155
91	0xbe91f9eb	-0.28510985
92	0x3e344bc0	0.17607021
93	0x3c92ae20	0.017905295
94	0x3df167b2	0.117873564
95	0x3e053452	0.1300824
96	0xbe2d1bd4	-0.16905147
97	0xbd7a1554	-0.061055496
98	0xbd8570e2	-0.06515671
99	0x3db32acb	0.087483965
100	0x3eaf489e	0.3423509
101	0xbea449c1	-0.3208752
102	0xbe7bf9d3	-0.24607019
103	0x3f039d0a	0.514115
104	0xbd853981	-0.065051086
105	0xbe674edd	-0.22588678
106	0xbf398431	-0.72467333
107	0x3d5735ec	0.05254166
108	0x3da07b68	0.07836038
109	0xbe9504a3	-0.291051
110	0xbe787f61	-0.24267341
111	0xbe68a275	-0.22718222
112	0xbf25ed3b	-0.6481511
113	0xbe946923	-0.28986463
114	0xbeda7af5	-0.42671934
115	0xbe379895	-0.17929299
116	0xbb8749c3	-0.004128666
117	0xbe8c32cb	-0.27382502
118	0xbedd5533	-0.43229064
119	0xbdb11f5b	-0.08648559
120	0x3dc0c63e	0.09412812
121	0x3d191ff5	0.037383992
122	0xbd77abcb	-0.06046657
123	0xbddf4ea7	-0.109036736
124	0xbe2a088b	-0.16604821
125	0x3ea3ab9a	0.3196686
126	0xbdf582d4	-0.11987844
127	0x3e41eecb	0.18938749
128	0xbe0b02ff	-0.13575362
129	0xbcff8937	-0.031193359
130	0x3c3f6280	0.011681199
131	0x3ecffb79	0.40621546
132	0xbe4413d1	-0.19148184
133	0xbd8cb60d	-0.06870661
134	0xbe4ecbe6	-0.20194969
135	0x3eb72bf6	0.35775727
136	0xbdd041a2	-0.101687685
137	0xbef1d8c5	-0.47235695
138	0xbbc3de60	-0.005977437
139	0x3bae4de6	0.005319345
140	0xbdb709f7	-0.089374475
141	0xbf134e43	-0.5754129
142	0x3c477ef9	0.012176269
143	0xbe25c2c2	-0.16187575
144	0xbd59cb51	-0.053172413
145	0x3d97875b	0.07398864
146	0xbe697375	-0.2279795
147	0x3e862fb2	0.26208264
148	0x3e0b4cff	0.1360359
149	0x3dded3b5	0.10880224
150	0x3ed924b3	0.42410812
151	0xbdc9973f	-0.09843301
152	0xbdd596d2	-0.10429157
153	0xbd988cec	-0.07448754
154	0xbdbefa59	-0.09325094
155	0x3ef267bd	0.4734477
156	0x3da96acf	0.08272325
157	0xbe15fbba	-0.14646807
158	0xbe2f4944	-0.17117792
159	0xbc29c4f3	-0.010361898
160	0xbde937f0	-0.11387622
161	0x3d631d6e	0.05544799
162	0x3da4a99a	0.080401614
163	0xbe5696f3	-0.2095602
164	0xbca5c3a6	-0.020234894
165	0xbc378767	-0.011201716
166	0xbea3418f	-0.31885955
167	0xbca18ecd	-0.019721413
168	0x3d93ae34	0.07210961
169	0x3e14cd24	0.1453138
170	0xbd36ca48	-0.044626504
171	0xbda5bce1	-0.080926664
172	0xbee3d92e	-0.44501632
173	0x3da950e2	0.0826738
174	0x3d618a9b	0.055063825
175	0x3e10d4a8	0.14143622
176	0xbabb87d3	-0.0014307447
177	0xbdab6e2f	-0.08370625
178	0xbdd937cd	-0.10606346
179	0xbde88be5	-0.11354808
180	0x3cdf3705	0.027247915
181	0x3d0e2249	0.034700666
182	0xbcc37bdc	-0.023862772
183	0xbd1eb812	-0.038749762
184	0x3e19a1a1	0.15003063
185	0x3d959421	0.07303644
186	0x3c80b1d7	0.0157098
187	0xbe6df72a	-0.23238817
188	0x3da51f32	0.08062591
189	0x3caa6627	0.020800663
190	0xbe2796ad	-0.16366072
191	0xbe5752ba	-0.21027651
192	0xbeab8e14	-0.33506835
193	0xbea8dcad	-0.32980862
194	0xbe6eda72	-0.23325518
195	0xbe45ec79	-0.19328488
196	0xbe6d7fe3	-0.23193316
197	0x3e313d1d	0.17308469
198	0x3e7075d6	0.23482451
199	0x3c2f6f88	0.0107077435
200	0xbda5d9cf	-0.08098184
201	0x3c1959c4	0.009359781
202	0xbe0d25de	-0.13783976
203	0x3e527df4	0.2055586
204	0x3e022c0a	0.12712112
205	0x3ed5bb52	0.41744477
206	0xbdf7a51d	-0.1209204
207	0xbe0cd6cd	-0.13753815
208	0xbdab025d	-0.0835006
209	0x3e6877e6	0.22701988
210	0x3e408bae	0.18803284
211	0x3d13bf01	0.036070827
212	0xbd3a6e97	-0.045515623
213	0x3e432921	0.19058658
214	0x3e8874c4	0.26651585
215	0x3cf8b72a	0.030360777
216	0x3e3d0926	0.18460521
217	0x3e8ade35	0.27122656
218	0x3e48c9d5	0.19608243
219	0x3e1ccd58	0.15312707
220	0xbe3e5316	-0.18586382
221	0x3eb093cc	0.3448776
222	0xbc97b796	-0.018520158
223	0x3d53a66f	0.051672395
224	0xbd904709	-0.07044799
225	0x3dfea9aa	0.124347046
226	0x3d9a5c18	0.07537097
227	0x3ba88b29	0.0051435423
228	0xbc725666	-0.014791107
229	0x3c0404fe	0.008057831
230	0xbd435b71	-0.047694627
231	0x3eba3ca3	0.36374387
232	0x3a79c4d2	0.00095279247
233	0x3d9295b3	0.07157459
234	0xbd9e3e72	-0.07726754
235	0x3ddfc576	0.109263346
236	0x3e957c3d	0.2919635
237	0x3e4bfaca	0.19919887
238	0x3ea8a94e	0.3294167
239	0x3e245f28	0.16051924
240	0x3e7f0fb5	0.24908336
241	0x3d4e09df	0.050302383
242	0xbe024bb7	-0.12724195
243	0x3e855c22	0.26046854
244	0xbdd57746	-0.1042314
245	0x3db8e723	0.09028461
246	0xbebeb15e	-0.37244695
247	0x3d9ed813	0.07756057
248	0x3d8a1a42	0.067432895
249	0xbd1fe8d6	-0.03904041
250	0xbeba0bb6	-0.3633706
251	0x3d517ded	0.051145483
252	0xbe157c0b	-0.145981
253	0xbe75b32f	-0.23994134
254	0x3b70e214	0.0036755847
255	0x3d5b14da	0.053486682

bias f4 [75]
0	0xbe6d0bec	-0.23149079
1	0xbef6f648	-0.48234773
2	0x3dc5cf7b	0.096587144
3	0xbeeb273f	-0.4592838
4	0xbf689611	-0.90853983
5	0x3ddebafd	0.10875509
6	0xbe1009d7	-0.14066254
7	0x3e34abad	0.17643614
8	0xbe26f42a	-0.16304079
9	0x3d63e199	0.05563507
10	0x3e0c9331	0.13728024
11	0x3e149df7	0.14513384
12	0xbe4a35ea	-0.19747129
13	0x3e3baaf4	0.18326932
14	0x3dab3b18	0.083608806
15	0xbeb32662	-0.3499022
16	0x3d218d2b	0.03944127
17	0x3e0e361b	0.13887827
18	0x3df78ff3	0.12088003
19	0xbee54a3f	-0.44783208
20	0x3cbbc571	0.022921296
21	0xba6a610e	-0.0008940854
22	0x3e3caadd	0.18424554
23	0x3af3a544	0.0018588682
24	0x3e5335f6	0.20626053
25	0xbe137ef8	-0.14403903
26	0x3c228637	0.009919695
27	0x3d69934d	0.057025243
28	0x3da2c2f4	0.079473406
29	0xbf663e79	-0.89939076
30	0x3df9980c	0.12187204
31	0xbef963dc	-0.48709
32	0x3e20cc77	0.15702997
33	0x3e13316d	0.14374323
34	0x3d6221b4	0.055207923
35	0x3cba7c5f	0.022764383
36	0x3e508776	0.20364174
37	0xbf0fdfac	-0.5620067
38	0xbfc122c1	-1.5088731
39	0xbd2fdfb8	-0.042937964
40	0x3de1e15c	0.11029312
41	0x3e2162eb	0.1576039
42	0x3dfcc61b	0.12342473
43	0xbebc2c95	-0.36752763
44	0xbf463ffc	-0.7744138
45	0x3dde1fd3	0.10845914
46	0x3dca1c6c	0.09868702
47	0x3d800a34	0.06251946
48	0x3e004f82	0.1253033
49	0xbe8aed77	-0.27134296
50	0x3d42c471	0.047550622
51	0xbe7ca7a4	-0.24673325
52	0x3e3390b0	0.17535663
53	0xbf24f284	-0.6443255
54	0x3dd615d4	0.10453382
55	0x3e30ddd8	0.17272127
56	0x3e0a6866	0.13516387
57	0xbcc5098c	-0.024052404
58	0x3d78d55f	0.06075036
59	0x3e083957	0.13303123
60	0x3e548a9e	0.20756003
61	0x3e0b7e9f	0.13622521
62	0x3d876653	0.06611314
63	0x3d8959dc	0.067065924
64	0x3e2d2c6b	0.16911475
65	0xbf3bab54	-0.733083
66	0xbe53f895	-0.20700295
67	0xbf377f1a	-0.71678317
68	0x3e2d5f99	0.16930999
69	0x3dce8369	0.10083658
70	0xbeef5e12	-0.46751457
71	0x3dd7ecc7	0.105432086
72	0xbf807c54	-1.0037942
73	0x3d7c6b2b	0.06162564
74	0x3e088a47	0.13333999

weight f4 [25, 75]
0	0x3dcbb8dc	0.099473685
1	0xbdf40914	-0.11915794
2	0xbe9fc952	-0.31208283
3	0xbd1bc544	-0.038029924
4	0xbd929545	-0.07157377
5	0xbe9b3433	-0.30313262
6	0xbe096ab9	-0.13419618
7	0xbdf4b8cb	-0.11949309
8	0xbe3d2640	-0.18471622
9	0xbd975a42	-0.07390262
10	0x3dc240d1	0.09485019
11	0xbe86d6c1	-0.2633572
12	0xbbf00206	-0.00732446
13	0xbd83e921	-0.0644095
14	0x3d54e82f	0.05197924
15	0xbd82a8a8	-0.06379825
16	0xbdd5925a	-0.10428305
17	0xbe8d7c60	-0.27633953
18	0xbd872d14	-0.06600395
19	0x3d40a83a	0.047035433
20	0x3e4b9c81	0.1988392
21	0x3c01977f	0.007909655
22	0x3dd87eec	0.105710834
23	0xbd548dab	-0.051892918
24	0x3d203130	0.03910941
25	0xbe8113ea	-0.25210506
26	0xbcbb12b5	-0.022836069
27	0x3ebf9fdd	0.37426654
28	0x3d5b9c7e	0.05361604
29	0x3e0b0696	0.13576731
30	0xbe018208	-0.12647259
31	0x3dacbcc6	0.08434443
32	0xbe8a2494	-0.26981032
33	0xbe3a9167	-0.18219529
34	0xbf04c2a3	-0.5185949
35	0xbdccf8a6	-0.100083634
36	0xbe9629d1	-0.29328778
37	0xbe60e2ff	-0.21961592
38	0xbc9835e0	-0.018580377
39	0xbe616b1e	-0.22013518
40	0xbd008c1b	-0.031383615
41	0xbe570ea9	-0.21001686
42	0xbe67bb9b	-0.2263016
43	0xbd9e543f	-0.077309124
44	0xbe3c4d43	-0.18388848
45	0xbde6dba7	-0.11272364
46	0xba8b1ba8	-0.0010613101
47	0xbe22ebf4	-0.15910321
48	0xbe529fe0	-0.205688
49	0x3cacd0d4	0.02109567
50	0xbd1450ed	-0.03620999
51	0xbd9c7f3d	-0.07641456
52	0x3d55a55e	0.05215966
53	0xbe696321	-0.22791721
54	0xbe2205fe	-0.15822598
55	0xbdeca013	-0.11553969
56	0x3e0de7d2	0.13857964
57	0xbe4bfab6	-0.19919857
58	0xbee5c0b4	-0.44873583
59	0xbe02542f	-0.12727426
60	0xbe38d907	-0.1805154
61	0x3ddab61e	0.10679267
62	0x3cc9b676	0.024623137
63	0xbda91396	-0.08255689
64	0xbe9bae31	-0.30406335
65	0xbdbfc5e5	-0.09363917
66	0xbe1f874b	-0.15578954
67	0xbdd71611	-0.10502256
68	0x3e00eb12	0.12589672
69	0xbe51383c	-0.20431608
70	0xbe3ff379	-0.18745221
71	0xbee29296	-0.4425246
72	0xbe1b4986	-0.15164766
73	0x3e56a265	0.20960386
74	0xbd447b2c	-0.04796903
75	0x3dc5eeb4	0.0966467
76	0xbd982a6b	-0.074299656
77	0xbd99095b	-0.074724875
78	0xbcc4d694	-0.0240281
79	0xbe0fbc7e	-0.14036748
80	0x3d0f56be	0.034994833
81	0xbc39b6a1	-0.011335046
82	0xbe790567	-0.24318467
83	0xbcd779bb	-0.026303163
84	0xbdf0555b	-0.1173503
85	0xbd9cc226	-0.076542184
86	0xbb99e1ca	-0.0046961056
87	0xbeb82f68	-0.35973668
88	0x3d43b672	0.047781415
89	0x3d4d473b	0.05011676
90	0xbdbe27b0	-0.092849135
91	0xbe86e184	-0.2634393
92	0xbb02c3c7	-0.0019953118
93	0xbc2cca65	-0.0105463015
94	0xbcbe30c5	-0.023216614
95	0xbdaebbd7	-0.08531921
96	0xbbb0d36d	-0.0053962977
97	0xbdf189ee	-0.11793886
98	0x3d051afc	0.032496437
99	0xbe0af50d	-0.13570042
100	0xbe9b9356	-0.30385846
101	0x3c96e69a	0.018420506
102	0xbd4b06b6	-0.049566947
103	0xbe6000ad	-0.21875258
104	0xbde3af3d	-0.111174084
105	0x3dc06eac	0.09396109
106	0xbd93189b	-0.071824275
107	0xbca70aa1	-0.02039081
108	0xbd8510c2	-0.06497337
109	0xbc9cbbda	-0.019132543
110	0xbc60d2f4	-0.01372217
111	0xbd246dac	-0.040143654
112	0xbe4bf64c	-0.19918174
113	0xbdc228f9	-0.09480471
114	0xbe293686	-0.16524705
115	0xbec128dc	-0.37726486
116	0xbd29553b	-0.041341048
117	0xbe489c8a	-0.19590965
118	0xbe1ef7c0	-0.15524197
119	0xbdcb04aa	-0.09912999
120	0xbdf4384e	-0.11924802
121	0xbdaec368	-0.085333645
122	0xbeab93d1	-0.33511212
123	0xbdf41a9f	-0.1191914
124	0xbd28b4a9	-0.041187916
125	0x3d86b0ef	0.06576716
126	0xbebd0ace	-0.36922306
127	0xbc102568	-0.008797981
128	0x3db63526	0.08896856
129	0xbd993e87	-0.07482629
130	0xbdfec05d	-0.12439034
131	0xbc1694dc	-0.009190764
132	0xbe61c06d	-0.22046061
133	0xbda80ab9	-0.0820517
134	0x3d4c4a5c	0.049875602
135	0xbeaabc08	-0.3334658
136	0xbe00f274	-0.12592489
137	0xbde1d1a7	-0.11026316
138	0xbd305f9f	-0.04305994
139	0xbd8cd624	-0.068767816
140	0xbda361e3	-0.07977655
141	0xbed18625	-0.40922657
142	0xbcfce446	-0.030870568
143	0xbdaae595	-0.083445705
144	0x3c89357a	0.016749132
145	0xbc8886e0	-0.016665876
146	0x3c28f779	0.010312908
147	0xbe3f3eb9	-0.1867627
148	0xbab376ba	-0.0013692
149	0x3d2b48de	0.04181754
150	0x3d455778	0.04817912
151	0x3e4146f7	0.18874727
152	0xbe575afd	-0.21030803
153	0x3d0e19e5	0.034692664
154	0xbeb0e5fe	-0.3455047
155	0x3d75eb96	0.060039125
156	0x3e85e90d	0.26154366
157	0xbd4b0e12	-0.049573965
158	0xbdb51397	-0.08841627
159	0xbe5b8b11	-0.21439768
160	0x3eb425d5	0.35185114
161	0x3e301750	0.17196393
162	0xbe507b62	-0.20359567
163	0xbe856f65	-0.2606155
164	0x3c155c54	0.009116251
165	0x3e32bc77	0.17454706
166	0xbe5af9c8	-0.21384346
167	0x3df3752f	0.11887585
168	0x3ecdcc59	0.40194967
169	0x3d125191	0.03572232
170	0x3dac12a0	0.0840199
171	0x3f0a116a	0.5393282
172	0x3e337977	0.17526804
173	0x3d980c62	0.07424237
174	0x3dacdf09	0.08440978
175	0xbd534d46	-0.051587366
176	0xbd90d9a2	-0.0707276
177	0x3dc35524	0.09537724
178	0xbc547162	-0.012966486
179	0xbd0a799b	-0.03380738
180	0x3e11693d	0.14200301
181	0xbe13217e	-0.14368245
182	0x3d8464be	0.064645275
183	0x3e4611c1	0.1934271
184	0xbeb76530	-0.35819387
185	0xbea12b0b	-0.31478152
186	0xbea59258	-0.32338214
187	0x3d827f7f	0.06371974
188	0xbd70dbc7	-0.058803346
189	0x3e8638a8	0.262151
190	0x3d45aa3a	0.048258044
191	0xba6692bb	-0.0008795668
192	0x3dd12d94	0.102137715
193	0xbe9baa59	-0.30403402
194	0xbe062714	-0.13100845
195	0x3db45a29	0.08806259
196	0x3e0daf1e	0.13836333
197	0x3d28c711	0.04120547
198	0x3c4af70f	0.012388005
199	0x3daff777	0.08592122
200	0xbd5103e7	-0.051029112
201	0x3e4bc17e	0.1989803
202	0xbe82d748	-0.25554872
203	0x3e513149	0.20428957
204	0x3e87cbb8	0.26522613
205	0x3d141280	0.036150455
206	0x3da50ca0	0.08059049
207	0xbed8eb1b	-0.4236687
208	0xbdb4d0be	-0.08828877
209	0x3d3a21e8	0.04544249
210	0xbec7ec66	-0.39047545
211	0xbe8b46bc	-0.27202404
212	0xbdb033ec	-0.08603653
213	0x3c71e17a	0.01476323
214	0xbc45bdd3	-0.012069183
215	0xbd95e61b	-0.0731928
216	0xbd9119e5	-0.07085017
217	0xbe90f303	-0.28310403
218	0x3d123102	0.03569127
219	0xbe386d5c	-0.18010467
220	0x3dae3110	0.08505452
221	0x3e35fcd7	0.17772232
222	0xbf0da763	-0.55333537
223	0xbe229a43	-0.15879159
224	0xbc372ec3	-0.011180582
225	0xbe7a5358	-0.24445856
226	0xbe867000	-0.26257324
227	0xbe823d46	-0.25437373
228	0x3d5b82e9	0.053591643
229	0xbe0e9085	-0.13922317
230	0xbe1158d7	-0.14194046
231	0xbe13d14b	-0.14435308
232	0xbe206aff	-0.15665816
233	0xbe52ce45	-0.20586498
234	0xbe880f27	-0.2657406
235	0x3d6f1172	0.058366247
236	0xbe08f32a	-0.1337401
237	0xbc013770	-0.0078867525
238	0xbe0dadd4	-0.13835841
239	0xbd14e2e3	-0.03634919
240	0xbdb4b18c	-0.08822927
241	0xbe047f0c	-0.1293909
242	0xbe5b34f9	-0.21406926
243	0x3d646b10	0.055766165
244	0x39a1a826	0.00030833593
245	0xbe87262d	-0.26396313
246	0xbc93d46a	-0.018045623
247	0xbdcee02f	-0.101013534
248	0xbe37920b	-0.17926805
249	0x3d943fdb	0.07238742
250	0x3e1ba8ad	0.15201063
251	0xbe30165f	-0.17196034
252	0xbd8791ae	-0.06619583
253	0xbd4ebcb5	-0.050472934
254	0xbc355f46	-0.011070078
255	0xbd884bbf	-0.066550724

bias f4 [25]
0	0xbcbc7820	-0.023006499
1	0xbeb60b5a	-0.35555536
2	0x3d422861	0.04740179
3	0xbebe9206	-0.37220782
4	0x3ea00361	0.31252578
5	0x3e8cec85	0.275242
6	0x3e885304	0.26625836
7	0x3cfaffd3	0.030639565
8	0xbe627eef	-0.22118734
9	0x3e9987f5	0.2998654
10	0x3ca76ba6	0.020437073
11	0x3e66f54c	0.22554511
12	0xbeb52537	-0.35379955
13	0x3dbfa5ec	0.09357819
14	0x3e5bac66	0.21452484
15	0x3e423341	0.18964864
16	0x3eb44deb	0.35215697
17	0x3dee0563	0.11622121
18	0x3e42f1a8	0.19037497
19	0x3e4a7ed2	0.1977494
20	0x3e7ddc44	0.24791056
21	0x3e42ab4d	0.19010659
22	0x3ecf31f1	0.4046779
23	0x3e50902d	0.20367499
24	0x3d820ba9	0.0634988

weight f4 [9, 25]
0	0xbe939103	-0.28821573
1	0xbead0b2a	-0.3379758
2	0xbeb96a5b	-0.36213955
3	0xbe23af39	-0.15984811
4	0xbe5e05f5	-0.2168196
5	0x3e80df63	0.2517043
6	0x3b9adff7	0.0047264057
7	0xbf31daa6	-0.69474256
8	0xbf6a8352	-0.9160663
9	0x3e8f1cae	0.27951568
10	0xbf0f3cbc	-0.5595205
11	0x3cac6cae	0.021047916
12	0xbf08c7fd	-0.5343016
13	0xbe97a89e	-0.29620832
14	0xbe27e6eb	-0.16396682
15	0x3e9c9f45	0.30590263
16	0x3ea37076	0.31921738
17	0xbf00d8a9	-0.503306
18	0xbe5274e3	-0.20552401
19	0xbe2b409f	-0.1672387
20	0x3f336b41	0.7008553
21	0xbf0717f6	-0.52770936
22	0x3dbe4ac5	0.09291605
23	0xbdb5be17	-0.088741474
24	0xbf163e57	-0.58688873
25	0xbe80ec1c	-0.25180137
26	0xbec9a744	-0.39385426
27	0xbddc61c0	-0.10760832
28	0xbe4ef2d2	-0.20209816
29	0xbd29bb44	-0.041438356
30	0xbc354f00	-0.011066198
31	0xbe533e60	-0.20629263
32	0xbe711ef4	-0.23546964
33	0xbed19b73	-0.4093891
34	0x3d984432	0.07434882
35	0xbe47bc19	-0.19505347
36	0x3db5197a	0.0884275
37	0xbead44c4	-0.33841527
38	0xbbf7dd08	-0.007564191
39	0xba252d16	-0.0006300969
40	0xbc9e6ca9	-0.019338923
41	0x3d03d006	0.03218081
42	0xbec678cf	-0.38764045
43	0xbc3c15fc	-0.011479851
44	0x3cff39c5	0.031155476
45	0x3d750408	0.059818298
46	0xbeaa3a2b	-0.33247504
47	0xbc605f9b	-0.013694669
48	0x3bd66262	0.00654249
49	0xbe2050eb	-0.15655868
50	0xbe5f7a35	-0.21823962
51	0xbe1aa28a	-0.15101066
52	0xbda09fe5	-0.078429975
53	0xbdc0abeb	-0.09407791
54	0x3c09a272	0.008400546
55	0xbe3e2e8e	-0.18572447
56	0xbe832710	-0.2561574
57	0xbda6ac33	-0.08138313
58	0xbf2bbda1	-0.67086226
59	0xbcc198d9	-0.023632454
60	0x3b7a142d	0.0038158998
61	0xbc888c59	-0.016668485
62	0xbadfad3d	-0.0017065179
63	0x3cd7bd0b	0.02633526
64	0x3cd11f79	0.025527703
65	0xbe831bca	-0.2560714
66	0xbe00d69a	-0.12581864
67	0x3c81837c	0.015809767
68	0x3dc7d389	0.09757144
69	0x3d6d502e	0.057937793
70	0xbc1e0564	-0.00964484
71	0xbe8bddbd	-0.2731761
72	0xbe13169f	-0.14364098
73	0xbca2a612	-0.01985458
74	0x3e2431fe	0.16034696
75	0xbe466432	-0.19374159
76	0xbe178270	-0.14795852
77	0x3c8be305	0.017076025
78	0x3dbc8b2c	0.092062324
79	0x3c64c12d	0.013962072
80	0xbe57c08f	-0.21069549
81	0x3d015053	0.031570744
82	0xbd129714	-0.03578861
83	0xbea0c219	-0.31398085
84	0xbdde7b44	-0.10863355
85	0x3de425eb	0.11140045
86	0x3d5c05fe	0.053716652
87	0x3ca0518f	0.01957014
88	0x3daf68e0	0.08564925
89	0x3d962e43	0.073330425
90	0xbe4c5583	-0.19954495
91	0xbdb82892	-0.08992113
92	0x3e42f76c	0.19039696
93	0x3e1ee3c0	0.15516567
94	0x3cd548a1	0.026035609
95	0xbd9f9154	-0.07791391
96	0xbe7b4061	-0.24536277
97	0xbe27dd0f	-0.16392921
98	0xbd57f70f	-0.052725848
99	0x3e6dc446	0.23219404
100	0xbf0a3b4a	-0.5399672
101	0xbe8446e6	-0.2583534
102	0xbcb9c775	-0.022678116
103	0xbe18bfba	-0.14916888
104	0x3b84fa67	0.0040581706
105	0xbe945f32	-0.28978878
106	0xbd87e8eb	-0.066362225
107	0x3c490514	0.012269277
108	0xbf38ae5f	-0.7214107
109	0xbe542714	-0.20718032
110	0x3e1777a3	0.14791732
111	0xbc8813d7	-0.016611023
112	0xbe26bc10	-0.16282678
113	0x3df218ff	0.11821174
114	0x3d92e498	0.07172507
115	0xbe8ada68	-0.27119756
116	0xbe9c7ac0	-0.305624
117	0x3e93c37d	0.28860083
118	0x3e0b37be	0.13595483
119	0x3d39f5b6	0.045400344
120	0xbea5526c	-0.32289445
121	0xbe815e34	-0.25267184
122	0xbea25de0	-0.31712246
123	0xbd8076df	-0.06272673
124	0x3e8e7ee3	0.27831182
125	0xbee0adde	-0.4388265
126	0xbea555e9	-0.32292107
127	0x3bafb517	0.0053621638
128	0xbdf1aad1	-0.11800159
129	0xbc260a48	-0.010134287
130	0xbe278abf	-0.16361521
131	0xbe196072	-0.14978197
132	0xbd6a9402	-0.057270057
133	0xbee7bd3c	-0.45261562
134	0xbe84465f	-0.2583494
135	0x3e076a2f	0.132241
136	0xbe206970	-0.15665221
137	0xbda3668e	-0.07978545
138	0x3dfbecc7	0.12301021
139	0x3d838595	0.06421963
140	0xbe82fa11	-0.2558141
141	0xbe8272a1	-0.2547808
142	0x3df4d9fa	0.11955638
143	0x3deca80f	0.11555492
144	0x3d46aca8	0.0485045
145	0xbe0beca9	-0.13664497
146	0xbe98edd4	-0.29868948
147	0xbeaa82e7	-0.33302996
148	0xbda41beb	-0.080131374
149	0x3e4d4b4c	0.20048255
150	0xbed05aed	-0.4069437
151	0xbe850786	-0.25982302
152	0xbc70cd26	-0.014697349
153	0xbcaff642	-0.02147973
154	0xbbd27c90	-0.0064235404
155	0xbe0aadfa	-0.1354293
156	0xbecd8d4e	-0.4014687
157	0xbd87956d	-0.066202976
158	0xbf06e230	-0.52688885
159	0xbe483cb5	-0.19554408
160	0x3da81835	0.08207742
161	0xbe5b69cb	-0.21427076
162	0x3e628293	0.22120123
163	0x3de67982	0.112536445
164	0x3d7af7cf	0.061271485
165	0xbe636337	-0.22205816
166	0xbe3f7742	-0.18697837
167	0xbdaee57d	-0.08539865
168	0x3da8d60d	0.08243952
169	0x3d2b35ba	0.041799285
170	0xbe82c61f	-0.2554178
171	0xbeb1f4b2	-0.34757
172	0xbec0fdbf	-0.37693593
173	0xbdef694a	-0.11690004
174	0xbc106a98	-0.008814476
175	0xbf080c3a	-0.53143656
176	0xbe50bebf	-0.20385264
177	0xbc04a7e9	-0.0080966735
178	0x3c9bc2f3	0.019013857
179	0xbd383c15	-0.044979174
180	0xbd8025fd	-0.06257246
181	0xbedd29d3	-0.43195972
182	0xbe35c617	-0.17751347
183	0xbf59caff	-0.8507537
184	0xbe26815a	-0.16260281
185	0x3c248444	0.0100413
186	0xbf251f58	-0.6450095
187	0x3c0fc406	0.008774763
188	0x3cf93f46	0.030425679
189	0x3b3bfa3a	0.0028683082
190	0xbe40cb95	-0.1882766
191	0xbe7574d8	-0.23970354
192	0xbe3685e4	-0.17824513
193	0x3d75637b	0.059909325
194	0x3c47c812	0.012193697
195	0xbe32c50f	-0.17457984
196	0xbf0dd564	-0.55403733
197	0xbe571c97	-0.21007
198	0xbeaca218	-0.33717418
199	0xbe16ec2b	-0.14738528
200	0xbf0423ed	-0.5161732
201	0xbed0954b	-0.40738901
202	0xbf129b14	-0.5726788
203	0xbe0149f7	-0.12625872
204	0xbe90896d	-0.28229848
205	0x3e3c89bb	0.18411915
206	0xbd8bb0e1	-0.06820846
207	0xbeb02b43	-0.34408006
208	0xbf325f4e	-0.69676673
209	0x3e027a5a	0.12741986
210	0xbe536334	-0.20643312
211	0xbede319c	-0.43397224
212	0xbee31933	-0.44355163
213	0xbdaf7c1e	-0.08568595
214	0xbe9b7792	-0.30364662
215	0x3e065bc1	0.13120939
216	0x3c2e11b1	0.010624335
217	0xbab2cc5e	-0.0013641228
218	0xbe3918b9	-0.18075837
219	0xbe4d1dc7	-0.2003089
220	0xbbfc89b2	-0.0077068442
221	0xbf70621f	-0.9389972
222	0xbc195ebe	-0.009360967
223	0xbf598c84	-0.84980035
224	0xbd816689	-0.06318385

bias f4 [9]
0	0x3c84b0e3	0.016197627
1	0x38a8fcec	8.0579746e-05
2	0xbdb46da7	-0.08809977
3	0xbe229d3c	-0.15880293
4	0xbde4a678	-0.11164564
5	0xbda6a4e4	-0.08136919
6	0x3c0ecbd3	0.008715588
7	0x3e225e23	0.15856223
8	0x3e8445b8	0.2583444
