models/classifier_143features_75x100x50_0.001lr_50e_0.5dropout_256bs_kaiming_norm.pth (torch_old, 100216 bytes, 8 tensors)

weight f4 [75, 143]
00000000: e569 1bbe b8cd 3f3d 6fde 76be b476 243e
00000010: d8b9 b8bb 8991 c83e db8e 13bd 7a1f 2dbd
00000020: 40ff f63c 2d81 27be 9ab4 ce3c 6003 b0bd
00000030: cd7c 8c3d d925 6f3e 7c58 16be 436a cb3c
00000040: 5343 413d 5d10 743e 9f9c a03d da67 6b3e
00000050: 977c 93bc 10c8 ae3c 4c36 77bd dda2 0cbe
00000060: c397 13be d404 f53d 014c 35bc 6470 0ebe
00000070: 8d1d 53be 2f62 1fbe cea7 db3d d5cc 123e
00000080: 5936 18be 8d05 823d 97fa cd3a cc47 59ba
00000090: 3de0 cc3a 300a 4b3c 933f 693d 004b 57bd
000000a0: 6278 a03e 435d ebbd 3f19 58bd d948 743d
000000b0: ea1e eebd 352c 113e 84e4 353d 10c4 903d
000000c0: 7d78 d2be 81e9 d0bc e032 d8bc c0c1 63be
000000d0: 1470 2cbd 0cd3 0e3d f91f 543e 2a59 273e
000000e0: 94d8 713d ce74 30bc 149a 0f3e 8c1e 13be
000000f0: ff7d 103d 2fa2 d73d 4f30 78bd 00d0 abbe
00000100: a2f4 783e f91b 07be e879 163e a41f 8b3c
00000110: 8e2b 20be 43c0 45bd 96ee 1fbe 8978 333e
00000120: 8051 1cbe 8038 613d 131e a0bc 7ae9 8fbc
00000130: a3bf 9e3d c5ce b3bc a324 36be f7a4 8fbd
00000140: dc8e b7bd 824f 1d3e 9868 b03d 2e7c e3bd
00000150: 001a 433d c47e 573e 480e 063e 334d 783d
00000160: f76c bd3d d053 47be cc2f 7dbd 677b 20be
00000170: ad07 273d 662a 92bd 388d 46be ed48 4fbe
00000180: 8927 cbbd d0f9 073d 2c7d 5ebb 51bc ef3c
00000190: fc98 2b3e a2cb 1cbd 3b87 733d 178a 10bc
000001a0: 7162 cb3d 304d d83d 53d5 a23d ab3e ff3c
000001b0: ddd6 2a3d 61c2 9cbd c262 043e 3821 70bd
000001c0: 8067 23be 4bd1 b13d af3f 3abe 2ad1 fb3d
000001d0: c06e d5bc 307b e1bb 562d 57be bf51 8fbb
000001e0: feeb 2fbe 17f1 14be c8f1 253e cf70 983d
000001f0: 23a0 2abd 81cf 06be 140f b0bd d004 1cbe
00000200: 8c0d 1d3e 9e12 823e c657 c03e 6bf5 42be
00000210: 65af 853e a116 a53d 3298 123c 82a4 963d
00000220: bef5 31bd d89c d0bc a059 763e a5dd 093e
00000230: 97d8 dcbd c912 3f3d 4ead c63d edbe 413e
00000240: fe31 a23c aa2b 183e bd9e 733e 8249 31be
00000250: b274 48bb 4298 413e a5e2 39bd 9c49 52bd
00000260: 9245 8d3d 8439 723d 58d9 55bd aa79 debc
00000270: 481e 03be 5211 44be 250e 43be 9001 2a3e
00000280: 654b a23d 2a0e 083e 6d32 5f3d db54 383e
00000290: 54a5 203d fbbe 553f 91e8 df3e 3dc0 a93e
000002a0: 1ee8 fdbb 39eb 013e 87ac ee3d 2b8b 6b3e
000002b0: c678 7f3e 695a c03e 5b50 dfbd f7bf c9bd
000002c0: d728 6cbc a519 923d bbcf 4ebb 7416 9d39
000002d0: 51bf 14be 326a a63d 9419 86be 1b41 9dbd
000002e0: 7133 30be c660 353e e2f4 2e3d 239d 193e
000002f0: a99c 8e3d 5593 cdbd 538e 9cbd bb95 053e
00000300: 138d adbe b352 98bd 7999 94bd cbb7 cf3c
00000310: 3bb0 eabd bb2d 883e e926 663e 5b8b 4c3e
00000320: 0e8c 963d 1ac7 aabe f087 11bd e957 bfbe
00000330: d6e2 ba3d 56c2 513e c1ac 03bc 6fa9 983d
00000340: c4e3 b63d 40f2 083c 5570 f5bd feaa a9bd
00000350: 39c3 e73d 7ff4 66bd 6e07 b93d 3151 163d
00000360: 5dbe 2a3e a60e a9bd 125a 5abe 4f35 433e
00000370: 7392 9d3b 16bb 27bc e257 efbd aed0 3d3e
00000380: bef5 f9bd b59a 17be 5390 06be 179f 443e
00000390: a518 21be 9a35 4a3e 331d 563e 60b6 c8bd
000003a0: e871 8f3e d399 a13d fd20 28be 49a5 12be
000003b0: 0d74 d43c 6b65 1abe 1136 09be 9d71 793e
000003c0: 87b9 273e 34d0 383e 64a0 afbd 0f62 2b3e
000003d0: 68ba 393e 88c0 ad3d 78ef 6e3e 056e c43c
000003e0: 3582 4f3f dcbc f63d 6407 893d d98a f53c
000003f0: 98e0 c93b 1e1c 693d 9d58 c23d 1643 cb3c
-0.15177114 0.046827048 -0.24108289 0.16060907 -0.0056373887 0.39173535 -0.03602491 -0.042266347
0.03015101 -0.1635787 0.025232602 -0.08594394 0.06859741 0.23354281 -0.14682192 0.024830943
0.047183346 0.23834367 0.07842373 0.22988835 -0.018003745 0.021335632 -0.060354516 -0.13734002
-0.14413361 0.119638115 -0.011065484 -0.13910061 -0.20616741 -0.15564798 0.107253656 0.1433595
-0.14864482 0.06348715 0.001571494 -0.00082885916 0.0015630793 0.012392566 0.056945395 -0.05256176
0.31341845 -0.11492398 -0.05275845 0.059639785 -0.1162699 0.1417702 0.044407383 0.07068646
-0.4110755 -0.025501968 -0.026391447 -0.22241879 -0.042099074 0.03486924 0.20715322 0.16342607
0.059044436 -0.010770036 0.1402362 -0.14367121 0.03527641 0.10528981 -0.060592946 -0.3355713
0.2431207 -0.13194264 0.14694941 0.01698286 -0.15641615 -0.04827906 -0.15618357 0.1752645
-0.15265465 0.054985523 -0.01954559 -0.017567385 0.077513956 -0.021949181 -0.17787413 -0.070138864
-0.08962795 0.15362361 0.086137 -0.1110767 0.047632217 0.21044451 0.13091385 0.060620498
0.09249299 -0.19465566 -0.06181316 -0.15672074 0.040778805 -0.07136993 -0.19389808 -0.20242663
-0.0991965 0.033197224 -0.003394912 0.029264601 0.16757578 -0.038280137 0.059455138 -0.008821986
0.099308856 0.10561597 0.079508446 0.031157812 0.041708816 -0.07654262 0.12928298 -0.05862543
-0.15957451 0.086824976 -0.18188356 0.12295754 -0.026053786 -0.00688114 -0.21013388 -0.0043737586
-0.17179868 -0.14545093 0.16205513 0.074433915 -0.041656625 -0.13165094 -0.08596626 -0.15236211
0.15337199 0.2540483 0.37566966 -0.19038932 0.26110378 0.08060957 0.008947419 0.07355596
-0.04344725 -0.025465414 0.24057627 0.13463457 -0.10783499 0.046648774 0.09701024 0.18920489
0.019799229 0.14860407 0.23791023 -0.17313197 -0.0030587134 0.18905738 -0.04538216 -0.05133973
0.06898035 0.059136882 -0.05220923 -0.027157623 -0.1280452 -0.19147232 -0.19048364 0.16602159
0.079245366 0.13286653 0.05449145 0.1800112 0.03922017 0.8349454 0.43732122 0.3315448
-0.007748618 0.12687387 0.11654001 0.23002307 0.24948415 0.37568977 -0.109039985 -0.098510675
-0.014414034 0.071337976 -0.0031556922 0.00029962102 -0.14526106 0.08125724 -0.2619139 -0.076784335
-0.17207123 0.17712697 0.042714007 0.15001349 0.06963474 -0.10037867 -0.07644334 0.13045399
-0.33896694 -0.074376486 -0.07255835 0.025356194 -0.114593945 0.2659739 0.2247578 0.19975035
0.07350932 -0.33355027 -0.03553003 -0.37371758 0.09125297 0.2048429 -0.008036793 0.07454192
0.089301616 0.008358538 -0.11984316 -0.08284567 0.11316533 -0.056385513 0.0903462 0.036698524
0.1667418 -0.08254747 -0.21323422 0.19063304 0.004808718 -0.010237476 -0.11686684 0.18536636
-0.12205075 -0.1480511 -0.13140993 0.19201313 -0.15732057 0.1974701 0.20909576 -0.0980041
0.2801659 0.07890668 -0.16418834 -0.14320864 0.025934244 -0.1507775 -0.13399531 0.24359746
0.16379367 0.18048173 -0.08575514 0.16736625 0.18137515 0.08483988 0.23333538 0.023978243
0.81058055 0.12047741 0.06690863 0.029973434 0.006160807 0.05691158 0.09489558 0.024812263

bias f4 [75]
00000000: ad13 89be 2c16 393e b86c 03be 2aa2 bebe
00000010: 6de7 96be 0fae abbe c62d 8abe 7386 0dbe
00000020: 069e 4abe 2541 2fbe 1795 933b 1fc4 65be
00000030: e80b 83bd d034 5abe 278a 7bbe 8a79 7cbe
00000040: 227e 8dbe e818 1cbe 541e cebd 721c a8bd
00000050: 9284 c1bd e617 85be 4df8 f2be a727 63be
00000060: 15b1 bbbd 9482 72be 5b9a acbe 9f9f 67be
00000070: 66ed 0bbe 5379 e93d 774c 81be 5a51 8fbe
00000080: e119 4fbe 5085 30be 6404 7fbe d880 87be
00000090: d097 69be 8f48 82be 0bb7 c7bd 7eaf f3be
000000a0: e5f2 48be d8d3 a2be e6cd 8fbe 4d41 d7be
000000b0: c980 3bbe 781e 58be f0dd 093e 6116 c8bd
000000c0: d0fa 0d3d 6dec 9bbd 13e9 e3bd 684c 3f3d
000000d0: 51bb 7ebe 1c37 3bbe 6586 f7bd be41 69be
000000e0: c540 b2be 1b92 a9be c2e4 98bd a8a8 2fbe
000000f0: 16f0 c4bd d8e3 9cbe a9e5 bdbe f376 a3bd
00000100: 2d63 3ebe 6646 0fbe ed98 7ebe 99c1 263e
00000110: d74e b8be d57c 9fbe fee2 c8be 9d01 87bd
00000120: 2dfa 44be 4400 55be 8c28 68be
-0.26772824 0.18074864 -0.12834442 -0.37233096 -0.2947344 -0.33531234 -0.26988047 -0.1382082
-0.19786844 -0.17114694 0.004503857 -0.22438096 -0.06398755 -0.21309209 -0.2456442 -0.24655738
-0.27635294 -0.15243876 -0.100643784 -0.082085505 -0.09449114 -0.25994796 -0.47455063 -0.22183095
-0.09164635 -0.23682624 -0.33711514 -0.22619484 -0.13664779 0.11400094 -0.2525365 -0.27991754
-0.20224716 -0.17238355 -0.24904019 -0.26465487 -0.22811818 -0.25445983 -0.097517096 -0.47594827
-0.19623907 -0.3180225 -0.28086776 -0.42042008 -0.18310846 -0.21105373 0.13463569 -0.097698934
0.03466302 -0.07613454 -0.1112844 0.046703726 -0.24876143 -0.18282741 -0.120861806 -0.22778985
-0.3481504 -0.33119282 -0.07465507 -0.17154181 -0.09616105 -0.3064258 -0.3708928 -0.07981672
-0.1859252 -0.13991699 -0.24863024 0.16284789 -0.3599765 -0.31149927 -0.3923568 -0.065921046
-0.1923606 -0.20800883 -0.22671717

weight f4 [100, 75]
00000000: 6c3f 993d f25a 5d3d 5692 ee3d 6bf7 6cbe
00000010: e755 9fbe efce 74be 549e f8be 96a4 163e
00000020: e7b3 8abe f679 07be 1ef5 cabd 1a8f fabe
00000030: bc9d 28bd a9ac b63e 5f62 57be 245d 87be
00000040: d687 0cbf 38e0 d4bd 9da4 283c 16a0 b4bd
00000050: 8415 8bbc 78ca 403e eef6 1dbd 5d5c 22be
00000060: 9009 76be 66af f3be 598c 213d 39c9 8bbe
00000070: 8a1f 76be 1a95 c13d be40 553e e2bd 56be
00000080: 2430 d2bd c292 d8be 7864 3bbd df9d 543d
00000090: deec 21be e748 20bf 7cf4 31bb 9bef 3a3d
000000a0: 3cc9 163d e248 05bf 0152 053e 8408 07be
000000b0: b248 2fbf 9dc7 18be a7e2 10bc 536c ee3d
000000c0: e6ec 713d 1528 1d3e 8208 38bf f312 2bbd
000000d0: 3171 113d bd4d 19bd 70ac 8ebe 221a f93d
000000e0: f3d2 fbbd 085d abbe a65c 67bd c918 80be
000000f0: 8ded 00be 04ed 01bf dcea 89bd da5d 4fbe
00000100: 3564 d53d cf0a 24bd 4b26 11bf 73a0 843d
00000110: 30f0 30be 7ead 2dbf 89f2 cfbe 68ea 503e
00000120: 8df2 76be 4ea9 93be 7ae0 8e3e f47b 853e
00000130: d618 d03d 9289 8e3d 0dbf 833c 9f15 4dbd
00000140: bc97 403e ed25 f53d 3674 bf3e 2584 b73d
00000150: 9fea 2d3e 479e d7be 4e9e fa3d 075e f8bd
00000160: 6417 393e d2a4 013e ab6b b93b ab7d 47bc
00000170: 457d cc3d 878b 1c3e 994d 7b3e 61ff 2c3d
00000180: 56ce 22be f090 87be dcba 423e ec8f c93d
00000190: f8d0 c23c 41c4 a4bc 1b6e c7ba 2f8c 3e3c
000001a0: 5921 8c3d 8c50 34be 2ffa 5cbe c6aa 173e
000001b0: ab58 e2bd 9898 7dbd 2b4e 143e 22af 193e
000001c0: 64bd bd3d cc8c 0b3d 7f60 a03d 94e6 183e
000001d0: 2a11 f1bd 4890 953d 1b5b 8c3d 5de4 363e
000001e0: ee63 023e b781 fcbd 0581 933d 5474 3a3d
000001f0: 7c33 4c3e b9f3 123d cfda 363e 6c4b 543e
00000200: b3b1 90bd 0f8d 37bd 8b7b 173e 7109 4c3e
00000210: 9955 55bd e41f 073e 25ef 783e 5956 8d3e
00000220: 7729 1a3d 8aae 943d 9fa8 42bc 35bf 133e
00000230: 17c9 3a3d 6a26 573e 4cad 883c 5f61 093e
00000240: 6714 9a3d 6968 3d3e ede8 1e3e f132 35be
00000250: f4a7 e1bd 3e32 093e e253 013e 557b 07be
00000260: 7ef0 be3e 98c6 fb3d ed87 1abb 7ae5 433e
00000270: da4b 28be 1f75 40be 620b 7b3e 0d62 11bd
00000280: 35f8 8b3e 6430 173d 4125 e53c a3ef 133e
00000290: 51a8 6abe 909d 50be 3ccf e03e 95c8 cdbc
000002a0: b7cb 323e 580a 02be b941 82bd 67b1 bdbd
000002b0: 25ca 423e 43b5 163d 5173 ff3d 0f57 1d3c
000002c0: b75c 063e 5441 c5bd 4310 3bbd fad5 17be
000002d0: f6b1 713e b07d 973e 4491 4f3e b51a d33d
000002e0: 14b3 f63d 6bca 0bbd 3520 c73e c6fb 9cbe
000002f0: 7694 cdbd a18a febd 2d85 2fbd 2a81 83be
00000300: 3a62 b6bc 9048 44be fac2 26be afca 243e
00000310: d3e5 9abe b84d 83be d83c d5be 6804 29be
00000320: feaf 943d 5b14 18be 76c8 edbc bbd5 063e
00000330: 1cfa 003e 1d90 a7be 3d03 2fbe 0857 d3bd
00000340: 17b5 a8bd 3625 923e ecdc aa3d 9ef5 efbd
00000350: b45a ba3c b723 3dbe c442 243d 7dab 88bd
00000360: 33e6 93bd 141e 8ebe 206c 00be 253a 44bd
00000370: c27d 91be 8a57 81be 3f32 50be 9c15 24bc
00000380: 3932 2e3d 9624 703e da75 e6be 92b6 39bd
00000390: 2573 173e 8de2 bd3e 8824 863e 5383 1b3e
000003a0: 1055 ae3d 6e30 073e ed9c 0ebd 08d2 9bbe
000003b0: 703e d23d f519 55be 70fd 433e f4cd 683e
000003c0: 8b91 57bc 921f 953e 8f8a 383d 547f da3b
000003d0: 3d34 96be f16c 51bd baad 783e c93b 28bd
000003e0: 8e2c 96bd 6152 fcbb d139 b13d d1f9 893c
000003f0: a305 2c3e f02b 043e fd79 b1be 96c4 99bd
0.074828 0.05404181 0.11649005 -0.23141257 -0.31120226 -0.23907064 -0.48558295 0.14711222
-0.2709038 -0.13230118 -0.09910034 -0.48937303 -0.041166052 0.35678604 -0.2103362 -0.26438248
-0.5489477 -0.10394329 0.010293153 -0.088195965 -0.016978033 0.18827236 -0.03856557 -0.15855546
-0.24027085 -0.47594756 0.039440487 -0.27301958 -0.24035469 0.09452267 0.20825478 -0.20970872
-0.10263088 -0.42299467 -0.04575011 0.05190837 -0.15813014 -0.6261124 -0.002715378 0.04563866
0.036813006 -0.52064335 0.13019563 -0.13186842 -0.684703 -0.14919896 -0.008843101 0.11641755
0.059063815 0.15347321 -0.7188798 -0.04176612 0.03550834 -0.037427653 -0.27865934 0.121631876
-0.12296095 -0.33469415 -0.05648484 -0.2501891 -0.12590618 -0.5075228 -0.06734249 -0.20250645
0.104195036 -0.04004937 -0.56699055 0.06475916 -0.17279124 -0.67842853 -0.40614727 0.20401919
-0.24115963 -0.28840107 0.27905637 0.2607113 0.10160987 0.06959833 0.016082311 -0.050069448
0.18807882 0.119701244 0.3739335 0.089607514 0.16984032 -0.42112944 0.122372255 -0.12127309
0.18075329 0.1266053 0.005658587 -0.012175958 0.09984831 0.152876 0.2454132 0.042235736
-0.15899023 -0.26477766 0.19016594 0.09841904 0.023781285 -0.020113112 -0.0015215309 0.011630102
0.06842298 -0.17608851 -0.21579812 0.14811239 -0.11052068 -0.061913103 0.14482944 0.15008214
0.09264639 0.03406982 0.07830905 0.14931709 -0.11770852 0.0730291 0.068533145 0.17860551
0.12733433 -0.12329429 0.07202343 0.045521095 0.19941515 0.035876963 0.17856906 0.20731896
-0.070651434 -0.04481226 0.14793222 0.19925477 -0.052083585 0.13195759 0.24309976 0.2760494
0.0376372 0.07259853 -0.011881023 0.14428408 0.04560193 0.21010748 0.016684197 0.1341605
0.07523423 0.1849686 0.15518542 -0.17695214 -0.11018363 0.13398072 0.12629655 -0.13230641
0.37292856 0.12293738 -0.0023579553 0.19130507 -0.16435185 -0.18794678 0.24516061 -0.0354939
0.27337804 0.036911383 0.027971866 0.14446883 -0.2291577 -0.20372605 0.43908107 -0.025120059
0.17460524 -0.12699258 -0.06360192 -0.092623524 0.19022425 0.03679396 0.12473167 0.009603276
0.13121305 -0.09631601 -0.045669805 -0.1482772 0.23603043 0.2958808 0.20270258 0.10307828
0.12045875 -0.034128588 0.3889176 -0.30660838 -0.10038082 -0.12428785 -0.042851616 -0.25684482
-0.022263635 -0.19168305 -0.16285315 0.16092943 -0.30253467 -0.25645232 -0.41647983 -0.16505587
0.0726013 -0.14851515 -0.029026251 0.13167469 0.12595409 -0.32727137 -0.17091079 -0.10319334
-0.08237665 0.28544015 0.08342919 -0.1171677 0.022748329 -0.18470655 0.040102735 -0.06673334
-0.072216414 -0.27757323 -0.12541246 -0.047907013 -0.28416258 -0.252621 -0.20331667 -0.010014918
0.042528365 0.23451456 -0.4501179 -0.04534013 0.14790018 0.37086907 0.26199746 0.15186815
0.08512318 0.13202068 -0.034817625 -0.3043368 0.10265815 -0.20810683 0.19139647 0.22734815
-0.013157259 0.2912565 0.045054015 0.0066680107 -0.2933673 -0.051129285 0.24285021 -0.04107264
-0.07332717 -0.00770025 0.08653606 0.016842755 0.16799025 0.12907386 -0.34663382 -0.07508199

bias f4 [100]
00000000: ad6d a93d 9c28 07bf 79ae fabd 88d2 dcbc
00000010: c9a5 c53d df89 533d 2e6d 143d 741b 19bd
00000020: fcaf a4bb 522c 143e 0885 ca3d e063 6abc
00000030: 490a b4bc ef02 953c 0c8a 313c dba0 a33d
00000040: f230 4a3d d924 873d 0c90 003e 5b3d 383d
00000050: 53f1 19be 4821 59be e1c2 473d 7ee8 30bf
00000060: a8a6 3ebd 9bca 67bd 754b 883d 8102 da3d
00000070: 6130 453d e750 ddbc 55f3 a43d 8871 823d
00000080: 4ee6 5dbe cff6 9abe eafa d9bc faf2 43bf
00000090: 8625 193d 448c 15be 7344 a4bc b6d3 063e
000000a0: ed36 bd3d 8880 c6bb 97ac 03bc fc9d 4d3c
000000b0: 049c 4fbe 2595 dabd daaa 7bbe dd42 5cbf
000000c0: 604e 973d 9f82 a23d 3d21 01bd 720d 81bc
000000d0: 7c1a 87be eb4c a73d 32aa 873d e51b b3bd
000000e0: 0983 78bc 7954 71be 0e3a 8e3d 2cdd bebd
000000f0: 4c27 fa3c 9ad1 fc3d 2a0f e6be e573 c2be
00000100: 2e00 883c 1036 74be 57b3 a83d a20f 58be
00000110: 037d 16bf 6060 48be 7d32 c0be 23df 943d
00000120: 6457 b2be a1da 563c 3ac5 8e3d a74d b1be
00000130: 2674 ecbe 09bd 4dbe 8cc5 103d 374d 58be
00000140: 44a8 713c 5b64 2bbe 0fca 47bf 2bac cbbe
00000150: 8305 b23d 91d5 b2be f45b f13c e854 cf3c
00000160: 7955 803c a509 eebe c4cc 17be 5fb9 c73d
00000170: 071b 0ebf 47ad 27bd 7675 5dbf 285e a0be
00000180: d1a9 01be 0064 45be 490c 883c 6695 8b3d
0.08272872 -0.5279634 -0.12240309 -0.026955858 0.09650762 0.051645156 0.036236934 -0.037379697
-0.005025862 0.14470032 0.09888655 -0.014306039 -0.02197756 0.018189875 0.010836136 0.07989665
0.049363084 0.06598825 0.1255495 0.044980388 -0.15033464 -0.21204102 0.048769835 -0.69104755
-0.046545655 -0.056589704 0.06655017 0.10645009 0.04814184 -0.027016116 0.080542244 0.063693106
-0.21669886 -0.30266425 -0.026608903 -0.7654263 0.0373893 -0.14604288 -0.02005217 0.13166699
0.09238992 -0.0060578026 -0.008036754 0.012549873 -0.20274359 -0.10672978 -0.24576893 -0.86039525
0.07387996 0.0793507 -0.03152584 -0.015753482 -0.26387393 0.08168968 0.06624259 -0.08745555
-0.01516796 -0.2356738 0.06944667 -0.09319529 0.030536316 0.12344666 -0.44933444 -0.37979046
0.016601648 -0.23848748 0.08237331 -0.21099713 -0.587845 -0.19568014 -0.3753852 0.072691225
-0.348323 0.013113649 0.06971212 -0.34629557 -0.46182364 -0.20091642 0.035344645 -0.21123205
0.01474959 -0.16737501 -0.7804269 -0.3977979 0.086924575 -0.34928563 0.029462792 0.025309041
0.015665757 -0.46491733 -0.14824206 0.097521536 -0.5550999 -0.040936735 -0.86507356 -0.31321836
-0.12662436 -0.19276428 0.01660742 0.06815605

weight f4 [50, 100]
00000000: 178c c2bd ac6e 1ebe ed4c a13c ccda e4be
00000010: 8d8e 143e af72 903d c6a7 9ebd faa1 2abd
00000020: a0f4 9a3d f1ff 8c3e 0b8f e43d 0137 90be
00000030: a7df ddbc 51dc 80be 17e3 b0bd 28a7 2a3a
00000040: daad ac3d 0ee0 a1be 20ed ee3e 75a8 99bd
00000050: 65f2 243e 7c08 0dbe a90e c9bd f91f 31be
00000060: 42cc 123e 623d 12be 7b04 a83c 0153 7cbc
00000070: 4f64 d2bd 0e27 43be a35c 8e3d 8370 953c
00000080: 7607 a3be b039 4cbe 0757 88be 53ef 0cbe
00000090: 4520 b33a 4cbf 8cbe 6d7b 72be 510e bc3e
000000a0: cb36 973e 96a4 81be b9f8 193c 9ed8 f3be
000000b0: 95ab a2bd 56a3 7abe ffd0 883e 60d1 f1bd
000000c0: 88f4 453d c2e1 febd 4ce8 453d 8379 7cbe
000000d0: 2a26 4c3e acde c43d ca0a 313d 03ad 243d
000000e0: 886d b1bd 3787 c5bd 6705 b7be ace8 133e
000000f0: 0c26 3c3d f284 ed3e 86db 98bd 33e6 90bd
00000100: f2fb 0d3e a79c 503c e525 2c3e 4274 d4bd
00000110: 66fe fabc 5c22 acbe a251 2cbe 6836 b13d
00000120: ad32 50bd bcee 80be 138c 1a3d 6873 3ebd
00000130: 4d7d 14be 6af3 93ba bb64 953d 9f5f 173d
00000140: 491f abbe adb7 41be df66 05bf f7e2 103c
00000150: 0bb9 553e c6b3 f03b 3af3 c1be 52ff 8dbc
00000160: cce8 52be 14f0 3cbe fbf5 923c 9b39 b83c
00000170: a2f9 8abe f48b 433e 10b8 73be 6b8f ce3d
00000180: 2841 4d3e 74ca b53d ad85 0cbf a10d aebb
00000190: fe4b c2bd c4e1 bdbc 7696 65be 0a1d e33c
000001a0: 7f27 9f3c cfc3 7ebe 9361 3fbd ae03 fdbd
000001b0: 534d a53c cb0b 223d 91d7 68bd df3b 41be
000001c0: bb88 37be cc27 8bbe 96dc 1b3c 3508 f7bd
000001d0: 5f51 773d cb57 463e 8cb9 46bd a7ea fdbb
000001e0: cde1 953d 5244 1d3e 7d72 37bc de98 65be
000001f0: ae17 4a3d a16d 923c 9e03 8abd 2763 a2be
00000200: aa6f f5bd dc83 b6bc baff f0bb ce0e 983e
00000210: c1fc e8bd a357 27bc b428 153e d9fe f8bd
00000220: 3709 edbd 470e 163e e543 0ebd 1e54 abbd
00000230: 0cf6 b13d 84e3 7f3d 33c6 97bd 8581 533e
00000240: 5879 b9bd 2a0d 9bbe 2eca 90be e64c 27be
00000250: 588d fc3c 2677 273e 5341 2cbd c485 933d
00000260: a859 2cbe 1a03 5dbd 64d2 9e3d 5edb 60be
00000270: 6b6a 773e ac34 7dbd 41ce 24be f3fc 0bbe
00000280: d2f4 5abe d665 20be 5258 babc d57c b7bd
00000290: 4eff 81be 5c89 673d bfc7 51be d357 c3bd
000002a0: 8901 38be b367 9cbe 1b99 8dbe 0454 813c
000002b0: 439c c93d 746c cc3d 55df 0bbc 53f2 c83c
000002c0: eda8 ae3d 2b83 cdbd 08b3 88bd baa0 4d3d
000002d0: 091a c4bd b75b bfbc abdf 6dbe 130c 32be
000002e0: a2cf 59bd 7fbe 0d3d f497 6f3e ec15 c13d
000002f0: 708f 773e b444 60be 9962 953d e92e 81bc
00000300: d10b e1be c632 4b3e 8173 8cbc d4ca 913c
00000310: 9273 9d3d ba2b c33e 19dc 403e 9e34 bfbd
00000320: adf9 02bf 6ed1 e1bd 2b0d 303e 8ae8 d83d
00000330: 34c9 d5be a963 1b3d 8035 8c3c 9739 98bd
00000340: 7c93 a3be 75e1 aebd 2e72 74be 3c5e 9ebd
00000350: 3819 7bbd cfde 10be 793d f43c 3281 9ebe
00000360: 0fdc 103e d95b 053e 7456 0dbf 5882 65bd
00000370: 04a5 38be e094 ccbd ba70 08be 7c17 e6bd
00000380: a13c 883e c907 4d3e 9f7f 743b 76f3 70be
00000390: b35a 51be ed26 193e 7091 6bbe 0d05 753d
000003a0: 7f77 083c d270 80bd f68e 42be e07e 02be
000003b0: 8df0 5a3e 07e0 803c 8453 09be 5282 dfbe
000003c0: 1f45 7bbe 3e1c 013e 7e65 87be 35eb 943d
000003d0: ece9 e5bb a070 ebbd 269e 693d 77e7 f63c
000003e0: 4d21 17be fed5 c73c 94e4 3abe 9aef d63d
000003f0: e5c6 cfbc f2f7 2cbd 08f9 79bc b222 94be
-0.09499376 -0.15471905 0.019690001 -0.4469818 0.14507504 0.07053124 -0.07746844 -0.04165838
0.0756619 0.27539018 0.11160096 -0.28166965 -0.027084185 -0.25168088 -0.08637064 0.00065098936
0.08431597 -0.31616253 0.46665287 -0.07502834 0.16108091 -0.13772768 -0.09817249 -0.17297353
0.1433573 -0.14281228 0.020509949 -0.015400649 -0.102730386 -0.19057867 0.06951263 0.018242126
-0.3184163 -0.19943881 -0.26628897 -0.1376317 0.0013666233 -0.27489698 -0.23679896 0.36729673
0.2953399 -0.25320882 0.009397679 -0.47626203 -0.07942883 -0.2447637 0.2672195 -0.11807513
0.048328906 -0.12445404 0.04831724 -0.24655728 0.19936433 0.09612784 0.04322318 0.04020406
-0.086634696 -0.09644931 -0.3574631 0.14444226 0.04593472 0.46390492 -0.07463746 -0.07075157
0.13865641 0.012732661 0.1681133 -0.10373737 -0.030638885 -0.33619964 -0.16828015 0.08652955
-0.05082958 -0.2518214 0.03773124 -0.04649678 -0.14500923 -0.0011287753 0.072946034 0.036956426
-0.33422306 -0.18917723 -0.52110094 0.008843175 0.2087137 0.0073456494 -0.3788088 -0.01733366
-0.20596617 -0.18450958 0.017939558 0.022488406 -0.2714358 0.19096357 -0.23800683 0.100859486
0.20044386 0.088765055 -0.54891473 -0.0053116833 -0.094871506 -0.023178943 -0.22420678 0.027723808
0.019428013 -0.24879383 -0.046723913 -0.123542175 0.020178473 0.039562028 -0.056846205 -0.18870495
-0.17923252 -0.271788 0.009513041 -0.12062112 0.060380336 0.19369428 -0.048516795 -0.00774892
0.07318459 0.15358093 -0.01119673 -0.22421595 0.04933899 0.01787454 -0.06738971 -0.31716272
-0.11984189 -0.022279672 -0.0073547037 0.29698795 -0.11376334 -0.010213765 0.14566308 -0.12157983
-0.11574023 0.14653884 -0.034732718 -0.083656535 0.08689508 0.062472835 -0.074108504 0.20654877
-0.090563476 -0.3028348 -0.2827925 -0.16337928 0.030829117 0.16354045 -0.042054486 0.07203248
-0.16831076 -0.053958036 0.077549726 -0.21958682 0.24161689 -0.06181781 -0.16094305 -0.13670711
-0.21382454 -0.15663847 -0.022747193 -0.08959357 -0.25390095 0.05652748 -0.20486353 -0.095382355
-0.17969336 -0.30547866 -0.27655873 0.015787132 0.09844258 0.09981623 -0.008537133 0.024529612
0.08528314 -0.10034784 -0.066747725 0.05020211 -0.09575278 -0.023359163 -0.23229854 -0.17387418
-0.05317653 0.0346055 0.2339781 0.094280094 0.24175811 -0.21901208 0.07294197 -0.015769439
-0.43954328 0.19843587 -0.01714492 0.017796911 0.07688059 0.38119298 0.1883396 -0.09336208
-0.51162225 -0.11026274 0.17192523 0.10591228 -0.41755068 0.03793684 0.017115355 -0.074328594
-0.3194846 -0.08539096 -0.23871681 -0.077328175 -0.061303347 -0.14147495 0.029814469 -0.30957943
0.14146446 0.13023318 -0.5521004 -0.05603251 -0.18031698 -0.09989333 -0.13324252 -0.11234948
0.26608756 0.20022501 0.0037307513 -0.23530373 -0.20444755 0.14956255 -0.23004699 0.05981927
0.008329271 -0.06271519 -0.18999848 -0.12743711 0.21380825 0.015731825 -0.13410765 -0.43654114
-0.24538086 0.1260843 -0.2644462 0.07271425 -0.007016411 -0.11496091 0.057035588 0.030139668
-0.14758797 0.024394032 -0.18251258 0.10494919 -0.025363395 -0.042228647 -0.015257128 -0.2893272

bias f4 [50]
00000000: 4702 043e 7e3c 983d 421b 443e 8d48 223e
00000010: 1853 2cbe f904 063e 38ae 08be f0cc 1cbd
00000020: 9032 f7bd a30d 40be 89db 4f3e b424 32bd
00000030: 1491 99bc f03e 263e c2d7 183e 17da 133e
00000040: 0c7d 503e c397 94be afd6 29bc d4ee 183e
00000050: 490f 4a3b 68e0 f73c a7c2 7cbd 140b ff3d
00000060: 9774 d23d 9ae7 0bbd b87b ef3d 4cae 513e
00000070: 46a7 153e 93b0 87be 8b6a 853d 3586 c53d
00000080: 2f09 f73d 8627 ebbd d957 fa3d 5ba7 6abe
00000090: 4f40 203d 107e 983d b419 423e 9fb4 c83c
000000a0: bb2c 1a3e 3856 073e 5b08 053e 6d00 2fbe
000000b0: 0b97 d13d c4bd f2bd ccda 7bbe 0d80 5b3d
000000c0: 9a5c 65be 82e0 c73d
0.12891494 0.07433413 0.19151023 0.15847988 -0.16828573 0.13087834 -0.13347709 -0.03828138
-0.12070191 -0.18755202 0.2029859 -0.043492034 -0.018745936 0.16234946 0.14926055 0.14438663
0.20360202 -0.29022035 -0.010366126 0.14934856 0.0030831865 0.030258372 -0.061709072 0.12453285
0.10276144 -0.03415642 0.11693519 0.20476645 0.14614591 -0.26501903 0.06514462 0.096447386
0.120622985 -0.11482148 0.12223787 -0.22915404 0.03912383 0.074459195 0.18955117 0.02450019
0.15056126 0.13216484 0.12991469 -0.17090006 0.10233887 -0.11852601 -0.24595183 0.053588916
-0.22398606 0.09759618

weight f4 [9, 50]
00000000: daf7 e6be 7762 853e b37d 853e 8ba4 02bf
00000010: 9b13 683e cde3 99be 7bb0 5d3e e10c 8c3e
00000020: 8216 653e 156b 69bd 8749 983e c75a e4bb
00000030: 718d 173e 79b0 35be 3c81 083f 2985 60be
00000040: a079 a93e f4ae 483e a281 67bd 80ad 34be
00000050: 7b78 993c 12a3 a9ba 163c c1bd 74c6 edbd
00000060: 854f ef3e b62d 623e 426c 403f de04 993e
00000070: da59 32be a97b 5abe 6e48 6abe de64 ccbd
00000080: e560 01bf 516c 8a3d 9ac2 e1be d9ce a9be
00000090: 9bec 25bf 506d 23bf c9b5 153e b2e0 b93e
000000a0: 694b 6abe 0270 cdbe dfb8 f5be ee82 df3d
000000b0: 8061 2cbd d75d 8c3c 6af3 55be c971 623d
000000c0: 1449 66bc a5fe 15bf 5d4f 71be de6e 3a3e
000000d0: e948 903d fc78 51be 4127 bf3d ee60 a03d
000000e0: 707f 5bbe 4a2f b7bd c034 2bbe 4226 423e
000000f0: f787 263e d5cd 053e 6e25 cdbd fb9b b8bb
00000100: 77eb 7a3d 1fa8 c7bd 966d 6a3d 36ec 563e
00000110: af89 59be f0dd 8f3d de8c 0cbe ee29 cd3d
00000120: fb02 2f3c 32d2 8e3d 5afa e53b 7154 ae3e
00000130: 416f 8b3d 3bca 3d3e ff88 09be 940c 833e
00000140: 6fcc 513e 4c5d fb3c f452 5cbd e331 7fbe
00000150: 3df5 c03d a0dd 583e a64d 1bbe 59fb 51be
00000160: a032 b63d c963 efbd cf13 febc 1d20 3ebe
00000170: 4b0f 0cbf a7c6 5cbe 0139 843d c73c 96bc
00000180: 2987 debd e3e6 6d3e cac0 81bd 4b84 20bd
00000190: c4f7 d4bd c246 ad3d 9318 92bc 7762 b8bd
000001a0: ded8 4e3e 28d4 e93d 3c46 32bd 3e07 ff3d
000001b0: 03dc ca3d 9716 80bd 2a20 23bc 148b 0abe
000001c0: f8a1 6c3d 7572 003d 5e7f 7abd 1d6b bdbd
000001d0: e910 0fbd 43c8 9e3e a3b6 7c3d b441 d9bd
000001e0: c621 46be 54ab 2a3d 8b17 a5bd 7b6e 9f3d
000001f0: 4c92 47be c82f 20be 8c40 2f3d 7a23 d43d
00000200: 26dd afbd bae8 db3c 4ca6 193e bfb1 15bd
00000210: be3e 913d 2fc1 adbd 55e8 9b3e f414 11be
00000220: 29ed 8d3d 0efd b4bd a3ba b1bd 123c 94be
00000230: b0b6 993a 7ba6 ef3d 0740 113c a855 1abd
00000240: 30b9 0f3e 08ee 6d3b 44ab 27be 4569 563e
00000250: ad39 d73d 601d 763e cc8d b93c 83cb 623e
00000260: 1cfa 27be 2e23 1abd c45e 42bd 7077 083e
00000270: 2a7a 3b3d 6f74 0ebe 9384 d1bd 2844 8b3d
00000280: ead4 6ebd cd9b 0c3e fe78 8d3c 69ed 3a3d
00000290: 06c6 f8bd 77d3 40be 4fc6 943d 40a5 943e
000002a0: 2237 d63c 67f1 81be 053c dd3c c333 ca3b
000002b0: 6004 1dbe 1a05 b93d 1819 d6bd 2407 6e3e
000002c0: 6292 b8bd 4138 873d 44ec e6bb 5881 943e
000002d0: d62a 753e 1b15 243d 15ed 453e f05f 6dbe
000002e0: 76c7 d13e 881d d2bd 5304 153e 6a75 83bd
000002f0: 72ec 1bbe 1267 e83d c0a8 20bb 997e a03e
00000300: f65c 813e b7c9 8bbe 2b02 0d3e f65d 213e
00000310: de03 1ebe 183c 003e 78e6 a5be 4f06 903e
00000320: 40f7 a83d 9518 6ebe 3301 afbe 8461 88bd
00000330: ac43 39be f908 003e 233c 06be 5788 143e
00000340: d1a7 803e a0de b7be bbfd 29be 4836 88be
00000350: 6c37 94bd a0d2 633d b46a 2ebe f801 15be
00000360: 07f1 f2bd 04f4 613e b2b6 0f3e dd5c a3be
00000370: 866e 2dbe 91d8 c43d fee0 303e accb a03d
00000380: c18d 38be f487 3bbe 7a33 ffbd 6acf febc
00000390: 8e72 71bd be75 dbbd 0a94 243e d689 133d
000003a0: 310d 4b3e cac0 073e 06d1 b13e 2d5a 803e
000003b0: 6af4 6c3e 071e 6bbc b787 79be abbe 23be
000003c0: 9f0a 0dbc 0f92 963e d74a c93e 7491 883d
000003d0: 49ef b63d 8381 91bd 2f72 a2bd ef6d 033e
000003e0: 7862 063e c87e ab3e 29de b63b 5fca debd
000003f0: 531f 96be 0ec2 36bd 90c3 a43d 7f30 fe3d
-0.4511097 0.26051685 0.26072463 -0.5103232 0.22663729 -0.3005661 0.21649353 0.27353576
0.22371867 -0.056986887 0.29743597 -0.0069688293 0.1480005 -0.177431 0.53322196 -0.21925797
0.33100605 0.1959799 -0.05652011 -0.1764431 0.018734207 -0.0012942275 -0.094352886 -0.116101176
0.46740356 0.2208775 0.7516519 0.29886526 -0.17417088 -0.21336235 -0.22879192 -0.099801764
-0.50538474 0.06758941 -0.44093782 -0.33165625 -0.64814156 -0.6383867 0.14620127 0.3630424
-0.22880329 -0.40124518 -0.47992608 0.10913645 -0.04208517 0.01713459 -0.20893636 0.055284295
-0.014055509 -0.5859168 -0.23565431 0.18206355 0.070451565 -0.20456308 0.09333659 0.07830988
-0.21435332 -0.089445665 -0.16719341 0.18959907 0.16262804 0.130668 -0.10016905 -0.0056338287
0.061259713 -0.097488634 0.057233416 0.20988545 -0.21243928 0.07024753 -0.13725612 0.10017763
0.010681863 0.06973685 0.0070183696 0.340488 0.068083294 0.18534176 -0.13431166 0.25595534
0.20488141 0.030684136 -0.053790048 -0.24921374 0.094217755 0.21178293 -0.1516634 -0.20506038
0.08896375 -0.116889544 -0.031015305 -0.18566938 -0.54710835 -0.21560155 0.06456185 -0.018339528
-0.108656235 0.23232608 -0.063356 -0.039188664 -0.1039882 0.084607616 -0.017833984 -0.09003156
0.20199916 0.11417419 -0.043524012 0.12452553 0.09905245 -0.06254309 -0.009956399 -0.13529617
0.057771653 0.031359155 -0.061156623 -0.09248946 -0.034928236 0.31012163 0.061697613 -0.10608235
-0.19348821 0.041667297 -0.08061131 0.07784744 -0.19489402 -0.15643227 0.042786166 0.10358329
-0.085871026 0.026844371 0.15004843 -0.036546465 0.07092045 -0.084841125 0.30450693 -0.14168149
0.0693 -0.08837329 -0.08678176 -0.2895208 0.0011727419 0.117016755 0.008865363 -0.037679344
0.14035487 0.0036305208 -0.16373926 0.20938595 0.10509048 0.24034643 0.022650622 0.22147946
-0.16404003 -0.037631206 -0.047453657 0.13326812 0.0457708 -0.13911603 -0.10230365 0.06800109
-0.05830852 0.13731308 0.017269608 0.04563657 -0.12147145 -0.18830667 0.07264387 0.29032326
0.026149336 -0.25379488 0.027006159 0.0061707213 -0.153337 0.09034176 -0.10454005 0.23244911
-0.09012295 0.066025265 -0.007047208 0.2900493 0.23942122 0.04005919 0.19328721 -0.23181129
0.4097249 -0.10259539 0.14552431 -0.06418879 -0.15226915 0.11347784 -0.0024514645 0.31346586
0.25266236 -0.27302334 0.13770358 0.157585 -0.15431163 0.12522924 -0.32402396 0.28129813
0.08250284 -0.23251565 -0.34180602 -0.06659225 -0.18092221 0.12503423 -0.13108878 0.14505135
0.25128034 -0.35912037 -0.16600697 -0.26603913 -0.072371334 0.05562079 -0.17032892 -0.14551532
-0.118623786 0.22065741 0.14034536 -0.31906787 -0.16936693 0.09611619 0.17273328 0.07851347
-0.18022825 -0.18313581 -0.1246099 -0.031104762 -0.05894714 -0.10715817 0.16072097 0.036020122
0.19829251 0.13257137 0.34729785 0.250688 0.23140112 -0.014350421 -0.24368177 -0.15990703
-0.008608489 0.2940831 0.3931491 0.06668368 0.08932359 -0.071047805 -0.07931935 0.12834905
0.131235 0.33495164 0.005580683 -0.10878443 -0.29320773 -0.04461866 0.08045113 0.12411594

bias f4 [9]
00000000: cb68 ef3d b2eb ea3c 4c38 47bd da0b e5bd
00000010: 3b84 3cbd e7f9 80bd fc5e 25bc 8dce 733d
00000020: 0253 a33d
0.116899095 0.028676841 -0.048637673 -0.11183901 -0.046024542 -0.06297665 -0.010093447 0.059523154
0.07974817
