models/classifier_143features_150x300x100_0.001lr_100e_0.5dropout_128bs_orthogonal.pth (torch_old, 396223 bytes, 8 tensors)

weight f4 [150, 143]
00000000: b175 8d3e 7630 c1be b92c 0a3f 9b53 3cbd
00000010: 3b66 fb3d 6679 57be 9500 a6bd 0ce7 41be
00000020: eb7a 1abf d9d5 13be f024 12bb 042f d43e
00000030: 4a48 80bd dd38 b3bd 53b8 e13d e4a1 1a3d
00000040: 189f ecbd 0eab a03d e2c5 dd3e 4514 583e
00000050: b97c 433e 3a60 003e f6ad 0e3e 8905 193e
00000060: 6712 d23d c90b 403e d50b 903d 1321 26be
00000070: 491b 4abc 25d1 a4be e8b8 733d a596 c6bd
00000080: 1943 943c e131 073d 38dc b13d 0105 8bbc
00000090: 3308 d0bc 207c 6737 bc16 87bd fd56 3c3e
000000a0: 1b2a 54be a7a5 67be 03c2 82bd d342 a93e
000000b0: c2ec 513e 0f25 3abc 098c 01bf d74c 5bbe
000000c0: 2ea6 47bd 567c 1f3e f321 c93e 6807 08be
000000d0: 770e 0fbe f83d 573d 26d0 423e 11aa efbd
000000e0: a03d a23d e78f 44be 538c e2bd 8235 9fbe
000000f0: e589 12bd 9335 59bd 2e09 f8bc 9cc7 8b3c
00000100: daa7 843e 4b4c fd3d 0335 793e 25d8 0b3d
00000110: c8f8 61be 692e 8d3e 9968 f63d 24cf 86be
00000120: 4472 e53d 8e48 a9be 595a 7b3e 081a 8c3e
00000130: f941 423e a6a5 0a3e 8add 063d b78c 6b3e
00000140: 7ac6 083f b1fe d23e 1866 993e 2a22 a03e
00000150: e7b2 3a3e b5c3 163e 37e6 903f 0cdd 113e
00000160: 5bc9 f43d 2cb5 f63d 39da a33d ca73 013e
00000170: 984f 133e b30a 0a3e 69a6 c63d 045e 813e
00000180: 461c 783e 9c9a a93d edc6 523d 4df3 2f3e
00000190: dd3a 8b3e 8094 6b3e c030 afbe c89d 36be
000001a0: 6e6b 0a3e 36ac e2be 5d37 f93e e437 983e
000001b0: 5cda 62be 47c2 763e 4a9d be3e e221 7ebd
000001c0: 3523 a43e 1461 463e 1043 82be 0b53 93be
000001d0: 71c3 973e fb3a c03e 7d71 34be c7bf 7fbe
000001e0: b4d3 cb3e f04d 28bd e047 03bf 3148 d83e
000001f0: 1769 35bf 39ce 2abf 9884 4abf 8dad fbbe
00000200: 860d 87be f383 563d 95de c3bd 7137 f13e
00000210: 009f 0a3f f837 323e fa30 203f 2ad3 1b3f
00000220: 14dd 7d3e 5970 8abe 5c88 823e 940c b03e
00000230: e7e7 243f c6e4 eabe 7544 293e a09a 153d
00000240: ecab 373f e7d3 af3c 686a 5a3d 6992 f93e
00000250: 0208 bd3a c7ed 113e 4701 57bd 4107 d83e
00000260: 5eed af3d 1bc2 a3be e29e 1b3f ef7a 8dbe
00000270: e58f 0bbd ca9e 9abe bbda 3f3e b235 e2bd
00000280: 92ec 01be a50e bd3e 38c7 a93e b0da 3abe
00000290: 861f 693c 9c89 eebe f5ca 0bbf c94f 343e
000002a0: bfc2 33bf 3ba6 70be 3460 653d ec68 4c3e
000002b0: 2f93 653d a2e6 6c3e 37d6 af3e 8ac4 40be
000002c0: d3a2 983c 59ec 36bf 2847 ac3e 7464 8b3d
000002d0: 8de4 1cbe 46e2 653e cdc3 403e aa4a 5dbe
000002e0: 49ef 88be 1696 51be 188a 1c3d 951f b33d
000002f0: f9a8 bcbd 8bb0 abbd 4bb1 cc3c e08d 873e
00000300: 9b05 a73c 6dc4 c0be ad62 fabd 5822 acbe
00000310: 4968 bf3d c892 cbbe 41d3 5abe 5add b6bd
00000320: 7ae1 2dbb 63e9 31be a4f3 15be e8e0 4cbe
00000330: 2c7e 0f3f 933e 673d 1ec0 b03d a1ef c83c
00000340: e5ae 1abe 184c 503e 642b 933e 150f 28bc
00000350: 4348 383e cf4a d5bd c2b9 93bd 6619 f4bd
00000360: 66d5 fc3c 2406 a9be 2a39 c93c ea38 133f
00000370: 954d 9a3e ed08 9e3e 6b71 183e 72de 96bd
00000380: 8704 723e 00dc 233d 7649 1fbe 5e91 533e
00000390: 7841 173e ce1a eebf f218 663f ebde 0d3e
000003a0: 4485 cbbe 1c3e fbbe 9efa 21bf 98f1 843f
000003b0: 06c1 c3be ed97 cb3d 1316 a8be 6558 d73e
000003c0: 6417 213e 05bf a0bd e75e d33d e9e7 b63e
000003d0: 8f38 0b3e b150 223e 86ad 7a3e 47f2 64bd
000003e0: 4b28 a5be a2a4 9d3e 1998 ce3e e1aa 1ebe
000003f0: 6670 b5be d16b cc3d 95dc 4c3e 99bb 9a3e
0.27628854 -0.37732285 0.5397449 -0.04597817 0.12275358 -0.21042404 -0.0810558 -0.18935794
-0.6034381 -0.14437045 -0.0022299848 0.4144212 -0.06263788 -0.0875108 0.11021485 0.037752047
-0.11553782 0.07845126 0.43315035 0.21101482 0.19090547 0.12536708 0.13933548 0.14943518
0.10257416 0.18754496 0.07033507 -0.16223554 -0.012335607 -0.32190815 0.059502512 -0.09696702
0.0180984 0.033006553 0.086845815 -0.01697016 -0.025394535 1.3797573e-05 -0.06596133 0.18392558
-0.20719187 -0.22621785 -0.06384661 0.33058795 0.20500472 -0.0113613745 -0.506043 -0.21416031
-0.048742466 0.15574774 0.39283714 -0.13284075 -0.13970362 0.052549332 0.19024715 -0.117023595
0.0792191 -0.1919552 -0.11061921 -0.3109551 -0.035776038 -0.053029608 -0.030277815 0.017062955
0.2590931 0.12368067 0.24336629 0.03414168 -0.22067559 0.2757447 0.12031669 -0.2632991
0.11203435 -0.33063167 0.24546184 0.2736361 0.18970479 0.13539752 0.03292612 0.23002897
0.5342785 0.4120994 0.29960704 0.31276065 0.18232308 0.14723094 1.1320256 0.14244479
0.11952468 0.120462745 0.08000607 0.12641826 0.14385831 0.13480644 0.09699709 0.2526704
0.24229535 0.082814425 0.05145924 0.17182656 0.27193347 0.23005867 -0.3421688 -0.17833626
0.13517544 -0.44272012 0.4867505 0.2973014 -0.2215361 0.24097548 0.37229377 -0.062044032
0.3205811 0.1937297 -0.2544179 -0.28774294 0.29641297 0.37545 -0.17621417 -0.24975501
0.39809954 -0.041089952 -0.5128155 0.42242578 -0.7086348 -0.6672092 -0.7910857 -0.49155846
-0.26377505 0.05237193 -0.095639385 0.4711261 0.54148865 0.17404163 0.6257473 0.60869086
0.24791366 -0.2703884 0.2549466 0.34384596 0.64416355 -0.45877665 0.1653002 0.036524415
0.71746707 0.021463348 0.053324133 0.48744515 0.0014421942 0.14250861 -0.052491453 0.42193034
0.08590196 -0.31984028 0.6078931 -0.27632853 -0.034072775 -0.3019927 0.18735783 -0.11045398
-0.126879 0.36925235 0.33159804 -0.18247485 0.014228707 -0.46589363 -0.5460656 0.1760856
-0.70219034 -0.23500912 0.05599995 0.199619 0.05604857 0.23134854 0.3434312 -0.18824974
0.018632328 -0.7145439 0.33648038 0.06806269 -0.1532156 0.22449598 0.18824692 -0.21610513
-0.2674506 -0.2046741 0.038217634 0.08746258 -0.092119165 -0.08383282 0.024986884 0.2647543
0.020388415 -0.3764986 -0.12225852 -0.33619952 0.09346063 -0.39760423 -0.2136965 -0.08928938
-0.00265321 -0.17374186 -0.14643723 -0.2000767 0.560519 0.05645616 0.086303934 0.024528326
-0.1510578 0.20341527 0.28744042 -0.010257502 0.17996316 -0.10414659 -0.07213165 -0.11918907
0.030863475 -0.33012497 0.02456339 0.5750872 0.30137315 0.30866185 0.14887016 -0.07366647
0.2363454 0.04000473 -0.15555367 0.20660922 0.14771068 -1.860193 0.89881814 0.13854568
-0.3975011 -0.49070823 -0.63273036 1.0386229 -0.38233203 0.09941087 -0.3282934 0.42059627
0.15731579 -0.07848934 0.103208356 0.35723808 0.13595794 0.15851094 0.24480256 -0.055895116
-0.32257304 0.30789667 0.40350416 -0.15494873 -0.35437316 0.09981502 0.2000602 0.3022125

bias f4 [150]
00000000: 28ac 1abf 8699 13bf 7c63 9fbe 3979 85be
00000010: b10e 54bf 338e d9be d53a 8abf a3fd babe
00000020: 9215 0fbf b7c6 abbe 7dd9 29bf 2073 eabe
00000030: 16c4 53bf e674 27bf 7449 46bf 6ecd cabe
00000040: 6de2 c5be c69e d6be bd68 e9be 719b eebe
00000050: 8828 03bf cd05 3fbf 22e5 4cbf a9d3 a6be
00000060: 4674 10bf 933d 06bf ad49 61be 6ab2 7abf
00000070: 3026 3abf 09ec 0cbf b835 e8be 28e9 11bf
00000080: 371f e8be f8af c9be 69ae 1cbf af61 11bf
00000090: d24d 0bbf 6232 9d3d 7889 e8be 459f 30bf
000000a0: 0114 e3be 65cd 13bf d148 d9be 2dc7 99be
000000b0: 5efc 1fbf 2224 31be ae75 37bf ac9f 8fbe
000000c0: 8ef4 09bf 3161 85bf 62ca 83bf fb0f 94be
000000d0: 9b69 bfbe 3863 c3be 41b4 56bf 6284 07bf
000000e0: a2d3 a9be fb3a 05bf 68bb bfbe 68c8 02bf
000000f0: b4e4 69bf ff7b 68bf 31d2 32bf 4490 5abd
00000100: 60c5 eebd d1c6 65be ad76 4fbd d84b 03bf
00000110: da37 89bf dc04 91bf fc78 fabe d606 97be
00000120: 563c 8cbe 693a dcbe 5b7e 81bf 91b9 26bf
00000130: ff24 f3be d842 50be c4b6 09bf 8db8 63be
00000140: 602a e4be c11f 8dbf 2382 abbe 5b18 84be
00000150: d12f e6be 6735 86be 9985 fcbe 4d09 10bf
00000160: 475e 37bf 41d8 28bf 49ee d0be 8d81 ecbe
00000170: cfcd 35be 15ea b6be 91e0 4dbf d431 c4be
00000180: 08d0 08bf 06aa 0bbf 77d0 efbe 92eb f9be
00000190: 0b6a e7be a639 60bf b18d 1ebf c6f9 84be
000001a0: b751 e8be 023c a6be 16a4 c2be ea57 39be
000001b0: c816 12be 595b e6be 06a8 8bbe 1a12 95be
000001c0: b606 d0be 48cd 1cbf e4d7 04bf e2c2 f2be
000001d0: 4b62 95be 2edd 1abf bc87 0abe 9a81 58bf
000001e0: f0a9 75bd 5268 84be 5927 80bf 4c42 51bf
000001f0: 1253 61bf d616 c9be d15e 1fbf 0c8a abbe
00000200: a32b a3be f524 08bf 9d11 7dbe 968f 8bbe
00000210: 80ae 3abf cc70 9cbe 099b 9ebe c3f2 e5be
00000220: a859 0fbf 8ec8 eebd ff71 45bf 4060 41bf
00000230: 1cc1 16bf 2b21 a2be de8e 8bbf d75e 1abf
00000240: b3a5 fabe f719 6fbf 9b24 91bf b0d4 01bf
00000250: 997f f7be b44d 23bf
-0.6041894 -0.57656133 -0.31130588 -0.26069048 -0.8283492 -0.42491302 -1.0799204 -0.36521634
-0.5589229 -0.33550045 -0.66347486 -0.45790958 -0.8272108 -0.6541275 -0.7745583 -0.39609855
-0.38649312 -0.4191801 -0.4558772 -0.46602967 -0.5123372 -0.74618226 -0.8003713 -0.3258336
-0.5642742 -0.52437705 -0.22000761 -0.9792849 -0.7271452 -0.5504766 -0.45353484 -0.56996393
-0.45336315 -0.39392066 -0.6120363 -0.5678968 -0.5441562 0.076756254 -0.4541738 -0.68993026
-0.443512 -0.5773528 -0.42438367 -0.30034772 -0.62494457 -0.1729894 -0.7166394 -0.28051507
-0.53888786 -1.0420285 -1.0296137 -0.28918442 -0.37385258 -0.38161635 -0.83868796 -0.52936375
-0.33169276 -0.5204312 -0.37447667 -0.51087046 -0.913646 -0.90814203 -0.69851977 -0.05336024
-0.1165874 -0.22439124 -0.050650287 -0.51287603 -1.072017 -1.1329608 -0.4892043 -0.29497403
-0.27389783 -0.43013313 -1.0116686 -0.651269 -0.47489163 -0.20337999 -0.53794503 -0.2223837
-0.4456358 -1.1025316 -0.33497724 -0.25799832 -0.44958356 -0.26212618 -0.49320677 -0.5626419
-0.7162823 -0.6595498 -0.40806797 -0.4619259 -0.17754291 -0.35725465 -0.80420786 -0.38319266
-0.5344243 -0.5455631 -0.46838734 -0.48812538 -0.45198092 -0.87587965 -0.61934954 -0.25971812
-0.45374843 -0.32467657 -0.38015813 -0.18099943 -0.14266503 -0.44991568 -0.2727663 -0.29115373
-0.4063012 -0.61250734 -0.5189192 -0.4741431 -0.29176554 -0.60493743 -0.13528341 -0.84572756
-0.05997652 -0.2586084 -1.0012008 -0.81741786 -0.8801738 -0.39275235 -0.62254053 -0.3350376
-0.3186923 -0.5318139 -0.2471375 -0.27257985 -0.72922516 -0.30554807 -0.30977657 -0.44911775
-0.5599618 -0.116593465 -0.7712707 -0.7553749 -0.5888841 -0.3166593 -1.0902975 -0.60300964
-0.48954543 -0.93398994 -1.1339296 -0.5071516 -0.48339537 -0.6379044

weight f4 [300, 150]
00000000: 6efb ad3e 3cf1 103e ad63 84bd 46ec 13bc
00000010: 9149 b13e b40a 7b3d fa32 403e a070 133c
00000020: 7323 873e 7b9f 03bf 32e3 4c3e fa25 773d
00000030: 1560 153e 7682 52be ba0c 803d 1037 53bd
00000040: 71c6 e1bc 9a3d 863e 9be2 193e e4bb 27be
00000050: 1c61 11be fca6 dc3e 6c6e 213f 7ff9 0f3e
00000060: 38e5 823e 8cc9 e03d 73b7 1bbd 585e 2f3e
00000070: 55fd ad3e 3149 7bbc f549 c83c 8377 cbbd
00000080: f84a 1e3e f22d 583e 4520 433d 96a4 103f
00000090: e343 663e b670 16be 74a6 8f3c 54e1 353e
000000a0: 5bb9 d33d c767 833e a45d da3d 6c0a a53e
000000b0: bd42 1f3e 3cd0 983d 7249 3e3e 3d37 f73d
000000c0: cc17 853e f1a7 033f 0301 003e 6f40 00be
000000d0: ac40 8abe e254 62bd b11c 9a3e e2b9 023e
000000e0: 460a 5dbd 6169 b03e e170 c6bc f7b8 153e
000000f0: 4c18 913e 8b62 503e e027 ce3d fc39 74be
00000100: 0e5b b4bd 1cd4 83bc ca4a 73be 1eea 28be
00000110: 3e0b fc3e edf0 0a3e 55b5 893e e377 79be
00000120: f523 573b 0279 8a3e f05d cf3e 5634 0a3c
00000130: cd04 fabc 962e 0abd c96c c73c 3f77 68bd
00000140: 45e2 e63e 901c 8b3d f30a 8ebd fcd8 413d
00000150: 1aca b93e cb38 9d3e 980b 813e af0d 24bd
00000160: d171 99bd 4130 293e 1092 f13d 5331 9cbd
00000170: b18c f5bd 7b90 36be 98db dd3c 8022 4f3e
00000180: 2d82 163e 345c 98bc c264 913e 8eb7 c23e
00000190: fca6 753e ee0c c13e 0650 2e3e 5fc9 0cbd
000001a0: 6f23 163d 0045 c53d 257d 4ebe d4f4 b83d
000001b0: 7972 91bd 75a7 4ebd 5f01 f33d a2d7 2cbd
000001c0: 588c 933b 975d 333d 81e7 403e 390d f03d
000001d0: 984c 3bbd 483f 263e c37c cf3d f868 85bc
000001e0: 09fd 623e 9933 223e 07c3 88bd 9ba2 dd3e
000001f0: 42e0 d43c 3bb6 29be 2451 7c3e 7b14 05be
00000200: c544 c93e 6255 843d 8e0c 23be 1d3a 553c
00000210: b968 b13e 33c1 473e eda4 63be 1480 be3e
00000220: b3c8 2a3e c3b5 abbd 1de6 9b3e bf49 0e3e
00000230: 01ea b03d bd7d 2b3f 935b cb3e 5f21 b33e
00000240: ebc4 a13e e556 21be 7fa2 9f3e fbc6 d33c
00000250: 56fb 49be 0e52 59be 1066 e3bd 50c7 bbbd
00000260: 1ec8 60be 4480 3cbd 34ca 903d 371a 7fbe
00000270: c05d 1b3f bde4 8bbe b683 08bf 958c 8d3d
00000280: d186 afbd cafe 4a3e 9c2f 1539 2938 6f3d
00000290: 3f22 47bf eb95 d63e bdf4 773e 7073 6bbc
000002a0: 93cc edbe f5f5 9d3e 0545 fdbe 0143 223e
000002b0: 8f66 ccbe 8711 05be a211 4cbe 9e25 aabd
000002c0: 3089 93be 8832 1e3e 218e 26be 644a 06be
000002d0: 6536 8bbe f38e 34bf db25 2e3e 145a d9be
000002e0: db3c ab3d 12c6 d9bd be56 88be d69d 063e
000002f0: f5b3 95bc 755e 71bf 3bf6 0cbe 9874 cabe
00000300: 2cc0 c23d e8e4 f43e f6c8 27bf 989a 343d
00000310: 27bd 10bc fc6b 99be a204 3ebd 2948 16bf
00000320: 8019 c9bd da1a 3ebd 1f81 35be ee8b 8dbe
00000330: b1a5 dabd de43 493d 87c6 683d f235 0dbf
00000340: 1322 4fbf 773f 043e e0db dcbd 627f 4d3e
00000350: a681 fdbe cbf6 9f3d 5e17 373e a0c6 39bd
00000360: 8acb 52bd 4717 51be 3b84 153e 4189 c0bc
00000370: a5b0 b8be 887c 533e fce7 d8bd 4177 97bd
00000380: fa32 be3e 9ae0 f83e 91dc 85be de37 253d
00000390: 9877 553d 8e86 e4bd d1cc efbe 9a99 79be
000003a0: 3a90 81be 1b5d 7d3e 378d b2bd 92eb 54bd
000003b0: 59e7 03bf 656c 08be cade 98bd 9a6f b13d
000003c0: fb9d 8e3c 9f6c 3cbe 9a54 463e 68d5 1e3e
000003d0: 7579 d5bb 3a3f 47bf 8912 c3be b524 a6be
000003e0: 41f3 fc3d 796a 13bf 16b4 383c d757 d03d
000003f0: 87fa 0d3e ad21 3abe 170b 48be 9ffe fdbe
0.33980888 0.14154524 -0.06464324 -0.0090285 0.3462644 0.061289504 0.18769446 0.00899902
0.26394233 -0.5141522 0.20008543 0.06033895 0.14587434 -0.2055758 0.062524274 -0.051566184
-0.027560445 0.26218873 0.1502785 -0.16380268 -0.141972 0.4309615 0.63059115 0.14060019
0.25565505 0.10975942 -0.038016748 0.17125833 0.3398234 -0.015337274 0.024449328 -0.099349044
0.15458286 0.21111277 0.047638196 0.5650114 0.22486834 -0.14691433 0.017535426 0.17761737
0.10338088 0.25665113 0.10662392 0.32234514 0.15552802 0.074615926 0.18582705 0.12071083
0.25994718 0.51428133 0.12500386 -0.1252458 -0.27002466 -0.05525673 0.30100015 0.12766221
-0.053964876 0.34455398 -0.024223747 0.1462134 0.2833885 0.20350091 0.10066199 -0.23850244
-0.0880643 -0.016092353 -0.23758999 -0.16495559 0.49227327 0.13568468 0.26896158 -0.2436214
0.0032827829 0.27045447 0.40501356 0.008435329 -0.030519867 -0.033735834 0.024343865 -0.056754347
0.45094505 0.06792557 -0.06935682 0.047326073 0.36287004 0.30707392 0.25204158 -0.040052112
-0.07492412 0.16522314 0.11795437 -0.07626595 -0.119897254 -0.17828552 0.02708225 0.20228004
0.14698096 -0.018598653 0.28397185 0.38030666 0.2398948 0.37705177 0.17022714 -0.03437173
0.036654886 0.09632301 -0.20164926 0.09031072 -0.07101912 -0.05045267 0.11865496 -0.04219783
0.0045028143 0.043790426 0.18838312 0.11721272 -0.045727342 0.16235077 0.10131218 -0.016285405
0.22166838 0.15839995 -0.066778235 0.4328812 0.02598584 -0.16573422 0.24640328 -0.12996094
0.3931028 0.06461598 -0.15922758 0.013014344 0.3465021 0.19507293 -0.22230883 0.3720709
0.16678123 -0.08384278 0.30449 0.1389532 0.08638383 0.66988736 0.39718303 0.34986398
0.3159555 -0.15755804 0.31178662 0.025851717 -0.19724783 -0.21222708 -0.11103451 -0.09168875
-0.21951339 -0.04602076 0.07069817 -0.24912344 0.60689926 -0.2732295 -0.53325975 0.069115795
-0.08570636 0.19823757 0.00014227483 0.058403168 -0.7778663 0.41911253 0.24214454 -0.014370784
-0.4644514 0.30851713 -0.4946672 0.15845872 -0.39921996 -0.12994967 -0.19928601 -0.08307956
-0.28815603 0.15448964 -0.16265155 -0.13114315 -0.27189937 -0.70530623 0.17006628 -0.42451537
0.08361217 -0.10633482 -0.2662868 0.13146147 -0.018274287 -0.94284755 -0.13765804 -0.3954208
0.0950931 0.47830892 -0.6554102 0.044092745 -0.00883416 -0.29965198 -0.046391137 -0.5870386
-0.09819317 -0.046412326 -0.17725037 -0.2764582 -0.106761344 0.04913699 0.056829955 -0.5516044
-0.8091137 0.12914835 -0.10784125 0.20068124 -0.49512976 0.07810744 0.17880008 -0.04535544
-0.05146364 -0.20419036 0.14601223 -0.023502948 -0.3607227 0.20652974 -0.105911225 -0.07395793
0.37148267 0.48608857 -0.2614484 0.040336482 0.052116007 -0.11158477 -0.4683595 -0.24375
-0.2530535 0.24742548 -0.08718341 -0.05198247 -0.51524884 -0.13322599 -0.07464369 0.086638644
0.017409315 -0.1840081 0.1936821 0.15511096 -0.006514723 -0.7783085 -0.3810008 -0.3244988
0.123510845 -0.5758434 0.011273405 0.10173004 0.138651 -0.18176909 -0.1953548 -0.49608323

bias f4 [300]
00000000: e7c4 bcbf 5563 ce3d edb3 1ebf 5a22 e9bd
00000010: da90 313d 2e6b bebd 550a 5e3d 0bd6 3bbd
00000020: a423 95be 10fb 063e de2c 253d 9678 51bf
00000030: b603 a43e bc8b 3fbe 05c3 09bf cc91 17bc
00000040: 8b0f 7d3b 2e0b 37bd 488e b1bf 21b3 7e3d
00000050: d718 333e 9b7c 39be cc0f da3d 4503 51bd
00000060: d302 b3be 5947 03bf cff3 08bf c885 c13d
00000070: ef38 043c 3d48 d3bd a931 183d c849 96bf
00000080: be5c b23d ca04 72bf 5f76 323e e6e6 00bf
00000090: 6ac0 b93d 6036 1ebe ef19 323e e9f5 33bf
000000a0: d482 f93d 8334 b1bf da83 7dbd e94e d63d
000000b0: 2710 c1be a774 24be a448 073e 14d9 cf3d
000000c0: e01f 8d3d d811 fb3d 800c b63d 44a6 9fbe
000000d0: 9ee1 85bb ef87 30bf cc35 ad3d 0e9c e5be
000000e0: 0ff9 80be 6596 873d 711a e6be ece0 c5bd
000000f0: 83ba 333e 8b59 fabe 24b4 0c3e 1997 a2bd
00000100: 7946 45be c1c4 a03d f5ad 8bba b95d 2bbe
00000110: a62a 19bd c779 013e 415f debe 8117 3d3e
00000120: 6fa3 3dbf df0b f7be b19b cd3d 6424 bcbf
00000130: e69b b83d 61af c83d 5530 573e 60a0 97bd
00000140: bcaf d3bd c044 ed3b 60fa 113d ee35 5abe
00000150: 6182 143e c5d6 b13d 32ce a23d d67b 10bf
00000160: f534 053e 28a9 01bf 22d6 adbf d0b4 f73d
00000170: a706 b8bc 6d38 5fbc 88ea 273e 0f8c 883d
00000180: b6a9 cc3a 593f cd3d 6903 00bf c38d b5be
00000190: 944c 24bf a175 0cbe 8333 d63d 38c1 4e3d
000001a0: 5f43 8dbd c087 98be ac2d c13d 97cd 313e
000001b0: ac45 c7be b303 06be 22eb 8a3d 972f 6d3d
000001c0: 8d14 a5bd 9fcb 8fbe 977c 103e 105f a1bd
000001d0: 41f4 0e3e 2888 843c 10a6 1ebf 9738 16bf
000001e0: 47ee 133e 5a01 16bb 73e1 41bd bfa0 8bbd
000001f0: 47a8 70bf 707f 15b8 f2b1 0ebf e3e0 f0be
00000200: b025 583d 49f7 a6bf b249 ee3c ea90 2d3d
00000210: d707 9f3d 01b9 a6be 3f57 5ebf 3732 5dbe
00000220: 89aa 9fbf efbb 9d3e c185 2cbe a7fd 74be
00000230: af14 0e3e 3e8c 363e 1aa2 f43c 0c25 92be
00000240: ebd9 d2bd 0499 363d 1ca4 c3be 78cd 13bf
00000250: 3dc2 d4be 96de ff3d aef2 1a3e c1e4 b1bf
00000260: d738 95be ecf4 e9be 280e e23d 4112 21bf
00000270: 676d 14bf d833 89bc 4ef1 0f3e f8c2 f33d
00000280: 8323 393c c8f2 9a3d e643 273e 3b55 383e
00000290: 5508 91bf f29d 92bf c64e e43d 5dad 143e
000002a0: 669c c1be 47ba d13d 8da1 efbe e901 88be
000002b0: beb1 dc3d 91d9 3b3d 4b5d 2bbf e6f6 f93d
000002c0: 707f 23be 5818 be3c 2e6c 643d bd44 2d3e
000002d0: 46c9 c93d 1a84 22bd 8152 4a3e 91f0 4c3d
000002e0: f6f9 393e b271 3dbf d621 db3d 4818 7dbe
000002f0: 5c8d 8d3d 0712 17bf 7458 11bf 5ddd 053e
00000300: f3eb 54be 8270 42bf 432d 323e 7efe 003e
00000310: 226e c6be 2dff 4cbd 15f4 bb3d c56f 09bf
00000320: ca43 91ba c066 2abf 22db 6ebf a167 0dbf
00000330: fcf8 84bd c9f6 6fbf dd31 3bbf 907a eebd
00000340: 8eab dcbe b0a2 afbd 6c0d 64be ac8f b1be
00000350: dcda adbd 64cb c0be cda9 a7be ca7a cd3c
00000360: 0850 2abf a8b9 f2bd a396 553e b2d7 97bf
00000370: 2e90 be3d a885 9c3d 5337 cfbf a82c c1bc
00000380: 66ef 383e 0d85 183e c075 14bf 8298 5abe
00000390: ef6b 1cbf 8a93 b3bd 0bf9 3dbf ec6f b53d
000003a0: d643 023c 203e aabe b936 f03d 2dfd 24bf
000003b0: ac58 753d 9720 46be aaac 043e eef2 70be
000003c0: 2bf1 e9be 2c82 303c 1633 fe3d b9ff e7be
000003d0: ea0e 9b3d 1c48 41bd 4163 b53d 7edf b1bf
000003e0: 6c5f 673d 3d19 a8bc 020e 2abc defc 8b3c
000003f0: aa52 143d 2456 d6bc 9c1c 433e f637 7ebf
-1.474759 0.1007754 -0.61993295 -0.11383505 0.04335103 -0.09297787 0.054209072 -0.045858424
-0.29128754 0.1318171 0.04032599 -0.81824625 0.3203408 -0.18705648 -0.538132 -0.009251069
0.0038614 -0.044688396 -1.3871546 0.06218255 0.17489944 -0.1811394 0.10647544 -0.05102851
-0.34963092 -0.5128074 -0.5349702 0.09449345 0.008070215 -0.10316513 0.037156735 -1.1741266
0.087090954 -0.9453856 0.17427967 -0.50352323 0.09069903 -0.1545043 0.17392705 -0.70297104
0.121831566 -1.384415 -0.06189332 0.1046427 -0.37707636 -0.16060124 0.13211304 0.10148826
0.06890845 0.12259263 0.08889103 -0.31181538 -0.0040857336 -0.6895742 0.084575266 -0.44845623
-0.25190017 0.06620482 -0.44942048 -0.09662041 0.17551617 -0.4889644 0.13740593 -0.07938976
-0.19265164 0.07850028 -0.0010656702 -0.16734971 -0.03739419 0.1264411 -0.43432048 0.18465997
-0.74077505 -0.48251244 0.100394614 -1.4698606 0.0901411 0.09799076 0.21014531 -0.07403636
-0.10336253 0.0072408617 0.035639167 -0.21309635 0.1450286 0.08683542 0.07949485 -0.5643896
0.13008483 -0.50648737 -1.3580973 0.12095034 -0.02246411 -0.013624293 0.1639806 0.06667339
0.0015614543 0.10021848 -0.50005203 -0.35459718 -0.6417935 -0.13716747 0.10459044 0.050477237
-0.06897616 -0.2979107 0.09432539 0.17363583 -0.38920343 -0.13087349 0.06783129 0.057906713
-0.080605604 -0.28085038 0.14110027 -0.0787946 0.13960363 0.016178206 -0.6197214 -0.586801
0.14446364 -0.002288899 -0.047334146 -0.06817769 -0.9400677 -3.5643054e-05 -0.55740273 -0.47046575
0.052770317 -1.3044215 0.029087875 0.04237453 0.07765167 -0.32563022 -0.86851877 -0.21601187
-1.2473918 0.30807444 -0.16847898 -0.23924886 0.13875078 0.17826936 0.029862452 -0.2854389
-0.10295471 0.04457952 -0.38211143 -0.57735395 -0.41554442 0.12493627 0.15131637 -1.3897935
-0.29144928 -0.45694673 0.11037856 -0.6291848 -0.57979435 -0.016748354 0.14056894 0.11902422
0.011299971 0.07565838 0.16334495 0.18001263 -1.1330668 -1.1454451 0.11147837 0.14519258
-0.37814635 0.10240608 -0.4680294 -0.26563957 0.10776089 0.045861784 -0.6693923 0.12205295
-0.15966582 0.023204967 0.05576723 0.16920753 0.09852843 -0.039676763 0.19758035 0.05003411
0.18161759 -0.7400161 0.10699813 -0.24716294 0.06911728 -0.5901188 -0.56775594 0.13072725
-0.20793132 -0.75952923 0.17400078 0.12597081 -0.387559 -0.050048042 0.09177414 -0.5368617
-0.0011082825 -0.66563034 -0.9330312 -0.5523625 -0.064928025 -0.9373594 -0.7312296 -0.11644471
-0.43099636 -0.08575952 -0.22270745 -0.34679925 -0.0848901 -0.37655175 -0.32746735 0.025082964
-0.6652837 -0.11851817 0.20858245 -1.18627 0.09304844 0.076426804 -1.6188759 -0.023580864
0.18060073 0.14894505 -0.5799217 -0.2134724 -0.61102194 -0.08768375 -0.74208134 0.08859238
0.007950744 -0.33250523 0.117291875 -0.64448816 0.059899017 -0.1934837 0.12956491 -0.2353017
-0.4569181 0.010773223 0.124120876 -0.45312288 0.07571204 -0.04718791 0.08856822 -1.3896329
0.056487486 -0.020519847 -0.010379316 0.01708835 0.036211647 -0.026164122 0.19053882 -0.9930414

weight f4 [100, 300]
00000000: de13 9bbd 3435 04be fb75 09bc f521 4d3c
00000010: d7a3 a9bd 1c9a 07bd 3d69 2c3c 5176 07bd
00000020: 8851 6ebc 6c0f dc3d ad7d 5fbd 8d2d bfbd
00000030: ebd1 77bd f9fc d2bd 343a 983d 246c fcbd
00000040: 0ebd cb3c ab15 b6bc 1a01 85bc ea4a cfba
00000050: 8cc9 27be f7f0 81bd 706f 4bbd 2a23 febd
00000060: 383b 2abd 1333 fbbd 8211 663c 5c58 4d3b
00000070: fe1d 80bd 1a7d a23d 8048 bbbd 52c8 173d
00000080: fe5b 6ebc 309b e5bd 825a f63c 3605 29bd
00000090: d20c 1ebe 2e3d 913d d6d2 5abd 4360 acbc
000000a0: 9a3e d5bc 8d33 85bd f539 8ebd a042 78bd
000000b0: 1fec ecbd ecab 0c3d 03c1 13be 45a0 1ebd
000000c0: 609f 86bd a760 0cbe f7fd f1bd a2e0 3cbd
000000d0: 5e5e 83bd 9617 1e3d ad9d b4bd 5c68 89bd
000000e0: f042 313d 565c 9b39 ecda a9bc 0ff9 3d3d
000000f0: 4ec6 99bd c2cc 7abd 1004 973c 606b ffbd
00000100: 590d e6bd 79ce 463c b416 1dbe 771c cdbd
00000110: f6d9 e2bd 5a6f e4ba b9ba c5bd fc44 16be
00000120: e005 f5bd 8b5c a03c e1ac 5abc 53b3 43be
00000130: ed8d 40bd c7b2 9cbc 3cdc 13bd 17fa cdbc
00000140: 5a46 50be e0a7 43bd 5cf4 f6bd 16e4 703d
00000150: bf24 1fbd 4e69 33bd afcc b93d 7f2a 12bd
00000160: ca63 52bd 9e73 e2bc 9f50 36be 7237 31bd
00000170: 6004 60bd 603c 37bd f331 553d d135 a8bd
00000180: 815a babd e977 41bd 0a4c 7fbd cf91 31bd
00000190: c88a d5bc be45 16be 147c c2bc 5795 4fbc
000001a0: 1612 863d df76 0abd e5ba bcbd 59e2 3ebd
000001b0: dcd0 90bc e3aa 73bd 2f74 7abd e911 693c
000001c0: 35d2 93bb d0fc 5dbd 601c 7b3a 224f 16bd
000001d0: 9db8 083c b391 933c 66fd 8abc 0764 913c
000001e0: 3dbe 923c 9af1 debd c22f 1abd 5514 64bd
000001f0: 5bdc 383d f2e8 afba a3fd 04be 7de7 a6bc
00000200: 2024 1cbe bba7 f0bd 6da3 d0bd 3e25 87bd
00000210: 0887 10bd 1506 c7bb 7df0 c73d a02a 12be
00000220: 8f7f 6fbe e5e5 ffbd 9c24 e73c 730c 0fbc
00000230: c359 cfbd eca4 4bbe ccf5 f7bc 6a8d 58bb
00000240: 7204 a7bd 7632 0fbc 5074 69bd 9498 bdbd
00000250: 378e a4bc a9d9 babd 719f cdbc cee8 0ebd
00000260: 3151 97bb 6de9 9dbd c3ae 8abd 4d3d d63d
00000270: 296f 23bd 42d3 853b 953e 81bd ac80 00be
00000280: 9cfd 85bd 2bb0 52bd e20a 9cbc 4f39 4cbd
00000290: 649e 1bbe afd1 ffbd 5d53 acbd 5599 93bd
000002a0: 6a63 be3d 030f a2bd 6bf2 48bd b0b8 25bd
000002b0: f817 9dbc 92a5 07be b836 5abc 4254 1fbd
000002c0: b18c b1bc dfd5 d5bc 96a9 2bbc 6b61 d6bc
000002d0: 912c e0bd 0a4c c839 a45d cebd 0a89 903d
000002e0: ec5b f6bd 2dbd b5bd afc8 b6bd 55f2 b3bd
000002f0: 134f 94bd ff7a 61bc 43db 8b3b a283 06bd
00000300: 42bd 663d b88b 9a3c 469c 553c 5729 87bd
00000310: 19b8 133d 15ff 2fbd a0b8 bb3b c6fe c5bd
00000320: 935b 06bc 8022 b23c f315 90bd a4f2 43be
00000330: fc7e 2ebd 12c3 2f3d 0a7a 1cbd da99 7a3b
00000340: 1b13 aabd b766 02bd a68f 34bd 3a8c f2bc
00000350: 65b9 3dbd 2e85 0abd 8e8c d53b 566b b5bd
00000360: cc62 ca3c e6c9 043e 98f1 45bd fb77 46bd
00000370: f02b 90bd 10dc 2fbd cad2 66bd 0882 9abb
00000380: 58c5 06bd c2f3 4fbd f583 48bd 452f 0ebe
00000390: 28a2 073d a229 96bc 55f3 e3bd debe 10be
000003a0: 422f 7cbd fe9c 19bd 4575 863c bda5 43bd
000003b0: c7d6 ebbc c3ee d3bc 52ae 053d f90d 80bd
000003c0: a723 bdbd 49d3 6cbd 449b 85bd 17d5 d7bd
000003d0: bea3 153d 2478 66bd 90b1 50bd 363f b3bd
000003e0: a813 89bd 8104 233d 5d96 80bd f432 a23c
000003f0: f73a 97bd 70ed 0cbe 3f04 1abd 3b6f f0bd
-0.07572149 -0.1291092 -0.008389945 0.012520303 -0.08283203 -0.033105955 0.010523138 -0.03307182
-0.014545806 0.10745129 -0.054563213 -0.0933486 -0.060502928 -0.10302157 0.07432976 -0.12325314
0.024870422 -0.022227129 -0.016235877 -0.0015815173 -0.16385478 -0.063447885 -0.049666822 -0.12409051
-0.04156038 -0.12265601 0.01404226 0.0031333184 -0.062557206 0.079340175 -0.09144688 0.037056275
-0.0145483 -0.1121124 0.030072454 -0.041264735 -0.15434578 0.07091747 -0.053423725 -0.021041995
-0.026030827 -0.06503973 -0.06944648 -0.060610414 -0.11568474 0.034343645 -0.14429097 -0.038727064
-0.06573367 -0.13708745 -0.11816018 -0.046112664 -0.064144835 0.038596712 -0.08819137 -0.06709358
0.043276727 0.000296327 -0.020734273 0.0463801 -0.07508527 -0.06123043 0.018434554 -0.12471652
-0.112330146 0.012134188 -0.15340692 -0.10015195 -0.11076729 -0.0017428205 -0.09654755 -0.14674753
-0.11964011 0.019575378 -0.013346882 -0.19111376 -0.04701035 -0.019128216 -0.036098704 -0.025143666
-0.20339337 -0.04776752 -0.120583266 0.05881127 -0.038853403 -0.0438016 0.090722434 -0.03568506
-0.051364698 -0.027643021 -0.17804192 -0.043265767 -0.054691672 -0.044735312 0.05204959 -0.0821339
-0.090992935 -0.047233496 -0.062328376 -0.043351945 -0.026067153 -0.14675042 -0.023740806 -0.012669883
0.06546418 -0.03380477 -0.09215335 -0.04660258 -0.017677717 -0.059489142 -0.061145958 0.0142254615
-0.0045111426 -0.05419618 0.00095791183 -0.03669656 0.0083447965 0.01801381 -0.016966533 0.017747892
0.017912978 -0.108859256 -0.0376432 -0.055683453 0.045132022 -0.0013420864 -0.1298738 -0.020374054
-0.15248156 -0.11750742 -0.10187421 -0.065989 -0.035285026 -0.006073723 0.097626664 -0.14274073
-0.23388503 -0.12495021 0.028215699 -0.0087309955 -0.101245426 -0.19887131 -0.030268572 -0.0033043274
-0.08155145 -0.008740058 -0.05699569 -0.092576176 -0.020087345 -0.09123547 -0.025100442 -0.03488999
-0.004617833 -0.07710538 -0.067716144 0.10460911 -0.039900932 0.004084022 -0.06310765 -0.12549084
-0.06542513 -0.051437538 -0.019048158 -0.04985934 -0.1519714 -0.12491166 -0.08414338 -0.0720698
0.092963055 -0.079130195 -0.049059313 -0.040459335 -0.019176468 -0.13246754 -0.01331871 -0.038898714
-0.021673532 -0.026102958 -0.010477444 -0.0261695 -0.10946 0.00038203626 -0.10076454 0.07057388
-0.120292515 -0.08873973 -0.08924996 -0.087864555 -0.07241645 -0.013762235 0.0042680814 -0.03284038
0.056332834 0.018865451 0.013037747 -0.06599682 0.03606424 -0.042967875 0.005728796 -0.09667735
-0.008200544 0.021744967 -0.070354365 -0.19135529 -0.04260157 0.042910643 -0.038202323 0.0038238675
-0.08304425 -0.031836238 -0.044082306 -0.02960788 -0.046319384 -0.033818416 0.0065169996 -0.08858363
0.024705313 0.12967643 -0.048326105 -0.048454266 -0.070396304 -0.042934477 -0.056353368 -0.004715208
-0.032903045 -0.050769575 -0.04895397 -0.1388522 0.03311363 -0.018330399 -0.11130396 -0.1413531
-0.061568506 -0.037503235 0.01641334 -0.047765482 -0.028788937 -0.025870686 0.032636948 -0.06252665
-0.09235316 -0.057818685 -0.06523755 -0.105386905 0.03653311 -0.05626692 -0.050950587 -0.08752291
-0.06693202 0.039799217 -0.062786795 0.019799687 -0.073842935 -0.1376245 -0.037601706 -0.117399655

bias f4 [100]
00000000: 3925 bbbe 108c c03e 930c 983e 8127 16be
00000010: e12d 1e3e 6ef9 8c3e 0bc6 6abe 82b9 8d3e
00000020: 1b68 753e 386c 21be cdc3 803e 81e5 1f3e
00000030: 4dd4 6c3e 5226 833e 201c 503e 8bff 05bd
00000040: f965 dc3d 0875 25be 8b60 ce3d 3899 a43e
00000050: 5040 8cbe 04dc 0f3e dc56 62be b0ec 6abe
00000060: 12b4 95be 85de f4bd 0f96 213e 567d 593d
00000070: a449 95be 0241 963e 012a a0be b357 6e3e
00000080: af49 e4bd 53aa c73e 4c9a b83e 12f0 95bd
00000090: 13ee aa3e c042 93be 0701 28be a766 fbbe
000000a0: 6567 08be d263 3f3e 7f7a 6b3e fa2b bc3e
000000b0: 6737 8dbe c699 26be 66eb 6cbe 5d30 cbbe
000000c0: aaee 313e 27a3 3abc e7f1 a53e 1320 8b3e
000000d0: c662 12be 2f7b 103e 523c 9abe d751 b13e
000000e0: e9e1 b03e 3d43 e3bd 3ea7 0cbe 30cc a9bd
000000f0: 6ae3 e8bd ccf3 703e 2c2c bd3e 063b 08bf
00000100: d9c2 acbd 3d52 3cbe 4cff 903e 8382 33be
00000110: a8dd a7be 4b08 143e a094 f1be 0c69 52be
00000120: 980f 38be 796d 45be 1811 8e3e 27bf 913d
00000130: 98ec 80bd 72be f3bd a646 60bd 553b aebe
00000140: 9b63 993e 5cc5 36be db05 ab3e 4229 f73c
00000150: f3c7 963e df79 dfbe 132f 0cbe 4072 633e
00000160: 1d44 0e3e d0e4 28be fdd2 1dbe c4c0 9dbe
00000170: c50c a3be 5d5a e2bd 7849 a83e 6938 a6be
00000180: d1ff 863e 656d d7bc 32a8 4abe 04a8 debd
-0.36551836 0.3760686 0.29697093 -0.14663507 0.15447189 0.2753405 -0.2292711 0.27680594
0.23965494 -0.15763938 0.25149384 0.15614893 0.23127861 0.25615174 0.20323229 -0.032714408
0.10761637 -0.16157925 0.10077008 0.32148147 -0.27392817 0.14048773 -0.22103447 -0.22941852
-0.29238945 -0.11956505 0.15779899 0.053098045 -0.29157746 0.29346472 -0.31282046 0.23275642
-0.111468665 0.38997135 0.3605522 -0.073211804 0.3338476 -0.28761864 -0.16406642 -0.49101755
-0.13320692 0.18690422 0.22995947 0.367523 -0.2758133 -0.16269597 -0.23136672 -0.39685336
0.173762 -0.011391438 0.3241112 0.27172908 -0.14295492 0.14109491 -0.30124146 0.3463275
0.34547356 -0.11096809 -0.13735673 -0.08290899 -0.11371501 0.23530501 0.36947763 -0.5321506
-0.08435602 -0.18390746 0.28319776 -0.17530255 -0.32786298 0.14456289 -0.47183704 -0.20547885
-0.17974699 -0.19280042 0.27747416 0.071165375 -0.06295127 -0.11901559 -0.054754876 -0.34029642
0.29958805 -0.17848724 0.33402905 0.03017104 0.29449424 -0.43647668 -0.13689832 0.22211552
0.1389317 -0.16493535 -0.15412517 -0.3081113 -0.3184568 -0.11052392 0.32868552 -0.32464913
0.26367047 -0.02629728 -0.19790724 -0.1087189

weight f4 [9, 100]
00000000: e61a 84bd 0e64 0cbe d5a9 dd3d b5fd 23be
00000010: 0779 f03c ae16 10bd 123d 6cbd 96b9 693d
00000020: 1eed bcbb b8c2 31bd c78a 30bd 2008 ec3d
00000030: 7d4e 8bbe a73b 023d 1493 3c3d babf 84be
00000040: de30 1cbe bb40 89be 52ac 4ebe 05e9 093d
00000050: e44c a2bd b43a d3be a597 b1be 488f 64be
00000060: 1fe5 d5be cf54 cc3c 354b 0abd 7b49 12be
00000070: 2114 92be 3264 12bc 8706 18bf 6cbf a3bd
00000080: 3783 76be 7279 973b 02d1 3bbd 5620 7ebe
00000090: fcc3 d53d fdab 7ebe 09fb 8bbe 5636 1cbf
000000a0: 06e1 dbbd 4812 e038 15b0 ae3d 05a1 c03d
000000b0: a85e 2bbf 9181 8ebe 6870 c43b 56ba e5be
000000c0: 1215 cbbd fd40 38be 1276 a0bd 1156 213c
000000d0: d9eb 22be ccc1 263e adb8 ffbe 01ae ba3c
000000e0: dce7 13bc f6a2 fbbd 6a36 82be 46dd 7abe
000000f0: b423 81be 1e70 0ebe 7351 21bd 75ba 85be
00000100: f6a6 86be c8bd 4bbe 032c 97bc e330 2abe
00000110: ece1 a2be e293 dbbd 693d 4ebf 3983 82be
00000120: cdbb 06be f194 29be 7296 3e3d 8114 70be
00000130: 0702 1fbd cc73 6bbd c25a d8be 5d94 3fbf
00000140: 3dea 41be 3662 2ebe 9b8f f4be a7b5 5bbe
00000150: 23af 2b3d e526 35bf f065 27be 1c5f 3f3e
00000160: 0ed4 70be f286 07be 69f2 3bbe dd83 90be
00000170: 7fbe 20bf 29b0 79be 2d56 12be ec13 69bf
00000180: 0ff2 613c 3729 4bbe 5662 1abe ecf4 73bd
00000190: a88b 42be 3d4a 1cbe 6fd9 113d bf64 64bd
000001a0: 4297 52be 7e91 cebd 7df4 18be 3e25 d1bc
000001b0: dca6 a2bd a11b a73c e123 d6bd 8812 5f3d
000001c0: 0bc5 d9be 4286 57be a201 44be d295 3cbe
000001d0: 94c5 03be 2061 d1bd 1ef8 d9bd 9b67 0abd
000001e0: cfbe 0cbe b364 03bf fa2d 0b3d 91a6 f0bd
000001f0: 91c3 1bbf 65eb f4bc 3e18 bcbd 2b61 32be
00000200: 64e7 9bbd bc81 60bd 431f 0cbf 22d7 d5bd
00000210: 432e 0ebe a965 0e3c c5fc c9bd 07af 05be
00000220: 0ef4 3abd 3839 53be b333 f4bd 9ed1 a9be
00000230: 6ab6 c038 a6eb eebc 18d1 18bd e19c 07bd
00000240: 4b1b 2dbf 67bf 26be c2ba 93bc df05 fbbe
00000250: fdc9 26be 49e2 22be 941c 03be 6928 a23c
00000260: b57b b0bd 5185 50bd 245d 1dbf b3cb 883c
00000270: 6b03 b2bd f15f 5cbd c5e7 e6bd b1a6 25bd
00000280: cb1d 04be 96fc 2fbd a5b0 9ebd 4ee2 02bf
00000290: 4b44 3fbe ae1c c5bd 5724 57bd cb89 e5bd
000002a0: a615 c0be 8d17 64bd 8a51 33bf 0482 9cbe
000002b0: 6873 23bd fede 86bd bc21 dbbc 53c4 c5be
000002c0: a101 c13b 861c cebb 1366 12bf 6901 85bf
000002d0: 4e5c 5dbe 903a 5cbd 9dc4 03bf df1b 22be
000002e0: ca17 95bc 27f5 3abf 398a dabd 7d7f 153d
000002f0: a0a3 68be 3674 48bd 0466 5cbd f2a6 2abf
00000300: eb57 d8be 1979 24be e72d 1bbe a60a 43bf
00000310: ef02 96bd d0a1 26be e5a8 eabc c1f3 1a3a
00000320: 21c9 c2bd 56e7 52be 8d85 003c 1085 11bd
00000330: ba9e 17be cf32 0fbe 5fd9 7abb 19df 4dbd
00000340: a282 8ebd 37fc db3a e2d6 2ebe 957c 1ebe
00000350: f180 c3be 22c2 c7bd e1b4 64be ecfb dbbd
00000360: 447d a2bd 7423 6bbd 6b01 5ebc 5418 bcbd
00000370: 33f1 cebd db88 0dbf 20e8 f4be c9e0 d4bc
00000380: af89 fcbe d27c 3bbb a120 cbbd e1a0 07bc
00000390: 4ee6 8bbe 7632 a7bd 139d 10bf dffa 64be
000003a0: 89df fabc 65a6 70bc fdde d8bd 8855 19bd
000003b0: 00e3 a7bd c3f8 6cbe f242 90bd d33b e7be
000003c0: b1e2 11bd 39a8 1dbe 475c b0bd 1531 33bd
000003d0: d525 efbe 5145 47be 96d3 303d 7837 bcbe
000003e0: 8eab 0fbe 1a4d b6bd 870a 7abe e091 92bd
000003f0: b5c6 d2bc 29f7 d4bd 560a 09bf f907 743c
-0.06450443 -0.13710043 0.108234085 -0.1601475 0.029354585 -0.03517788 -0.05767543 0.057061754
-0.0057655713 -0.04339859 -0.0431011 0.11524987 -0.2720832 0.03179517 0.046038702 -0.25927526
-0.15253016 -0.26807198 -0.20182922 0.03366949 -0.07924822 -0.41255724 -0.34686008 -0.22320282
-0.41776368 0.024942784 -0.03376313 -0.14285843 -0.28530982 -0.008935021 -0.5938496 -0.07995495
-0.24073492 0.0046226317 -0.045853622 -0.24817023 0.10437772 -0.24870296 -0.27339962 -0.6102041
-0.10736279 0.000106845575 0.08529679 0.09405712 -0.6694131 -0.27833226 0.005994845 -0.44868726
-0.09916128 -0.17993541 -0.0783502 0.00984718 -0.15910281 0.16284865 -0.49945584 0.02278805
-0.009027448 -0.12286942 -0.2543214 -0.24498472 -0.25222552 -0.13909957 -0.039384317 -0.26118818
-0.26299256 -0.19896615 -0.018453604 -0.16620211 -0.3181299 -0.10721566 -0.80562454 -0.2549074
-0.13157578 -0.16560723 0.046530195 -0.23445322 -0.038820293 -0.05748348 -0.42256743 -0.7483576
-0.18937011 -0.17029652 -0.47765812 -0.21456014 0.04191507 -0.70762473 -0.1634748 0.18688625
-0.23518392 -0.13235071 -0.18354191 -0.28225604 -0.62790674 -0.24383606 -0.14290686 -0.91046023
0.013790621 -0.19839941 -0.15076575 -0.059559748 -0.18998587 -0.15262695 0.03560775 -0.05576014
-0.20565513 -0.10086344 -0.14937015 -0.025530454 -0.07941982 0.020398917 -0.10456062 0.054461032
-0.42533144 -0.21047309 -0.19141248 -0.18416527 -0.12868339 -0.10223603 -0.10643028 -0.033790212
-0.13744663 -0.5132553 0.033979394 -0.1175052 -0.60845286 -0.029897401 -0.09184311 -0.17419879
-0.07612494 -0.054811224 -0.547352 -0.10441424 -0.13884835 0.00869123 -0.09862665 -0.13055049
-0.045642905 -0.20627296 -0.11923923 -0.33167738 9.189251e-05 -0.0291651 -0.037308782 -0.033108596
-0.6761977 -0.16283952 -0.018033389 -0.49027917 -0.1628799 -0.15906633 -0.1280387 0.01979466
-0.08617345 -0.05090839 -0.61470246 0.016698694 -0.08692058 -0.053802434 -0.11274675 -0.040442172
-0.1290199 -0.042965494 -0.07748536 -0.51126564 -0.18678395 -0.09624611 -0.05252489 -0.112079225
-0.37516516 -0.055686522 -0.70046294 -0.30567944 -0.03990498 -0.06585501 -0.026749484 -0.38626346
0.0058900868 -0.0062900214 -0.57187 -1.0391055 -0.21617243 -0.053766787 -0.51471883 -0.15830944
-0.01819982 -0.7303032 -0.10670895 0.036498535 -0.22718668 -0.048938952 -0.053808227 -0.6666099
-0.42254576 -0.1606182 -0.15154229 -0.76188123 -0.07324778 -0.16272664 -0.028644988 0.0005910956
-0.095110185 -0.2059606 0.007844341 -0.03552729 -0.14806643 -0.13984226 -0.0038276536 -0.05026159
-0.0695851 0.001678354 -0.17074159 -0.15477212 -0.38184312 -0.09753825 -0.22334625 -0.1074141
-0.07934049 -0.057406858 -0.013550143 -0.09184328 -0.10104599 -0.5528695 -0.47833347 -0.025986092
-0.49323794 -0.0028608334 -0.09918333 -0.008278103 -0.27324146 -0.081639215 -0.56489676 -0.22361325
-0.030624168 -0.014688109 -0.10589407 -0.037435085 -0.08197594 -0.2314177 -0.07044019 -0.4516283
-0.03561658 -0.15396203 -0.086113505 -0.04374798 -0.4670855 -0.19460036 0.043170534 -0.3676107
-0.14030287 -0.08901425 -0.24418078 -0.0715673 -0.025729517 -0.103987046 -0.53531396 0.014894479

bias f4 [9]
00000000: 216c 82bd 5739 d13c 7ab7 bfbb 5c01 8abc
00000010: 5978 7b3b 2364 4b3a 331a f63c 6fdb a73d
00000020: 62c9 76bd
-0.0636828 0.025540037 -0.0058507295 -0.016846351 0.0038371293 0.0007758757 0.03004179 0.081961505
-0.060250647
