models/classifier_143features_143x286x100_0.001lr_50e_0.5dropout_64bs_kaiming.pth (torch_old, 370127 bytes, 8 tensors)

weight f4 [143, 143]
000000 db e7 aa 3e 04 2d 88 be 1e 6d f3 3e ec dc 81 bd
       0.33380017 -0.26596844 0.47544187 -0.06340966
000010 01 f6 a6 be f9 d8 ef bd c1 01 44 be 5c f4 c8 3e
       -0.3260956 -0.11711306 -0.19141294 0.3924893
000020 bd e6 b1 3e ce e7 1c 3d be d0 47 3d 43 0d 40 3e
       0.34746352 0.038307004 0.048783056 0.18755059
000030 3c fe 51 bd a0 6c 86 be 4a 8c f1 be 1d 87 1e bd
       -0.051267847 -0.2625475 -0.47177345 -0.038703073
000040 09 f3 98 3e c8 02 f3 3d 73 a4 58 3e f7 c6 66 3e
       0.2987292 0.11865765 0.21156482 0.22536837
000050 b7 75 cf 3d 5e 25 01 bc 2b 0b a5 3d 80 bf 78 3d
       0.10129874 -0.007882444 0.08058771 0.060729504
000060 cf 42 88 ba a6 72 4c bd 48 d7 2e 3e 00 cc 5e 3e
       -0.0010395887 -0.049914025 0.17074311 0.21757507
000070 4c 64 2f be 7f af 8b be 6f 5b bb bd d1 c7 21 be
       -0.17128104 -0.2728233 -0.09148299 -0.1579888
000080 ce 1f 1e 3e a3 46 cc 3d 65 7d 97 be b1 cf b8 3d
       0.1544182 0.099744104 -0.29587856 0.09023989
000090 30 3a 6a 3d 35 e3 38 3d bb 25 30 3e dc 37 f3 bc
       0.0571844 0.045138557 0.17201893 -0.029689722
0000a0 f7 fb cd 3d a5 c8 d1 bd 21 c4 b5 3d 29 9e 36 be
       0.10057824 -0.10243348 0.08875299 -0.17833771
0000b0 19 51 cf bd 58 d4 90 3c 6d 68 0f be 20 f7 88 be
       -0.1012289 0.017679378 -0.14004679 -0.2675104
0000c0 b5 3f 3c be 06 85 44 be bd 7f 2e be 8b 9d 6e bd
       -0.18383677 -0.1919137 -0.17040916 -0.058255713
0000d0 e7 89 c2 bd 5d 94 cb be f9 be 9c be c8 53 35 be
       -0.09498959 -0.3976163 -0.3061445 -0.17707741
0000e0 69 61 15 be b5 35 fa 3d 65 5f 72 bc 66 30 8b 3c
       -0.1458794 0.12217275 -0.014793252 0.016990852
0000f0 09 ef 9a be d5 c4 4c be 16 8a 0f 3e 79 60 0b 3e
       -0.30260494 -0.1999696 0.1401752 0.1361102
000100 14 41 30 bd f8 f7 d6 3d 6c ad 79 be 12 32 f7 3e
       -0.043030813 0.10496515 -0.24382561 0.48280388
000110 21 0a 81 3e 33 93 82 be 91 75 43 be d8 42 c8 bc
       0.2520304 -0.2550293 -0.19087817 -0.024445936
000120 12 e1 1f 3e 6d b3 54 bd b0 00 fd 3d 9e 25 12 3e
       0.15613201 -0.051928926 0.12353647 0.14272162
000130 5a 2f e1 3d b7 08 bb bd 63 1f 86 3e e6 73 ff 3c
       0.1099536 -0.091325216 0.2619582 0.031183194
000140 79 0a 1a 3d b2 2e 67 3e 32 25 0a bd 86 82 59 3e
       0.037607644 0.22576407 -0.03372688 0.21241197
000150 a1 3f 89 3d 0c fd 4e 3e 97 1d 2b bd 02 64 6a bd
       0.067015894 0.20213717 -0.041776266 -0.05722428
000160 e2 eb d9 3c c9 f4 f5 3d da 5e 69 3d d4 f3 67 be
       0.026601736 0.1200958 0.056975223 -0.22651607
000170 48 96 d7 bc cb 59 23 3c c3 76 64 bd 7e 91 16 3e
       -0.026316777 0.009970139 -0.055777323 0.14703938
000180 01 40 a1 3e c7 83 9e 3e f2 e0 4d 3e e7 2f e3 3c
       0.31494144 0.30959913 0.20105341 0.027732803
000190 e2 cc a3 3d b1 96 cc 3d 9f 35 2b be 34 32 f9 3d
       0.07998063 0.099896796 -0.16719674 0.121677786
0001a0 8e 1a 2a bd 43 47 24 3f 4d ac 61 3e 09 e7 a7 3e
       -0.04152923 0.64171237 0.22038384 0.32793453
0001b0 2d 4f e5 3c 35 4a 05 be f1 38 a8 3e 80 0d 83 bd
       0.027991856 -0.13016589 0.32855943 -0.06399059
0001c0 41 58 90 3e 2c 20 9b 3c e9 28 03 be 78 d4 d1 be
       0.28192332 0.01893624 -0.12808575 -0.40982413
0001d0 a3 24 71 bc c8 e8 46 be 64 9f cb 3d 0d 47 30 be
       -0.0147182075 -0.19424736 0.09942511 -0.17214604
0001e0 72 9b 3c 3e ca 2d 8d 3d 45 5a 4c be 92 61 fe 3c
       0.18418673 0.06893499 -0.1995631 0.031052385
0001f0 45 0b e3 be f7 7a c8 be 16 fb dc bd 3c 80 13 3e
       -0.44344535 -0.39156315 -0.10790078 0.14404386
000200 5c 8d 2c 3e 8c c2 90 bd 0c b2 72 bd 75 f7 9d 3d
       0.168508 -0.07068357 -0.05925183 0.07713214
000210 ec 6c 0e 3d 36 87 15 be 00 89 4e 3e 1f 5e a9 3e
       0.034771845 -0.1460236 0.20169449 0.3307962
000220 a8 56 12 3e b2 f0 b3 be 7b 59 dd ba c0 f6 6a 3e
       0.14290869 -0.35144573 -0.0016887629 0.2294569
000230 6a c1 39 3e 48 1b b9 bc 07 1b c7 3d 51 52 eb bc
       0.18140188 -0.022596017 0.09721952 -0.028725775
000240 46 90 b0 3e 21 9d a9 bc 24 80 09 bd b5 48 68 bd
       0.34485072 -0.020704808 -0.03356947 -0.056709964
000250 02 ce 57 bc d3 91 14 3c b3 f3 74 3e 22 d9 66 3e
       -0.013171675 0.00906797 0.23921089 0.22543767
000260 57 c7 82 3c ad 77 e5 3d 23 c0 39 be 47 55 3b be
       0.015964193 0.11204467 -0.181397 -0.1829425
000270 fd d5 35 3e ab ef ab 3e e5 ad a1 3d b6 25 37 be
       0.17757411 0.3358129 0.07894496 -0.1788548
000280 7e 7d 8c bd 5d 66 a2 3e 76 f8 dd 3d ef a7 0b 3e
       -0.06859873 0.31718722 0.10838406 0.1363828
000290 11 70 05 3d f8 05 5f 3d d8 9e 39 be 04 3b be bd
       0.032577578 0.05444905 -0.18127 -0.092886
0002a0 5b b2 7c bd a8 88 3a be 4d 82 fb 3a 46 a6 13 3e
       -0.06169353 -0.18216193 0.0019188613 0.14418897
0002b0 db d9 19 be c5 5e 8d bd ae 4e 62 be ac f1 32 3e
       -0.15024512 -0.069028415 -0.22100326 0.17475003
0002c0 af 7a 84 3e b5 67 83 3e d0 53 80 3c b2 72 bd 3d
       0.2587485 0.2566506 0.015664965 0.09250392
0002d0 13 a3 88 be 5e 11 7d be 0a 40 1e be 45 ff 02 be
       -0.26686916 -0.24713656 -0.15454116 -0.1279269
0002e0 bb 17 58 bd cd 6e ca bd 27 10 5e 3e b1 20 18 be
       -0.052757006 -0.09884415 0.21685849 -0.14856221
0002f0 4f 65 44 be 36 ed a5 3d 44 74 56 3e 14 8d 73 bd
       -0.19179271 0.08101885 0.2094279 -0.059460714
000300 ff 9b 98 be 1a 68 2b 3d 6d 22 76 3e bf 7d 79 3c
       -0.29806516 0.041847326 0.2403657 0.015227734
000310 c5 67 b9 3e fe 16 1f be 15 3e 0c 3e cb 8a 8d 3d
       0.36211982 -0.15536115 0.13695557 0.06911238
000320 87 e2 6c 3e 59 60 f6 bd ea 44 f0 bd af be 2c be
       0.23133288 -0.120300956 -0.11731894 -0.16869615
000330 21 cb 23 3e 1e 5d 7c be 75 be b6 be 17 a9 06 3e
       0.15995456 -0.24644896 -0.35692182 0.1315044
000340 35 15 5d 3e 33 ce 43 3e 16 60 73 3e 45 63 a9 be
       0.21590121 0.19121628 0.23767123 -0.3308355
000350 bf 24 f7 bc 1d 5d b9 be f7 f9 89 3e b2 48 59 be
       -0.03016889 -0.36203852 0.2694852 -0.21219137
000360 69 25 16 bd ec 02 8a bd 21 53 af bd 1e 8f 28 be
       -0.03665677 -0.067388386 -0.085607775 -0.16460845
000370 f4 c8 c7 3d 0e 46 81 3d ac 5c 8f 3d 21 13 28 3c
       0.09755126 0.0631219 0.07000098 0.010258467
000380 e5 ee 1e 3e 8d 29 b3 3d fb 0f 06 3e 42 5b 64 3e
       0.15520819 0.087481596 0.13092034 0.22300437
000390 68 66 ad 3e 30 98 8c 3e a5 c6 78 3e 1e e8 0f 3e
       0.33867192 0.2745986 0.24294527 0.1405339
0003a0 b2 d0 05 3e 4c 93 9e 3b ef 60 67 3d 9d 99 e4 3d
       0.13067892 0.0048393365 0.056488927 0.11162112
0003b0 22 51 44 3e 2f a1 7e be 6c ec ef bd a2 a0 88 3e
       0.19171575 -0.24866174 -0.11715016 0.26685053
0003c0 59 a2 ac bd 1b f1 89 3e 45 c5 77 3e 4a 58 5b 3e
       -0.08429403 0.2694176 0.24196346 0.21420398
0003d0 27 21 49 3e 48 d7 5c 3e 1c 5f c5 bd f7 ce c2 3c
       0.19641553 0.21566498 -0.09637281 0.02378033
0003e0 17 f0 20 3c 85 34 99 bd a0 c4 86 3c 9a f1 82 3e
       0.009822867 -0.074807204 0.01645118 0.25574952
0003f0 e1 00 5e 3e f1 f2 93 3d 36 b1 18 3e b5 56 fb 3b
       0.21680023 0.07224072 0.1491135 0.0076702484

bias f4 [143]
000000 a7 70 c7 be fa fb c1 be 13 37 d0 ba 43 22 81 be
       -0.38953134 -0.37887555 -0.0015885554 -0.25221452
000010 b1 4c d7 be 6d b3 9c be d8 cb 77 be ed d2 f5 be
       -0.42050698 -0.3060564 -0.24198854 -0.48012486
000020 d7 5a a1 be eb 6c 9d be 02 27 3f bc 8e 96 51 be
       -0.31514618 -0.3074716 -0.011667015 -0.20467588
000030 7f 22 97 be 8f dd 36 bf 4b b4 20 bf 0a 3d 96 be
       -0.29518506 -0.7143182 -0.62775105 -0.29343444
000040 e2 3b ca be a1 f0 0b bf 4a f6 bc be f4 94 38 be
       -0.39498812 -0.54664046 -0.36906654 -0.18025571
000050 2b 4c 4a bf 1a ed c3 bd d0 ba 14 be 64 3d 50 3e
       -0.79022473 -0.09566708 -0.14524388 0.20335919
000060 b3 69 bd be 9a 81 d4 bd 3b ce 47 be bd bd e2 bc
       -0.36994705 -0.10376282 -0.19512264 -0.027678365
000070 2a e4 c4 be f5 8a 08 be 00 83 92 be 00 27 82 3e
       -0.38455325 -0.13334258 -0.2861557 0.2542038
000080 ab 92 0b bc c9 a9 f9 be c8 ca 31 bf f7 1e f8 be
       -0.008518855 -0.48762348 -0.69450045 -0.48461124
000090 37 d6 f1 be 21 65 d6 be 9b 51 4b be a0 c7 fd be
       -0.47233745 -0.4187403 -0.19855349 -0.49566364
0000a0 e6 7d c8 bc a2 48 dc be 4b 80 8c be 2f bf 12 bf
       -0.024474096 -0.43024164 -0.2744163 -0.57322973
0000b0 3e 6d 0e bf e9 17 96 be dc 4f 1e bf 88 29 ed bd
       -0.5563544 -0.29315117 -0.61840606 -0.11580187
0000c0 17 e3 f6 be d7 74 26 bd 70 93 49 be 92 d8 0a bf
       -0.4822013 -0.04063877 -0.19685149 -0.5423671
0000d0 50 17 ca be d5 c3 3b be 81 00 ce 3d 88 1b f0 be
       -0.3947091 -0.18336423 0.1005869 -0.46896005
0000e0 69 aa 85 be a3 e5 22 3d 95 21 57 bf 9a a3 0f 3e
       -0.26106575 0.03976978 -0.8403562 0.14027253
0000f0 7a 0e 9c be c3 d3 c8 be a0 37 02 bf 8f e7 6a bd
       -0.30479795 -0.3922406 -0.50866127 -0.057349738
000100 78 e1 6b 3e 64 5e f3 be 68 f2 e9 be e1 f1 2b 3e
       0.23035228 -0.47532952 -0.45692754 0.16791488
000110 13 8c 00 3d a4 bf 19 bf 8d ce 3c bf 6a 97 22 bf
       0.031383585 -0.60058045 -0.7375267 -0.6351229
000120 ce c8 a3 be 88 71 af be 9f 31 20 3d ac 34 d5 be
       -0.3198914 -0.34266305 0.039109822 -0.41641748
000130 46 6f d8 be db 9d 17 bf 2b 9b e4 be 05 a3 0c bf
       -0.42272395 -0.59225243 -0.44649634 -0.5493625
000140 df c5 7d be 0a 6b 1b bf 60 09 69 be a1 18 09 bf
       -0.24782513 -0.60710204 -0.22757483 -0.53553206
000150 cd ab b9 be 7f 50 27 bf 3c 7d fd be f9 f8 91 be
       -0.36263886 -0.653572 -0.4950961 -0.28510264
000160 34 e3 8e be 7c 24 a3 be b8 c9 13 bf ad 3e 7d be
       -0.27907717 -0.31863773 -0.57729673 -0.2473094
000170 e3 9b 0e bf 73 f6 bc be 4d b5 94 be 76 67 cd be
       -0.55706614 -0.36906776 -0.29044572 -0.40117997
000180 3f 9a 78 be 1a ee 9a be f2 dd 91 3d 65 ae 80 be
       -0.2427759 -0.30259782 0.07122411 -0.25133052
000190 e8 eb ab be 93 4a ea 3d d3 a1 10 3d 11 70 34 be
       -0.3357842 0.11440005 0.035310578 -0.17620875
0001a0 cf e6 ce be aa 86 bf be 18 68 68 bd 71 1a f6 be
       -0.40410468 -0.37407428 -0.056739897 -0.48067048
0001b0 8f 9e ae be ef 32 a0 be 73 cb 05 bf 82 2e 85 3e
       -0.34105346 -0.3128886 -0.52263564 0.26012045
0001c0 d7 42 47 bf 58 77 aa be 27 53 3d bf 77 6a 0e bf
       -0.77836365 -0.33294177 -0.73955005 -0.556312
0001d0 81 54 62 be 60 47 97 3c e4 c9 86 be 82 2c 70 be
       -0.22102548 0.018466651 -0.26325905 -0.23454478
0001e0 4d 72 7b be 3f f2 f6 3d 95 51 a6 be ee 93 0f bf
       -0.24555321 0.120579235 -0.32484117 -0.560851
0001f0 42 97 75 be eb 1a 2d bf 1b 7d 26 bf f4 77 ee be
       -0.23983482 -0.676192 -0.65034646 -0.46575892
000200 30 ce 94 3e 5f 5b 89 be 63 29 a7 be c4 96 9c 3e
       0.2906356 -0.26827523 -0.32648763 0.30583775
000210 23 87 08 be f1 6d cd be a1 ee 89 be df 64 22 bf
       -0.133328 -0.4012294 -0.26939872 -0.6343517
000220 9c 97 ef be 43 24 1a be be 1a de be 9c 99 fb be
       -0.46795356 -0.15052895 -0.43379778 -0.49140632
000230 b0 b1 b4 be 13 6b ac 3c fb f6 96 be
       -0.35291815 0.02104715 -0.29485306

weight f4 [286, 143]
000000 6b 72 8a be 06 ed c3 3d 71 88 80 be 81 e5 97 be
       -0.2704042 0.09566693 -0.25104097 -0.29667285
000010 06 bb 97 3e ed 7b 56 3e 28 35 00 3e c8 05 39 3e
       0.29634875 0.20945711 0.12520278 0.18068612
000020 5b 47 96 bd 21 77 fe bc f4 23 15 3c be 65 0c be
       -0.07337829 -0.031062664 0.00910281 -0.13710687
000030 83 e8 5a be b1 8b 12 bd c6 e1 e1 be 2d 9d 20 3d
       -0.21377759 -0.03577775 -0.44117564 0.039212395
000040 1d 2d 3f 3b e3 d7 e4 bd 92 42 27 3e ac 6a 81 be
       0.0029171177 -0.111739896 0.16333988 -0.25276697
000050 9e 37 aa 3e cf e4 ab 3d 07 4b 21 bc 41 37 81 be
       0.33245558 0.08393251 -0.009844548 -0.25237468
000060 be d4 04 bf 35 49 7e 3e d1 3e b4 3d 9e ee 37 3d
       -0.5188712 0.24832614 0.08801044 0.044905297
000070 71 c5 9a be 8c 75 f5 bd 1b 91 01 3d e5 81 53 bd
       -0.3022876 -0.11985311 0.031632524 -0.05163755
000080 80 c6 c7 3e 32 f9 01 be 2d e7 43 3e c6 9c 09 be
       0.3901863 -0.12692717 0.19131155 -0.1343871
000090 ec 55 a1 bd b9 0e 90 be 49 e9 13 3d d0 da 29 3d
       -0.078777164 -0.28136232 0.03611115 0.04146844
0000a0 51 10 8e 3c 4a 10 ee bd 6d fe 6d bc fc 9b 16 be
       0.017341765 -0.11624201 -0.014525992 -0.14707941
0000b0 23 dd c5 be a0 62 96 3e a7 77 26 bd c7 b9 93 3d
       -0.38645276 0.2937212 -0.040641453 0.072131686
0000c0 0c 57 22 3e b9 59 0f be b4 6d 59 3d 2d 86 71 be
       0.15853518 -0.1399907 0.053083137 -0.2358634
0000d0 c6 ad a3 bd f5 b1 45 bd cf 65 40 bd 74 c4 7b 3e
       -0.07992129 -0.048265416 -0.046972092 0.2458666
0000e0 d5 f0 1c be 71 8e 46 3e c4 8b de bd eb 7d d0 bd
       -0.15326245 0.19390275 -0.10866502 -0.10180267
0000f0 34 28 80 be f5 43 4b bd 60 de f4 3b e1 5f 87 3e
       -0.25030673 -0.049625356 0.007472798 0.26440337
000100 a1 66 b3 3d e0 21 94 be 0c 6b 8a bd 8b 6a d4 3c
       0.08759809 -0.28932095 -0.06758699 0.02592971
000110 26 0d 95 3e a9 51 b1 3e 47 21 86 3d 52 00 9b be
       0.29111594 0.34632614 0.06549316 -0.30273682
000120 a2 72 85 3e aa 40 1e 3d b1 97 1e 3e c5 55 99 bd
       0.2606402 0.038635887 0.15487553 -0.07487062
000130 d0 04 8e 3e e1 1d 3e be 9b 22 b4 be 30 62 08 3f
       0.27738047 -0.18566085 -0.35182652 0.5327482
000140 22 7c 5e be 67 7b 10 3e ff db d6 3c dd a7 c2 3b
       -0.2172704 0.14109574 0.02622795 0.005940421
000150 9f 79 6f bd 62 ca 2e 3f b8 fe 0b 3f 90 c9 aa b8
       -0.058465596 0.6827756 0.54685545 -8.1437756e-05
000160 60 6f d3 be a8 80 0c bf 22 41 e2 bd 17 d8 f8 3d
       -0.4129591 -0.54883814 -0.11047579 0.12150591
000170 fa 71 ee be 76 df 08 bf 5a a6 32 be 32 43 66 3e
       -0.46571332 -0.53465974 -0.1744627 0.2248657
000180 0b d7 ac be ec 59 bd bb f9 bc 62 bd 09 12 e0 bd
       -0.33757815 -0.005778542 -0.055356 -0.1094094
000190 4b 37 a1 3e 14 57 b6 be 4b 27 0e bd e4 a7 cf 3d
       0.31487498 -0.3561331 -0.03470544 0.101394445
0001a0 8f 71 eb bd a0 3b c3 bd ef 2f f9 bd 42 62 20 bd
       -0.11496269 -0.09532857 -0.12167346 -0.039156206
0001b0 c2 28 25 be 14 d7 a8 3c 99 c5 b6 3e 19 92 6e be
       -0.16128829 0.02061037 0.3569763 -0.2329792
0001c0 a6 b4 a4 3e ad e7 c0 be ef ca 77 3c 5a 69 84 be
       0.32169074 -0.37676755 0.015124067 -0.25861627
0001d0 a2 9e 71 3e 02 8e 53 3e e2 7a 1a 3d 31 b5 80 3e
       0.2359567 0.2065964 0.037714846 0.25138238
0001e0 b2 13 01 be 8e cb 32 3d bc 9f 5d be 0f 8c 80 be
       -0.1260517 0.043651156 -0.21642965 -0.25106856
0001f0 84 fb df bd 80 39 64 be 8d 52 4e bd 95 6e 27 be
       -0.10936645 -0.2228756 -0.050371695 -0.16350777
000200 c7 42 84 3d 42 4d b1 3c 29 59 3b be c8 85 25 be
       0.06458049 0.021643285 -0.1829573 -0.16164315
000210 f3 a7 5e bd 21 b6 c4 bd 04 20 b8 bd e5 80 31 be
       -0.054359388 -0.09605051 -0.089904815 -0.17334326
000220 e8 d0 c6 be 42 eb 1a 3d 06 fb a0 be 1a e7 32 3e
       -0.38831258 0.037822016 -0.31441516 0.17470971
000230 2d b0 51 3c 30 5a 51 bd aa 0c 41 be 36 32 26 3e
       0.012798351 -0.0511114 -0.18852487 0.16230091
000240 5a 82 d7 3c f1 a2 50 bd 31 aa 88 3d 39 39 10 be
       0.026307274 -0.050936643 0.066730864 -0.14084329
000250 e3 f4 45 3e 75 07 c8 3e 3a 2e 17 be d6 b4 8d bd
       0.19331698 0.3906819 -0.14763728 -0.06919257
000260 e9 b8 a7 3e e1 b1 54 bd 22 11 db bd 9a 63 3b 3d
       0.32758263 -0.05192745 -0.10696627 0.045749284
000270 8f 47 52 3c cd b3 59 be 24 48 43 3e 95 cb 10 3e
       0.012834444 -0.21259995 0.19070488 0.1414016
000280 ad dc 69 be 75 f8 83 3e b2 15 b0 be 1d bb e8 3c
       -0.22838087 0.25775495 -0.34391552 0.028409535
000290 b5 d3 04 bc 0d df f6 bd 02 01 af bd 16 c0 d0 3c
       -0.0081071155 -0.12054262 -0.08545114 0.025482219
0002a0 2a ce c1 be 18 96 f4 3d 9d 63 41 be cd 4a e4 bc
       -0.37852603 0.119426906 -0.18885656 -0.027867699
0002b0 6e 9a 0c be 48 4d 41 be 4d 03 73 be 39 dd df 3d
       -0.13730785 -0.18877137 -0.23731728 0.10930867
0002c0 4d e5 42 be a7 a1 ac 3e dc f6 72 bd 91 26 8a bb
       -0.19032784 0.3371708 -0.059317455 -0.0042160233
0002d0 98 a8 a8 bb b2 d1 7b 3d 83 d2 12 bd f6 6a b8 3d
       -0.005147051 0.061479278 -0.03584529 0.09004776
0002e0 19 71 9d 3e 91 75 cc bd 44 77 5f 3e 01 20 ab 3d
       0.3075035 -0.099833615 0.2182284 0.08355714
0002f0 61 db 20 be a9 00 ae 3d 83 cb d2 be ae bb 04 3e
       -0.15708686 0.0849622 -0.41170892 0.12962219
000300 94 d2 79 3d 54 c3 cd 3d e7 3f 8b be ea 45 1f 3d
       0.06099184 0.100470215 -0.2719719 0.038885035
000310 f1 22 16 be ef 70 7f 3e 5f bd 99 3e fa 05 85 be
       -0.14661767 0.24945424 0.3002729 -0.25981122
000320 7a 54 4f 3e 1a 03 ff 3c 1f 93 b3 3d 2d 11 59 3e
       0.20247069 0.031129409 0.087682955 0.21197958
000330 76 99 a0 be d8 61 9e 3e 83 61 b6 3d 1e 9a 46 be
       -0.3136708 0.30934024 0.08905318 -0.19394729
000340 38 eb 4e 3e 92 5c 20 bd b6 5e 25 3c 71 7d 22 bd
       0.20206916 -0.039150782 0.010093382 -0.03967041
000350 d2 20 c2 bd 73 7d f4 bd 89 83 16 3d 46 33 b1 be
       -0.09478916 -0.1193799 0.036746535 -0.3460943
000360 8d 00 aa 3d 36 cd 12 be 1b 03 b9 bd af 3a 29 be
       0.08300886 -0.14336094 -0.090337954 -0.16526292
000370 15 65 0f 3e 04 69 94 bd cd 5b d4 3d 02 72 de be
       0.14003403 -0.07246593 0.10369072 -0.43446356
000380 4a 1e 72 be 0e 7e 17 3e 4a d5 62 be 4b c9 bb 3e
       -0.23644367 0.1479418 -0.22151676 0.36677012
000390 fd 2d 26 3d 04 01 b1 bc 9a 05 30 3e c3 7c 9c 3d
       0.0405712 -0.02160693 0.17189637 0.07640984
0003a0 87 5f 99 be f3 5b 72 bd 7e c9 68 3d 91 58 89 3e
       -0.29955694 -0.05916972 0.056832783 0.26825383
0003b0 9a 02 c3 be 2f 9e 90 be 94 0a 46 be 20 8d a2 3e
       -0.38087922 -0.28245685 -0.19339973 0.31748295
0003c0 3c b5 96 bd c2 e2 6b 3c 6c 2b 4c be b8 0d c7 be
       -0.073587865 0.014397325 -0.19938439 -0.38877654
0003d0 1e 6d 15 3e f3 47 4f 3e a4 aa 84 bd df fd b3 bc
       0.14592406 0.2024229 -0.064778596 -0.021971641
0003e0 31 66 8f be eb da 9b 39 07 13 97 bc e1 0f 30 be
       -0.28007653 0.0002972701 -0.01844169 -0.17193557
0003f0 57 ee 07 bc 15 98 3c 3c b7 99 0c 3d 99 42 58 3e
       -0.008296571 0.011510869 0.03432628 0.21119155

bias f4 [286]
000000 25 f3 29 be f2 88 5d be f8 ff 0d be 57 f7 ca 3c
       -0.16596659 -0.21634272 -0.13867176 0.024776144
000010 a2 82 6f bf 04 88 a1 bd e4 73 98 bd 5e a8 a2 bd
       -0.93558705 -0.07887271 -0.074439794 -0.0794227
000020 1e e0 e7 bd f7 49 c7 3d 36 d2 ec be 6d fa 59 3d
       -0.11322044 0.097309045 -0.46254128 0.05321734
000030 95 06 d7 bc 02 06 88 be 28 d0 b7 be 55 f7 32 bd
       -0.026248256 -0.26567084 -0.35900998 -0.043692905
000040 16 ca 90 3d af 8e c3 be 99 26 0e 3d 94 f6 03 bb
       0.07069795 -0.38194796 0.03470478 -0.0020135986
000050 1e 56 2a bf 08 31 80 bd 90 20 a7 3c 0f 64 fa bd
       -0.66537654 -0.06259352 0.02040127 -0.12226116
000060 aa ef 24 be 98 fd 9a bd 50 4c 52 3d 87 d6 e5 3d
       -0.1610705 -0.075679004 0.05134231 0.112225585
000070 a3 19 97 3d c1 6f 2a bf 23 b7 2d 3d cf 0f 48 3d
       0.07377937 -0.6657677 0.04241098 0.0488432
000080 89 f4 4f 3d f4 7d c6 be 73 89 86 be 5b be 12 bf
       0.050770316 -0.3876797 -0.2627674 -0.5732171
000090 90 b8 6c bd db 41 de bd e0 f3 d8 be f9 89 11 be
       -0.0577932 -0.10852405 -0.42373562 -0.14212789
0000a0 65 df 7e be 45 76 8b 3d 10 b4 dc be 1a 95 16 3c
       -0.24889906 0.068096675 -0.43106127 0.009190822
0000b0 33 69 0b 3d 18 e3 e2 be 57 75 56 be c2 26 bc 3d
       0.034035873 -0.44313884 -0.20943199 0.0918708
0000c0 5a 87 7e bc 4b 3a 56 3d 81 05 7d be 92 6d 6e be
       -0.0155352 0.052301686 -0.24709131 -0.23283985
0000d0 48 d0 ae bb 3d c8 39 be 22 81 b2 be f1 7d aa be
       -0.0053348877 -0.18142791 -0.34864146 -0.3329921
0000e0 90 37 c0 be 4d f5 0a bd 12 ef ff bd 38 b0 5a bd
       -0.3754239 -0.033925343 -0.12496771 -0.05339071
0000f0 38 c9 da be 0d c1 0b 3d 96 30 1c bf 3c 94 fb be
       -0.42731643 0.034119654 -0.61011636 -0.4913653
000100 c7 5c cd be bf d0 42 3d c7 91 a9 bd a3 3d 0b 3d
       -0.40109846 0.047562357 -0.08279758 0.03399433
000110 12 c4 a2 3d e3 19 08 3c e8 38 d5 bd 16 87 42 3d
       0.07947554 0.008306953 -0.10411245 0.04749211
000120 8c b4 ae 3c ad 1f ed be 1c a7 94 be 15 2d 50 bd
       0.021326326 -0.4631323 -0.29033744 -0.050824244
000130 4a 39 6e bd 10 d0 63 be 59 24 15 bf 4e 9b 89 be
       -0.058160104 -0.22247338 -0.5825859 -0.268763
000140 05 0e 3f bc 6f 3d 8d 3c 85 8d 10 bd bd 16 a1 bb
       -0.011661057 0.017241208 -0.035291214 -0.0049160407
000150 b2 fd 22 bf 60 64 8c 3c 97 a7 86 bf 31 80 69 be
       -0.6366836 0.017137706 -1.0519894 -0.22802807
000160 c6 55 17 3d eb 99 5a 3d 1f fd 86 bd bd 7f 47 bd
       0.036947034 0.053369444 -0.06591248 -0.048705805
000170 a4 d4 69 be a7 1f cf 3c b0 5f 8c be d5 7a 8e bc
       -0.22835022 0.025283648 -0.27416754 -0.017392555
000180 7d 09 50 3d 60 33 b1 be bd 94 05 3d 85 39 07 3e
       0.0507903 -0.3460951 0.03261255 0.13205536
000190 a8 81 02 bf b0 b6 2e be 53 ae 6b be ad db ae bd
       -0.5097909 -0.17061877 -0.23015718 -0.085379936
0001a0 42 37 ff bd e9 af d5 3d 42 e6 c9 bd 3c dd f7 bd
       -0.124617115 0.10433943 -0.09858371 -0.12102744
0001b0 eb 7c 16 3d 78 a2 d4 3c db d1 6b bf 9e ed 8a 3d
       0.036740225 0.025956377 -0.9211709 0.06783603
0001c0 95 11 f1 be 44 38 3b be 2e c5 ab 3d 16 9a e6 3d
       -0.47083727 -0.18283182 0.083872184 0.11259858
0001d0 cc 20 2d be 61 9c 5d 3d 6b 9a 27 bf 60 3c bc 3c
       -0.16907042 0.054104213 -0.6547 0.022978008
0001e0 70 3d 42 3d 60 a7 6a 3d 65 ec 0f 3d ec 7b 11 3e
       0.047421873 0.057288527 0.035137553 0.14207429
0001f0 80 84 b2 bd 25 0a c5 3d 62 34 be bd 82 f9 a5 3d
       -0.087166786 0.096210755 -0.09287335 0.081042305
000200 1a bf ea bd c5 01 4d bc 19 3e e6 3c 6f d5 f3 be
       -0.11462231 -0.012512629 0.028105782 -0.47623774
000210 c3 8f 3c 3b 49 ad 0e 3d c6 06 09 bf 75 16 c3 3c
       0.0028772212 0.034833226 -0.5352596 0.02381442
000220 e7 4a 22 3d 03 67 4f be 77 30 09 3d c5 3a e9 bd
       0.039622214 -0.2025414 0.033493485 -0.113881625
000230 c7 61 b1 bc 78 39 93 be c9 fd b9 be 80 c5 a6 3d
       -0.02165307 -0.28754783 -0.36326435 0.08143139
000240 8f eb 77 3d dd 3e c6 3c b6 10 7c 3d 86 fd a5 be
       0.06052738 0.024199897 0.061539374 -0.32419986
000250 bb 25 24 3d b8 79 ac 3c 68 48 a6 3d 4a 9c 57 be
       0.040075045 0.021054134 0.08119279 -0.21055713
000260 ce ad 7b be c9 70 b2 be c1 fd 0c bd 01 cd 6f 3d
       -0.2457802 -0.34851673 -0.034421686 0.058545116
000270 e2 5f 4f be 06 e6 a5 bd 8f 1e 01 be c9 0a 24 be
       -0.2025142 -0.08100514 -0.12609313 -0.16019739
000280 c4 19 83 3d c4 be 46 bf 20 76 4e bf 4b 86 8e 3b
       0.06401399 -0.77634835 -0.80648994 0.004349505
000290 31 9e 89 bd 77 cc 06 bf e6 6f c2 be 65 e2 f0 bd
       -0.06719626 -0.5265574 -0.37975997 -0.11761931
0002a0 15 b5 81 be c9 70 a4 be b4 ac 9e 3d 32 8c 92 3d
       -0.25333467 -0.32117298 0.07747784 0.071556464
0002b0 58 c8 cd be 6b 7c 72 be 15 0e 9b be 36 e8 1b bf
       -0.40191913 -0.23680274 -0.3028418 -0.609012
0002c0 8c f0 4f be a1 eb 88 3d 4b 94 6c be 5d e0 d5 bd
       -0.20306605 0.06685568 -0.23103444 -0.104431845
0002d0 8c 27 40 be ec 46 38 bd f5 35 83 be c1 45 83 be
       -0.18765086 -0.04498951 -0.25627103 -0.25639156
0002e0 33 ab 9b 3b 6b 33 53 3d a8 84 ef bd 32 ed c2 3c
       0.004750633 0.051562708 -0.11695224 0.023794744
0002f0 c9 6c 3c bf ce e5 cf be 66 8f a4 3d a2 f0 93 bd
       -0.7360349 -0.40605015 0.080351636 -0.072236314
000300 02 1f b5 be e1 a4 3a bf ca b1 9e 3d 69 56 50 be
       -0.3537522 -0.72907835 0.07748754 -0.20345463
000310 76 25 e7 be a4 c3 3a be 79 40 6b 3d 34 93 65 3d
       -0.45145768 -0.18238693 0.057434533 0.056048587
000320 b1 ec 0b 3c b3 6a c8 bd 0e 98 f2 be 44 dc fb 3c
       0.008540318 -0.09785976 -0.47381634 0.03074468
000330 da 9c 0c bf 7d 79 bf bd c3 0d 2b bf ea cc da 3c
       -0.54926836 -0.09349344 -0.66817874 0.026709039
000340 3b d2 34 be 07 fe 84 3d ae 59 27 bc 40 72 4e 3d
       -0.17658322 0.06493764 -0.010214252 0.050401926
000350 21 31 79 bd 0d b8 89 bd 1e d5 80 be e6 f4 04 3d
       -0.06083787 -0.06724558 -0.25162596 0.032460116
000360 07 02 38 bf 07 54 89 bd 4e 60 75 bd 0d 1f a0 be
       -0.71878093 -0.0670548 -0.059906296 -0.3127369
000370 53 83 19 bd 1a fc 7d be f5 48 ce be 7d 36 7f 3d
       -0.037478756 -0.248032 -0.40290037 0.062307823
000380 ce 99 cd bc 63 fb a5 3d 0e ca 15 be b8 c5 be bc
       -0.025097754 0.08104589 -0.14627859 -0.023287639
000390 2d 85 81 3d 4e a8 a8 3d a9 1f d9 be 2f b4 03 be
       0.063242294 0.082352266 -0.42406967 -0.12861703
0003a0 a2 41 3f 3d 93 ff 91 3d 5d 34 81 be 79 0f e4 be
       0.04669345 0.07128825 -0.25235263 -0.44543055
0003b0 42 56 4c bf ba 33 33 bd ae b9 b8 be 8d da 40 bd
       -0.7981912 -0.043750502 -0.36079162 -0.047083426
0003c0 c6 d7 f8 bd e5 b3 d3 3c 92 13 a5 be 58 8a 7d bd
       -0.121505305 0.025842616 -0.32241493 -0.061899513
0003d0 0a 91 0e bf de 30 13 bd df 46 14 bf 99 37 48 3d
       -0.5569006 -0.035935275 -0.5792064 0.048881147
0003e0 d0 68 4d 3d 9f 0c c0 be 13 df 74 3d a8 46 ee be
       0.050148785 -0.3750963 0.059783053 -0.4653828
0003f0 1d 00 51 3d e7 5d a2 3d b6 06 fc 3c ea 4e 94 3d
       0.0510255 0.07928067 0.030764919 0.07241614

weight f4 [100, 286]
000000 18 1c 2f bd 9e d1 a1 3d 27 cc 09 bd 89 6b 95 3d
       -0.0427514 0.079013094 -0.03364196 0.07295901
000010 65 dd 9b bc 9b 66 2b bc d6 22 b5 bd 74 30 cb bb
       -0.019026468 -0.010461475 -0.08844535 -0.0062008444
000020 06 0f 61 bd e5 56 1f be 4d 6b 43 bb dc 22 50 bd
       -0.054945968 -0.15560491 -0.0029818595 -0.050814494
000030 b4 1c 19 be 8f 42 15 3d 2c 19 d4 bc 03 57 35 bd
       -0.14952356 0.03644043 -0.02589091 -0.044272434
000040 a9 ee a4 bc 7b e0 16 be fc 6c 19 be 03 51 0e be
       -0.020133333 -0.1473407 -0.1498298 -0.13898091
000050 94 30 70 bd 4b b0 00 bd 3c e6 f3 3c 9e 2c 02 be
       -0.058640078 -0.031418126 0.02977287 -0.12712333
000060 c2 9b 53 be 3d a1 04 be e7 83 6c bc 11 d6 e4 bd
       -0.20664886 -0.12952133 -0.014435745 -0.111736424
000070 1d 01 e0 3d 91 e0 05 3d b4 20 d8 3c bf 4a 0e be
       0.10937712 0.032684866 0.026382782 -0.13895701
000080 d0 09 d4 bd 71 9a 04 3e 67 21 3d bd 00 dc 9c bd
       -0.10353434 0.1294954 -0.046174433 -0.07659149
000090 ce bf 82 3d 63 f9 93 bc 3b 54 5d 3d d0 aa 49 bd
       0.0638424 -0.018063253 0.054035407 -0.049235165
0000a0 7c 01 13 bd 5a c0 03 be 21 32 ff bd 1f 7f e3 bd
       -0.035890087 -0.12866345 -0.12460733 -0.11108231
0000b0 3f 29 1a be 4c a3 e7 bd c0 1b 61 bd 14 d2 2b bc
       -0.15054797 -0.11310443 -0.054958105 -0.010487098
0000c0 4d 80 cf bc 1b 71 0c be b5 d9 ff bd 8b c3 a6 3b
       -0.025329733 -0.13715021 -0.12492696 0.0050892285
0000d0 0e da a9 3c 74 4e 3c be 71 dc 03 be 91 ee 21 3b
       0.02073386 -0.18389302 -0.1287706 0.0024708847
0000e0 7b 12 79 bd c2 d8 8b bc c7 d1 d5 bd 19 ef 3c bd
       -0.06080864 -0.017071132 -0.104404025 -0.04612646
0000f0 ad 0f 93 ba ff ee ca 3c ee ca 6a bc ca 8e 42 be
       -0.0011219882 0.024772165 -0.014330609 -0.18999782
000100 2d 48 aa bd 7d 7e 73 bd b1 ae a6 3d 1d 98 18 be
       -0.08314548 -0.0594468 0.081387885 -0.14901777
000110 8a f3 6a bd 6a ba 06 3e f5 f6 1a bd 74 d8 c2 bd
       -0.057361163 0.13157049 -0.037833173 -0.095139414
000120 33 7c 9f 3d 4d ab 60 3d 11 32 11 be 55 36 02 bd
       0.07787361 0.054850865 -0.14179255 -0.031790096
000130 14 47 4f be 98 02 16 bd 58 0e 50 bd 4a 5c d7 3d
       -0.20241958 -0.036623567 -0.05079493 0.105156496
000140 a2 0f 76 be d8 18 76 bd c0 6f 37 be 8d a4 38 3e
       -0.24029401 -0.060082287 -0.17913723 0.18031521
000150 df e9 f1 3d 3d 82 13 be b5 7b 82 bd 4e a6 2e be
       0.118121855 -0.1440515 -0.063712515 -0.17055628
000160 71 38 61 bd ba 77 2b be c4 ed 9b 3d 82 ec e8 bc
       -0.054985467 -0.16744891 0.076137096 -0.028433088
000170 f8 49 08 be 1c e7 0c 3d 43 73 54 3d 91 42 0c 3d
       -0.13309467 0.03440009 0.051867735 0.03424317
000180 d1 3c 3c be a9 04 26 3d 99 b6 ec bd 3e d7 42 bd
       -0.18382575 0.040531788 -0.11558265 -0.047568552
000190 78 2a 46 bd d9 0b 52 3d 20 d4 8c bd 65 0f d2 bb
       -0.048380345 0.05128083 -0.06876397 -0.0064105266
0001a0 26 a7 31 3d 91 39 01 be 24 29 dd bd ee c6 d7 bd
       0.043372296 -0.12619616 -0.107988626 -0.1053599
0001b0 c4 6a 72 bb f6 08 04 bb d1 3f 84 3d 1b 72 f0 3b
       -0.0036989907 -0.0020146943 0.064574845 0.007337821
0001c0 ed 37 10 be 70 c1 4f 3c 0f 62 c5 bc 58 6c 25 bc
       -0.14083834 0.012680396 -0.02409461 -0.010096632
0001d0 a7 36 37 be bf 36 65 bd 5c 8b 8a bd 59 0d ae bc
       -0.17891942 -0.055960413 -0.06764862 -0.021246599
0001e0 d9 35 2e bd c7 75 c4 bc 83 05 a6 bd b1 be fe 3b
       -0.042531822 -0.023981942 -0.0810652 0.007774197
0001f0 ae ae 00 bd 33 05 d5 bd e3 50 dc bc 54 ef 07 be
       -0.031416588 -0.10401382 -0.026894039 -0.1327489
000200 9c d9 a1 bd 9b 82 28 bd a6 d3 fb 3c 40 60 64 be
       -0.07902834 -0.04114018 0.03074057 -0.22302341
000210 11 ec b6 bd 4e 9c 0f bd b1 e6 ca bd fa 01 26 bd
       -0.08931745 -0.035061173 -0.09907282 -0.04052923
000220 64 70 42 bc b7 02 26 be 27 42 d3 bc 33 8f 49 bc
       -0.011867616 -0.16211973 -0.02578838 -0.012302208
000230 8c 1a 58 be 7e 78 f4 bc 79 4d 30 bd ff 17 a3 bd
       -0.21103877 -0.029842611 -0.043042634 -0.07963561
000240 46 f4 d6 bd c2 48 05 bd 07 30 04 3d 2c 7f c0 bd
       -0.1049581 -0.03254009 0.032272365 -0.09399256
000250 50 cb 80 be 75 06 f5 ba a1 47 9e bc 67 bf 0a be
       -0.25155115 -0.0018693941 -0.019321265 -0.13549577
000260 98 78 0d be cc ba 0a 3c 29 29 63 be 1f e0 55 be
       -0.13815534 0.008467387 -0.2218367 -0.20886277
000270 32 fa 9f bd 6c 40 d5 3d e4 78 00 3d 96 fb 6d be
       -0.07811393 0.10412678 0.03136529 -0.23240504
000280 a4 e8 fb bd 96 42 55 be 80 10 97 bd 49 f0 3b bd
       -0.12300232 -0.20826182 -0.07376194 -0.04588345
000290 39 db 06 be b1 f4 d9 bc 24 20 ba bd e9 96 3c bd
       -0.13169564 -0.026605936 -0.090881616 -0.046042357
0002a0 5b 2d bf bd 9e 76 f2 bd c8 ce be 3d 49 5c b2 bc
       -0.09334823 -0.11839031 0.09316784 -0.02177252
0002b0 51 77 34 3d 92 6b 1a bc c5 75 d7 bd 9d 2a ac 3c
       0.0440591 -0.009425061 -0.1052051 0.021016413
0002c0 e9 eb fc bd 41 f5 08 be 7b 40 74 bd 33 fe 22 3d
       -0.12349684 -0.13374807 -0.059631806 0.039793205
0002d0 f1 98 24 3c 93 91 13 bc 75 39 0c 3e f3 07 a9 bd
       0.01004623 -0.009006876 0.13693793 -0.08253469
0002e0 3c 32 04 bc 68 ac 05 be 2d 63 0f be 4f 01 76 bd
       -0.008068617 -0.13054049 -0.14002676 -0.06005984
0002f0 14 47 e5 bd 3d e1 92 bd 3e 51 41 be 07 ad ba bd
       -0.11195198 -0.07171867 -0.18878648 -0.091150336
000300 8f f9 79 bd 8a 1e da bd a9 0a 5a be 33 59 da 3c
       -0.061029013 -0.10650356 -0.21293129 0.026653862
000310 cc e2 c4 bd 4c 9d 89 bc 1d 43 20 be 7d d8 f1 3d
       -0.096135706 -0.016798638 -0.15650602 0.1180887
000320 1b 70 22 3d bd 3a 10 3e ca 0b 48 bd f3 4c f0 bb
       0.039657693 0.14084907 -0.048839368 -0.007333392
000330 a5 9f 44 be 45 57 8e bd e5 50 1b bd 65 39 30 3e
       -0.19201525 -0.06950239 -0.037918944 0.17209394
000340 eb c2 21 be eb 40 dd 3d 11 cf e9 bd e2 82 cc bd
       -0.15797012 0.10803398 -0.11416448 -0.099859014
000350 67 c0 b1 bd c2 eb b1 ba b2 d6 f5 bd 40 ed cc bd
       -0.08679276 -0.001357429 -0.120038405 -0.10006189
000360 ad ea b4 3c 54 1c bd bd 8a 2f b5 bd ed 85 54 be
       0.022084558 -0.09233919 -0.08846958 -0.20754214
000370 78 2c 7d bd 65 fd a7 bd 50 e3 29 bd 5a 3b 8e bd
       -0.061809987 -0.08202628 -0.041476548 -0.06944914
000380 51 81 9e bd 10 b4 4d 3d 1f 59 f1 bd 96 b2 ad 3d
       -0.07739509 0.05022055 -0.117845766 0.08481328
000390 c4 95 8e 3d 74 05 4c bc 5f c8 c5 bd 50 ff c9 3d
       0.06962159 -0.012452472 -0.096573584 0.0986315
0003a0 12 d0 f4 3d 6e 7c 92 3d ef d1 81 3c 5a 3d 89 bc
       0.11953749 0.07152639 0.015847174 -0.016752888
0003b0 32 aa 86 bd 73 44 07 3d 64 36 b8 bd ff 97 99 3d
       -0.06575431 0.033024263 -0.08994749 0.07499694
0003c0 f9 f6 84 3d 8a d8 56 bd 2b 99 9f bc cd 7b 04 be
       0.06492419 -0.0524526 -0.019482216 -0.12937851
0003d0 d6 b8 b5 3a 54 05 50 3d d3 ce 1f be 3f ee b3 ba
       0.001386429 0.05078633 -0.15606241 -0.0013727619
0003e0 57 ea a4 bd 97 6f fd bd b7 52 93 3d 4e dc dc bd
       -0.08052509 -0.123748 0.07193511 -0.10784207
0003f0 39 98 2a 3d 4e 7d 23 be 9e f1 bf bc 84 e5 0c 3c
       0.041649077 -0.15965769 -0.023430642 0.008599643

bias f4 [100]
000000 32 bb 3a be 11 38 05 3e da f0 70 3e bd 22 a7 3d
       -0.18235472 0.13009669 0.23529378 0.08160923
000010 a7 26 4d 3e 4d d1 8b bd db d5 1d 3e d6 3a 91 bd
       0.20034276 -0.0682703 0.1541361 -0.070913
000020 68 59 73 be db bb a7 3e f7 16 c4 bd 4c b3 51 3e
       -0.23764575 0.3276051 -0.09574693 0.20478553
000030 e3 e9 84 be e9 04 64 3e 76 1d f9 3d 43 70 17 3e
       -0.2595969 0.22267498 0.12163822 0.14788918
000040 1d 7d 57 3d 11 ea 4a 3e 6c e2 27 be 59 1f 39 3d
       0.05260955 0.19815852 -0.16394967 0.04519591
000050 0b 7f 70 bd c2 27 9c be a9 c5 97 be bb 45 8f be
       -0.058714908 -0.30499083 -0.2964299 -0.27982888
000060 ce 77 19 be 7b c3 6b bc ff 27 86 be 14 00 85 be
       -0.14987108 -0.014389868 -0.2620239 -0.25976622
000070 54 77 6b 3e 67 57 39 be ca 43 2f be 7f 8c 26 3e
       0.22994739 -0.18099748 -0.17115703 0.16264533
000080 45 48 3a 3e 11 65 40 be 7e bb f9 3d a7 29 6f be
       0.18191631 -0.18788554 0.121939644 -0.23355733
000090 e7 48 9c 3d cf cb a6 be 43 dc a5 3e 6b 72 8a 3e
       0.076310925 -0.3257737 0.3239461 0.2704042
0000a0 9e e1 87 be 18 96 13 3e 6d 9d 61 be bb da 05 3d
       -0.2653932 0.14412725 -0.2203271 0.0326793
0000b0 2a 8f a2 be 32 9a 26 be 97 31 1b 3e 11 b2 60 be
       -0.3174985 -0.16269758 0.15155636 -0.21942927
0000c0 2a ed 7c 3e 2d ed a6 3d 48 75 45 be 0f 6e 90 be
       0.24699846 0.081507064 -0.1928302 -0.28208968
0000d0 ff ae 9f be 27 94 90 3e df 22 60 be 66 33 9e be
       -0.311882 0.2823803 -0.21888302 -0.3089859
0000e0 84 8f 79 be a7 2b 4f 3e c8 82 5f bd 4c 0e 9f be
       -0.24371153 0.20231496 -0.054568082 -0.31065595
0000f0 48 b0 f0 3d 6f 82 a5 be 77 4d 15 3e 86 26 96 3e
       0.11752373 -0.32326075 0.14580332 0.29326266
000100 83 3c 1c 3e 3e 1e 72 3e 19 4c 7f 3e 93 34 87 be
       0.15257458 0.23644349 0.24931373 -0.26407298
000110 76 6a 0e 3e d8 6f 65 3e c3 59 5e be c2 31 9c 3e
       0.13907799 0.22405946 -0.21713929 0.30506712
000120 91 03 3c 3e 3b 4e c0 3d bd 53 59 3e d5 50 6e 3e
       0.18360735 0.09389921 0.2122335 0.23273022
000130 8a b4 75 be 6a 89 50 3e c7 d6 8d 3e 07 aa 57 3e
       -0.23994651 0.2036492 0.27702925 0.21060954
000140 cc 1c 24 be af e9 34 be a1 68 00 3e 20 2a 57 3e
       -0.1602661 -0.17667268 0.12539913 0.21012163
000150 4d 06 7b 3e 6c c7 8d be 16 98 5a be c9 06 73 be
       0.24514122 -0.2769121 -0.21347079 -0.23733057
000160 11 7c 94 3e 1f 20 42 3e 70 00 89 3e d4 29 ac 3c
       0.29000905 0.18957566 0.26758146 0.021016039
000170 c8 a8 8d be 95 7a 80 be ac 94 8c be 87 bf 75 3e
       -0.27667832 -0.25093523 -0.27457178 0.23998843
000180 f3 ef 4f be de 94 f8 3d 46 0a 8d 3e 15 03 57 3e
       -0.20306377 0.12137769 0.275469 0.2099727

weight f4 [9, 100]
000000 58 8d ac be c5 a9 28 be 4f 74 00 3e 2c b3 55 be
       -0.33701587 -0.16471012 0.12544368 -0.2086913
000010 86 c6 13 3e 85 f4 af bd fd 0c 0a bf fc 0c cf bd
       0.144312 -0.0859156 -0.5392607 -0.101098984
000020 09 dc c4 bd b6 57 94 bc cc aa fc be 34 38 9e 3d
       -0.09612281 -0.01810823 -0.49349058 0.07725564
000030 cb be ff be a2 7d 87 3d 55 25 6b be cd 0c b0 be
       -0.4995025 0.066157594 -0.2296346 -0.34384766
000040 17 08 9d 3c f4 ad 2d 3d 58 c5 99 bf cb 21 8a be
       0.019168897 0.042402223 -1.201335 -0.26978907
000050 60 0c 09 bf 49 84 72 be 8f e9 7f be 91 e0 28 bd
       -0.5353451 -0.23683275 -0.2499144 -0.04122979
000060 92 a1 46 be a2 2c f2 3c b4 b8 82 be fa 2f 2a be
       -0.19397572 0.029562298 -0.25531542 -0.16619864
000070 e3 c1 09 bd 10 72 ea be c6 87 db bd d0 69 32 3e
       -0.03363217 -0.45790148 -0.10719256 0.17423177
000080 b8 4c fb be 9d 16 74 be 00 62 18 3e 58 c0 e2 bd
       -0.4908197 -0.23836751 0.14881134 -0.11071843
000090 ed 3c 28 bf 57 d6 19 be 37 a0 83 bc 86 4c fe 3d
       -0.65717965 -0.1502317 -0.016067607 0.124169394
0000a0 cd 08 ee bc 05 e0 f7 bd b0 fd 30 be 21 92 b2 be
       -0.02905693 -0.12103275 -0.17284274 -0.34877113
0000b0 ed 1b 49 be 2e 53 0c bf c8 48 59 be e1 77 86 be
       -0.19639559 -0.5481442 -0.2121917 -0.26263335
0000c0 2c 35 d1 bc 8e c0 37 be 57 4a 9c be 91 3e 04 be
       -0.02553805 -0.17944548 -0.30525467 -0.12914492
0000d0 9f eb 1d be 8f ef 20 3d 2c 6a 0b be 10 70 ea be
       -0.15421914 0.03929096 -0.1361472 -0.45788622
0000e0 a4 95 3b be 74 71 9a bd 75 0a 1f 3d 5c 75 c4 3d
       -0.18318802 -0.07541171 0.038828332 0.09592697
0000f0 99 a0 fe 3a b3 74 fe be c8 76 0c be 56 b5 49 be
       0.0019426524 -0.4969841 -0.13717186 -0.1969808
000100 8a d5 62 3d 21 4c 2f 3d 8f dc cb bc 04 c5 2e be
       0.055379428 0.04279721 -0.024885444 -0.17067343
000110 09 41 a0 be ef 70 80 be c5 01 57 be 68 23 26 bd
       -0.31299618 -0.25086161 -0.20996769 -0.04056111
000120 9e 21 b2 bd 58 01 9f 3c 61 63 2b 3d e3 b3 c2 bd
       -0.08697818 0.01940982 0.041842822 -0.09506967
000130 50 55 68 be 00 b0 19 bd 2b f9 0e 3e 25 6a 4f bd
       -0.22688794 -0.037521362 0.13962238 -0.050638337
000140 7c 2e 68 be 56 2d 8e be e5 4b 0b 3d 51 fd ad 3d
       -0.22673982 -0.27768964 0.034007926 0.08495582
000150 7d ff 55 3d f2 16 de be 28 b7 f3 be 5f d7 05 be
       0.052245606 -0.4337688 -0.47600675 -0.13070439
000160 8d 30 40 bd 7b ca 14 3d 46 84 00 3e 75 a4 b4 bc
       -0.0469213 0.036325913 0.12550458 -0.022051075
000170 41 45 4b bf 3f 14 74 be 0f 85 ab be 8f 32 be 3d
       -0.7940255 -0.23835848 -0.33499953 0.09286987
000180 0d d7 ba be 97 16 9c be 3f 63 0a be 08 43 ae 3d
       -0.36492196 -0.30485985 -0.13514422 0.08508879
000190 4d 40 8b be fd 80 c5 bd 6f b4 4a 3d c1 e9 01 be
       -0.27197495 -0.09643743 0.04948848 -0.12686826
0001a0 4c 01 81 3d 95 67 21 be 3c ed 1b be 0f d8 a0 be
       0.062990755 -0.1576217 -0.15227216 -0.3141484
0001b0 34 60 d4 be 83 4d 8a bd 67 0f 42 be c6 6a 1a 3d
       -0.41479647 -0.067530654 -0.18951188 0.037699483
0001c0 b8 cb 8c be 5c aa 85 bd 5f 4e 27 bd 67 59 00 be
       -0.27499175 -0.06526634 -0.040846225 -0.12534104
0001d0 21 cd b5 bd 1a 55 d0 bd eb 3a 0e bf 6a c7 aa be
       -0.08877016 -0.10172482 -0.5555865 -0.33355266
0001e0 3f 53 4c be 9f 5a 18 be 19 a2 4f 3c 23 2b 34 be
       -0.19953631 -0.14878319 0.012672924 -0.1759458
0001f0 c3 db 50 bf c2 8f 03 be 6f 3b 05 be 88 ce 64 be
       -0.8158533 -0.12847808 -0.13010953 -0.2234441
000200 a2 8a b5 bd df b1 2d bf 59 af 30 be b3 12 f4 3c
       -0.08864333 -0.67849535 -0.1725439 0.029794073
000210 7e 84 82 be 94 fa 9b be fc d4 eb bc 9a 6f f1 be
       -0.2549171 -0.30464613 -0.028788082 -0.47155458
000220 a1 08 d9 be 32 26 b5 bd 51 f7 d4 bc bd 07 5d 3d
       -0.42389396 -0.08845176 -0.025996836 0.053962458
000230 4b eb 84 be d2 06 18 bd 26 c1 36 be 14 b8 88 be
       -0.25960764 -0.03711588 -0.17847118 -0.2670294
000240 64 51 c1 bd 7e 6b e1 be 0b 91 86 ba 43 cc 7e be
       -0.09439352 -0.44027323 -0.0010266615 -0.24882607
000250 b4 ef 89 bd e1 e3 5f be 40 58 d1 be c0 12 9b bd
       -0.06735173 -0.21864273 -0.40887642 -0.07571936
000260 32 8c 8d bd 08 1a cb bc b1 9c f5 bd b6 ae 66 bd
       -0.06911506 -0.024792686 -0.11992777 -0.05631896
000270 3e ce a4 bd dc 13 1d be 89 35 fa bd 54 17 32 be
       -0.0804715 -0.15339607 -0.12217242 -0.17391711
000280 67 68 87 bd 1d d3 b6 be c1 66 8f bd 0c 13 1b 3c
       -0.0661171 -0.35707942 -0.070020206 0.00946499
000290 6a 88 56 bd 7b 30 42 3d 66 1f 2f bd 65 0a 9d be
       -0.05237619 0.047409516 -0.042754553 -0.30671993
0002a0 ad c7 7f be 4c a4 20 be 1b 82 77 be 50 fa de bd
       -0.24978514 -0.15687674 -0.24170725 -0.10887587
0002b0 c8 91 51 3c eb 5c c3 3c 43 56 1f 3d e6 e3 ea bd
       0.012791105 0.023848018 0.038900625 -0.114692494
0002c0 7d 7d bb be 9f c0 df bd fd 35 48 3d ba c2 1d be
       -0.36619177 -0.109254114 0.048879612 -0.15406314
0002d0 00 6a 90 be 33 a8 25 bf 51 ce 82 bd c7 e2 d1 bb
       -0.28205872 -0.64709777 -0.06387008 -0.006405208
0002e0 b3 62 b7 bc 65 d3 27 bf 01 b5 02 bf ec 47 b0 be
       -0.02238593 -0.6555694 -0.5105744 -0.34429872
0002f0 89 6a 81 bd ab 5d 07 be 1f a7 93 3d 23 43 47 be
       -0.06319148 -0.13219325 0.0720961 -0.19459204
000300 e2 5d aa be 70 63 b9 be a0 f8 82 be c5 53 3e 3d
       -0.33274752 -0.36208677 -0.2558031 0.046466608
000310 2e f7 9d bd a0 93 0c be e5 89 3b bd 82 00 d8 3c
       -0.077131614 -0.1372819 -0.045785803 0.02636743
000320 09 9a 91 be dc 1e da bd 1c ef 26 3d ec 8b 91 bd
       -0.28437832 -0.10650417 0.040755376 -0.07106766
000330 33 ba 3c bd 90 c9 56 be c3 88 52 bd 72 64 4a be
       -0.04607601 -0.20975327 -0.051399957 -0.1976488
000340 57 59 f1 be b3 26 ac bd ec 9f d9 be f1 53 67 3d
       -0.47138473 -0.08405819 -0.42504823 0.056476537
000350 3d 03 8e be 41 c4 e0 3b c6 36 6e bb 34 9a 94 bd
       -0.27736846 0.006859333 -0.0036348565 -0.072559744
000360 9b 33 15 be 9b 05 27 bd 37 f6 b4 be b2 5c e7 be
       -0.14570467 -0.04077683 -0.35344097 -0.45187908
000370 39 69 87 be 1e e3 25 bf 87 e1 b1 be 9b 33 78 be
       -0.26447466 -0.6479968 -0.34742376 -0.24238436
000380 47 b0 3e bf dd e9 8e be e2 dd 49 be b3 62 74 be
       -0.7448773 -0.279128 -0.19713548 -0.23865776
000390 f8 cf 0d be ac e2 b9 be 28 d2 76 be ea d5 d0 3c
       -0.13848865 -0.3630575 -0.24103606 0.025492627
0003a0 84 e5 2a be f2 95 20 be 03 ed 16 be e3 a3 81 be
       -0.16689116 -0.156822 -0.1473885 -0.25320348
0003b0 36 ad 0f be 0d 75 be bd 66 9a a3 bd 7c 37 82 bc
       -0.14030918 -0.092996694 -0.079884335 -0.015895598
0003c0 aa 69 14 3d af f0 f1 bb 20 bb c6 be 4b e6 82 be
       0.03623358 -0.007383428 -0.3881464 -0.25566325
0003d0 c3 7a 0e bd 94 20 c3 be d7 69 39 3e dd 04 fd 3c
       -0.034785043 -0.38110793 0.18106781 0.030886108
0003e0 7a 91 d3 bd 38 b0 44 be 29 c6 45 be 8f 03 86 bd
       -0.10330482 -0.19207847 -0.19313873 -0.065436475
0003f0 3a 76 b7 bc 8b f1 57 bd 6e 5e 2e be 44 b8 a3 be
       -0.022395242 -0.052720588 -0.1702821 -0.3197652

bias f4 [9]
000000 a0 ce a7 be 2d 31 21 bc 1e 31 6d 3d 75 9e ac 3d
       -0.3277483 -0.009838385 0.05790817 0.08428661
000010 20 8d 08 3e 57 16 0f 3e 23 95 1b 3e 13 d3 87 3d
       0.13335085 0.13973366 0.1519361 0.06632056
000020 26 1a 97 be
       -0.29512137
