models/classifier_143features_125x250x100_0.001lr_100e_0.3dropout_128bs_xavier_norm.pth (torch_old, 306616 bytes, 8 tensors)

weight f4 [125, 143]
00000000: 7d14 533a 4794 8dbe 2cf6 733d 356a 193d
00000010: e639 1abe 8677 943e 3649 ab3d b68e a4bd
00000020: 02a9 e8be 6d73 a73c a43d 0c3c ca44 98be
00000030: 13a8 4bbd dfec 803d 0124 a03d c822 d73c
00000040: 25df 0ebe 8ece 2ebe 3400 7d3e d708 813e
00000050: 476f 4c3e cb09 c6bc 85a2 06bd 38ab 2d3e
00000060: dc2d fe3d 6f1d 6d3c 744b 3e3e 21c7 a53d
00000070: 335f 453e 61ed 113f d268 753e 2c22 493e
00000080: dc5e cbbe 1f81 0fbe fdc3 02be 6622 473d
00000090: ebb8 f5bd 860d 1cbd df10 5d3e 7c9f 073d
000000a0: 2723 083f 2b14 8ebd 621e a9bd 3847 d1bd
000000b0: 26c6 313e 4c04 abbd 8898 75bd ebaa d33d
000000c0: 2517 dcbd 6c97 68bd ed52 eabe 91ab e53d
000000d0: 37a8 c8bd 8e35 7e3e 9314 d73e a12a fcbd
000000e0: 2437 70be 975c 1e3e e2b9 dfbe 1a0e ddbc
000000f0: 3c4f 723e c527 953d 8ea4 5bbe e909 48bd
00000100: a4dc 103e fa12 19bd 4752 183e 511b 20be
00000110: 082a a33e 340d 0ebf 31d4 3ebd cc19 23be
00000120: 29fb debd 7cb9 31bd 4c61 d03e 2da4 6c3e
00000130: 1713 7c3e e167 933e 744f b43e 230c 813e
00000140: 3749 153e a5a8 d23e 264d 353e c5c8 4e3e
00000150: a182 463e 45c4 0b3e 8e43 a93e 621f 753c
00000160: 3630 353e 4fcc be3b 911f bc3d 22b5 813d
00000170: d0ae 7dbd 6049 99bd 5800 f4bc e152 a3bd
00000180: 5b0a 503e 4b48 0a3e 052a 043e e7e7 4ebf
00000190: cf40 0d3e c570 143e 19e9 5a3d 7afb 3bbf
000001a0: 755e 03bd 2f8d a93f 154b 3a3d bff3 a63d
000001b0: 7d27 e6bc 8bdc 3d3d 578f fbbe 45d2 3c3e
000001c0: 971e 2e3d 27ca 463e c661 e3be 466d 92be
000001d0: c503 8dbe 2415 463e b54e e23a 1b98 d53d
000001e0: d8d6 98be f493 10be b0a8 20bf 80ee 02bf
000001f0: 9e18 4cbd 0c84 0cbe 82f3 59bf ec9c d5bd
00000200: dee3 cfbd 3f7f c0b9 0f75 97be b9a1 26bd
00000210: eb92 c23e 9a0e 893e 2d5f 80be 784c f23e
00000220: 5815 22bc 6522 2f3e 179f b5bd 5528 e33c
00000230: 804a 153e 2433 af3d b7be 433e 850d 51be
00000240: 56ed 80bd 2941 b23e dfad 9bbe 4b41 af3e
00000250: 3702 753e bee0 3fbe b238 b43c 7232 303e
00000260: 4b89 d8bd 03e5 273f aa7e 1bbe 40c7 9dbc
00000270: bfa3 0b3e 310d 5b3c 2c70 7cbd 39a9 08be
00000280: d100 3cbe 2d02 94bd 36ee 783d e25a 073e
00000290: 91b3 463d 544c 0d3f 1218 093f 28e1 8a3e
000002a0: 2d75 9fbd 0a01 4abd 529e ed3d 85fb 3b3e
000002b0: 942d aabe 9d56 aebd 3edb 85be edc9 dfbe
000002c0: 007f 1ebe aa5a 163d 86e1 343e a55f 5bbc
000002d0: 2df4 a8be 9122 0cbc e0a6 8ebe 5392 6cbf
000002e0: 812b ac3c a3e1 b1bc 3f91 683e 6b50 9f3d
000002f0: 0060 0b3e a199 4d3e a9c1 1a3e 8693 c7be
00000300: 698f afbe 9fbb 6e3e 7a6a 223e b4e9 243e
00000310: 0929 91be 658c 9e3d 2c9d 09bf f3c8 89be
00000320: 9acd 033f 00a9 073e 36a7 7a3e 4265 bfbe
00000330: 1b50 d23d e4dc 40be 5fcd 0a3f ea49 533e
00000340: e092 31be 0b4b e93d 1e18 b33d 8722 e7be
00000350: 370e 4dbe 0a2f ac3d b5c4 43be 9d3b 6c3e
00000360: ef91 64bd 083c f0be 2e13 993c a65c 773e
00000370: 9cca 613e c008 283e 7dff f43c de3f 1c3e
00000380: c98a 883e aadb 333b 028e 9fbc 1d96 fa3d
00000390: 0c27 6cbd a869 903f b6c1 b43d 1252 0f3e
000003a0: f968 483f 2492 343e ef57 8c3e c249 a03d
000003b0: 8adb 56bd dfd5 8bbd 6755 393f a5c3 303e
000003c0: da96 223e ef83 103e f4aa b93e db85 13bf
000003d0: c2e9 c63c a595 7e3d 0057 ddbe 7bf2 2b3d
000003e0: 4d5d 97bf add2 5f3e d004 8e3d 349e b83e
000003f0: 8a9e dbbd e71c 5b3e 0983 fdbd b7a3 893e
0.0008052064 -0.2765219 0.05956094 0.037454803 -0.15061149 0.2899744 0.08363573 -0.080350325
-0.45441443 0.020440781 0.008559618 -0.29739982 -0.049720835 0.062951796 0.07819367 0.026261702
-0.1395231 -0.17070982 0.24707109 0.25202057 0.19964324 -0.024174592 -0.032869834 0.16959846
0.12411091 0.01447235 0.1858347 0.080946214 0.19274597 0.57002836 0.23965767 0.19641942
-0.3972081 -0.140141 -0.12770076 0.04861679 -0.11998161 -0.038098834 0.21588467 0.03311108
0.5317864 -0.069374405 -0.08257748 -0.10218662 0.17360744 -0.08350429 -0.05995992 0.103353344
-0.10746602 -0.056785032 -0.45766392 0.11214364 -0.097977094 0.24825117 0.42007884 -0.12312818
-0.23458534 0.15465008 -0.43696505 -0.026984263 0.23663038 0.07282976 -0.21449491 -0.048837576
0.14146668 -0.037371613 0.14875136 -0.1563542 0.31868005 -0.55488896 -0.04658908 -0.1592781
-0.10887749 -0.043389782 0.40699232 0.23109503 0.24616657 0.2879019 0.35216868 0.25204572
0.1457871 0.4114429 0.17705211 0.20193775 0.19385768 0.1364909 0.33059353 0.0149610955
0.17694172 0.0058226953 0.09185708 0.063333765 -0.061934292 -0.07484698 -0.02978532 -0.07974792
0.2031645 0.1350414 0.12906654 -0.80822605 0.13794254 0.14496143 0.053444955 -0.734306
-0.032072503 1.3246211 0.04548176 0.0815196 -0.028095001 0.046352904 -0.49132797 0.18439586
0.04250964 0.19413052 -0.44410533 -0.28598994 -0.27541938 0.19344002 0.0017265888 0.104294024
-0.29851413 -0.1411894 -0.62757397 -0.5114517 -0.049828164 -0.13722247 -0.8513719 -0.10430321
-0.10150884 -0.000367159 -0.29581496 -0.040681574 0.38002715 0.26768953 -0.25072613 0.47323966
-0.009892784 0.17102964 -0.088682346 0.027729193 0.145792 0.08554676 0.1911572 -0.20415314
-0.06295268 0.34815338 -0.3040609 0.34229502 0.23926626 -0.18738076 0.02199969 0.17206743
-0.105730616 0.6558382 -0.15185037 -0.019260049 0.13636683 0.013369844 -0.061630413 -0.13345803
-0.18359686 -0.072269775 0.06077405 0.13218263 0.04851109 0.5519459 0.53552353 0.27124906
-0.077860214 -0.049317397 0.11602463 0.18357666 -0.33237898 -0.08512614 -0.2614383 -0.43708745
-0.15478134 0.036707558 0.17664155 -0.013389503 -0.3299879 -0.008553163 -0.2786169 -0.92410773
0.021016838 -0.021714037 0.22711657 0.077790104 0.1361084 0.20078136 0.15112938 -0.3897974
-0.342891 0.2331376 0.1586093 0.16104776 -0.2835162 0.07741622 -0.5375545 -0.26911125
0.514856 0.13248062 0.24477848 -0.3738194 0.10269185 -0.18834263 0.5421962 0.20633665
-0.17341185 0.113912664 0.08744834 -0.4514353 -0.20024954 0.084074095 -0.19118007 0.23069616
-0.055803236 -0.469208 0.018685903 0.24156436 0.22049946 0.16409588 0.029906983 0.15258738
0.26668385 0.0027444162 -0.019476894 0.12235663 -0.057654426 1.1282244 0.0882601 0.13996151
0.78285176 0.17633873 0.27410838 0.07826568 -0.052455463 -0.06827902 0.7239594 0.17262132
0.15877858 0.14112829 0.3626324 -0.5762612 0.024281386 0.06215443 -0.43230438 0.041979294
-1.1825348 0.2185771 0.06934512 0.360582 -0.10723598 0.21397744 -0.123785086 0.26882717

bias f4 [125]
00000000: e749 b4bd 01fe 7ebe 6351 0cbf 42f1 73bf
00000010: 8c9d ebbe 29fb 9bbe e9dd b4be 29cf e2bb
00000020: 45ba 21bf 1347 edbe 9162 b2bd 48bd 69bf
00000030: 3230 3bbf 32ee 33bf da81 05bf 6c2e a1bf
00000040: ba89 acbe 9f73 0cbf 125e 7f3c 0187 3cbf
00000050: 3693 ffbe 434b 5fbf 4580 94be bd82 b6be
00000060: fcfc aebe 1346 d8be d10a 12bf 2056 4fbf
00000070: 72bd 8fbe 1867 09bf 9b80 68bf 7641 12bf
00000080: 8471 d2be aed2 96be 4285 3bbf 5f46 d1be
00000090: 4835 5bbe 8193 00bf 153d f7be 4110 b1be
000000a0: f3dd 0dbf 04b8 21bf 8209 bebe 6390 1dbf
000000b0: b934 c5be 983f bbbe 2904 bdbe ebf6 a6be
000000c0: d072 abbe 6993 96bf 40c3 c3be 5a96 01bf
000000d0: 0cf9 c2be 50d6 8fbe 7a8d 97be f961 00bf
000000e0: 1ac3 e9be 9aa0 25bf a98b 09bf 26d1 55bf
000000f0: 478f 90be b126 5ebf f1e3 12bf 1976 66be
00000100: 89f9 0ebe 8d6f 52be 1a5d 23be ff93 43bf
00000110: 90b9 7cbe cd4d 04bf ac0d 68be 23e8 c5be
00000120: cc7a a8be b11b 2dbf ec9f 0abf 970f 2dbe
00000130: 995e 77be 0e9b d0be 93da 2fbf 5a0c d5be
00000140: ebf2 c7be a6f7 bebe 71b8 d2be b40a 61bf
00000150: 2832 88be 7b62 8abe f7d1 acbe 2368 8b3c
00000160: 8b8a c7be 46ee 7abf a364 0ebe a070 f0be
00000170: a00c c9be 1cfe 6cbe e72d efbd 8602 88be
00000180: eb37 9cbe e9b3 25bf b123 ccbe aaa0 04bf
00000190: 362d 71be e15a bfbe 5521 d7be b59a 9bbe
000001a0: 3db5 bbbe 890b 92be 3958 eebe c3d7 c3be
000001b0: 03f4 29bf 4844 07bf 011f 08bf e659 37be
000001c0: 2ecf 5dbf c48f b1be 49d6 e3be 3749 ecbe
000001d0: 71e3 29bf 40d6 43bf 0f5b 26bf 4691 e4be
000001e0: 1b45 13bf ba56 a1be 338a 0fbf 1cfe b1be
000001f0: ae51 bdbe
-0.08803158 -0.24901582 -0.54811686 -0.95290005 -0.46018636 -0.30465057 -0.35325554 -0.006921668
-0.6317485 -0.46343288 -0.08710206 -0.91304445 -0.73120415 -0.7028533 -0.5215126 -1.2592292
-0.33698827 -0.54863924 0.015586393 -0.736435 -0.49917 -0.87224215 -0.29004112 -0.3564662
-0.34177387 -0.42240962 -0.57047755 -0.8099079 -0.28074223 -0.53672934 -0.90821236 -0.57131135
-0.4110223 -0.2945761 -0.7325021 -0.40874 -0.21407044 -0.50225073 -0.4828879 -0.34582713
-0.5541679 -0.6317141 -0.3711663 -0.6154844 -0.38516787 -0.36571956 -0.36917236 -0.32610258
-0.33486032 -1.1763736 -0.382349 -0.50620043 -0.38080633 -0.28093195 -0.29600126 -0.50149494
-0.45656663 -0.64698184 -0.5372873 -0.8352226 -0.28234312 -0.8677779 -0.5737906 -0.22505988
-0.13962378 -0.20550366 -0.15953484 -0.763977 -0.24680161 -0.51681215 -0.22661465 -0.3865367
-0.32906187 -0.6762038 -0.5415027 -0.16900478 -0.2415718 -0.40743297 -0.6869289 -0.41610986
-0.3905252 -0.37298316 -0.41156343 -0.87906957 -0.26600766 -0.2702826 -0.3375394 0.01701743
-0.38972887 -0.98019826 -0.13905577 -0.46960926 -0.39267445 -0.2314381 -0.11678677 -0.26564425
-0.30511412 -0.64727646 -0.3987098 -0.51807654 -0.23552403 -0.37374023 -0.42017618 -0.3039147
-0.3666171 -0.28524426 -0.46551684 -0.3825055 -0.6638796 -0.52838564 -0.5317231 -0.17905387
-0.86644256 -0.34679997 -0.44499424 -0.46149608 -0.66362673 -0.76498795 -0.64982694 -0.44642085
-0.5752732 -0.3151148 -0.5607025 -0.34764183 -0.3697638

weight f4 [250, 125]
00000000: 6d3f 8f3d 1f9c 87bd 86e2 2dbe 2c89 f5be
00000010: 9d8c a4be 96f2 e3be a01c 87be baf5 dcbe
00000020: cddd 94bd d253 293f b01b 603c ee61 3cbd
00000030: f75c 7e3e d6ce 21be a765 38be 76bf 0b3e
00000040: a83e 0cbf e7d2 903d 60a8 72be 0845 d33e
00000050: 199b b73e 4769 6d3e 7d8e 473e a0d6 c5bb
00000060: 760a 003e 765a afbe 8414 563e 87fe 7c3c
00000070: 45be 6cbe c04b 52be d932 1c3e 83eb b6be
00000080: 3491 463d 95ff 163d 1648 a4be 658a e3be
00000090: 9b7c c2be ba05 a8be bf7b 54bd 2137 ccbd
000000a0: 381c 99be eb70 323e be43 c83d 7c3e b8bc
000000b0: 0b73 6c3e c5f5 43bf 876c 9bbe 33d2 cbbd
000000c0: 49dc 8ebe 6750 823d 57cd 033d c971 09be
000000d0: 149a a8be 498f b5be c7ad 5f3e f5e2 853e
000000e0: 08e8 ec3d 9dc3 e7be 47c2 333d 2855 0abe
000000f0: 07be a23e 67ad a5be 7438 f7be d5ac 02bc
00000100: bb48 143d 29c9 a0bf b56f 78be 07b1 b3be
00000110: 92ae a13d 2bcf 75be eaac 80bf b347 49be
00000120: 3e91 bebc 1726 a9be 97bb 423e 6de1 ffbe
00000130: 45a8 3dbf 25e5 4dbe 9ec2 00be b580 7c3e
00000140: 05e0 053e ed44 13be 90a1 4bbe 4323 be3e
00000150: e5d2 28be 1b79 2bbf 837b 70be 8946 f23d
00000160: 8d02 8b3d b595 5cbe 5500 12bf a490 893d
00000170: 8723 143e c51c a63c 0692 97be 6bfb fbbe
00000180: 1b81 91bd 10e7 95be 29ed 84be bfb2 9cbe
00000190: 6252 7b3d 03d7 a33e a28d d3bd 1263 963e
000001a0: 462d 10be a004 85be c5c8 04be efb3 38be
000001b0: c9f0 173d 58d3 e93d 20ee 803d 7721 8dbe
000001c0: 930f 92bd 296d bb3d 8ba7 99be 72a0 b23e
000001d0: 694d 3e3e cabb 06bf 0e0c 3b3e a0b8 6abe
000001e0: 633f a5be 6dc5 cdbe 01f3 dbbe b47a 5e3d
000001f0: 5abd 883d 741f 4cbe 9164 0fbf 06b6 27be
00000200: 8801 07be 9641 75be 797c 0bbe 9c85 143d
00000210: c626 f9bd 7d18 07be 82a0 a53d c522 7dbd
00000220: b117 3e3e 2f6c 26be 1ac6 ec3c 107c bc3d
00000230: 6ff6 11bf d7e9 0d3d 2fe5 bbbe 2ef0 78be
00000240: 3622 103e aea2 5d3e 27de 0c3e 41a9 183e
00000250: 2349 833e dce7 353e 07fb 6dbe 3629 18bf
00000260: 6183 cabe 2923 57bc ff17 933e ef1c f63e
00000270: 8f16 f0bc b945 973e 16b3 40be e806 02be
00000280: 307e 70be 06ff a8be 47d7 db3d 178b c2be
00000290: 3b2a b4bd 83c9 1abf 18a7 5abe 7ad6 9f3c
000002a0: c6b3 2f3e 147f a6be 23ba a5bd f7bd b43e
000002b0: 02f1 113c b43d c5be 8cdb 293d fc18 403d
000002c0: 82dd 0abe a683 5bbe 860d 27be e07f e83d
000002d0: 12f3 a53e 8871 27bd dc33 b9be 59a2 82be
000002e0: 5ed5 c1be 3518 63be 0233 b23e 27e0 7cbe
000002f0: 062a 01bd 9553 203e 3f91 54be 1e23 3fbe
00000300: eb45 bfbe fddc ee3e 85d0 abbe 8de8 cbbe
00000310: 25b1 043c eb27 7e3e c1fb b5be 53af 99be
00000320: be11 dcbd a6ca eebd d715 3cbe 76a6 adbd
00000330: b445 35be 4859 9e3d 94c5 fb39 1717 a8be
00000340: 784f 8bbe 444e 0d3e 98cc a5be 1d72 f6be
00000350: 41cf 443e fc1f 8dbe edf8 16bc b7d0 afbe
00000360: da4f 62be 7fe9 a4be a0db 3fbe 6608 1abe
00000370: 4c7c 6bbc ff40 b23d 9dc4 843e 005b 26be
00000380: 6cf4 b4be db6d 0c3f 7cde 11bf b023 a8be
00000390: a9bb abbc 0a9c f5bc 34ef 08be 65e7 043e
000003a0: 693d 02bb 5c0e b6be 6a83 d2be fcd0 28be
000003b0: 3c31 9abe 8a23 c43e f259 63bd c595 2a3e
000003c0: caa2 c83e dc53 663e 77ed 8f3e 3a63 97be
000003d0: 8725 6dbf d6cb 4ebf 2294 b73e 6d91 27bf
000003e0: b9dc 57be 4015 253e 5746 593d bd3e 82bf
000003f0: 25c7 24bf 0635 0abf 996e 403e c80a 15be
0.069945194 -0.066215746 -0.16980943 -0.47956216 -0.3213853 -0.44521016 -0.26389027 -0.43156224
-0.07268868 0.66143525 0.013678476 -0.04599183 0.24840151 -0.15801558 -0.18007527 0.13647255
-0.54783106 0.070714764 -0.23697042 0.41263604 0.35860518 0.23184691 0.19487949 -0.006037548
0.1250399 -0.34248704 0.20906264 0.015441543 -0.23119457 -0.20536709 0.15253772 -0.35726556
0.04847832 0.036864836 -0.32086247 -0.44441524 -0.3798569 -0.3281687 -0.051875826 -0.099714525
-0.29904342 0.17425887 0.09778546 -0.022490732 0.2309076 -0.7654689 -0.30356237 -0.09952202
-0.2790244 0.06362992 0.03217825 -0.13422312 -0.32930052 -0.3546088 0.21843635 0.26149717
0.11567694 -0.4526643 0.04388645 -0.13509047 0.31785604 -0.32358858 -0.48285258 -0.007975777
0.036202174 -1.2561389 -0.24261363 -0.35096 0.07894625 -0.2400481 -1.0052769 -0.19656257
-0.023262616 -0.33036873 0.19016872 -0.49976674 -0.74084884 -0.20106943 -0.1257424 0.24658473
0.13073738 -0.14381762 -0.1988585 0.37136278 -0.164867 -0.6698167 -0.23484616 0.1182986
0.06787596 -0.21541484 -0.57031757 0.06717041 0.14466678 0.02027739 -0.29603595 -0.49215254
-0.07104703 -0.2927785 -0.2596219 -0.30605122 0.061357863 0.31999978 -0.10329749 0.2937246
-0.1407977 -0.2598009 -0.12967212 -0.18037389 0.037094865 0.11417264 0.06295419 -0.27564594
-0.07131877 0.0915168 -0.30010638 0.34888035 0.18584217 -0.52630293 0.18266317 -0.22921991
-0.32274923 -0.40189686 -0.42958835 0.054316238 0.06676741 -0.19933873 -0.5601283 -0.1637803
-0.13184178 -0.239508 -0.13621701 0.036260232 -0.121655986 -0.13192935 0.08087255 -0.061800737
0.18563725 -0.16252206 0.028903056 0.092033505 -0.5701665 0.034646835 -0.3669829 -0.24310371
0.1407555 0.21644089 0.1375662 0.14908315 0.25641736 0.17764229 -0.2324029 -0.5943788
-0.3955336 -0.013130941 0.28729245 0.4806895 -0.029307632 0.29545382 -0.18818316 -0.12697947
-0.23485637 -0.33007067 0.1073442 -0.37996742 -0.08797117 -0.6046373 -0.21352804 0.01951145
0.17158422 -0.32518828 -0.080921434 0.35301182 0.008907558 -0.38523638 0.04146914 0.046898827
-0.13561061 -0.21436939 -0.16313753 0.11352515 0.3241201 -0.040879756 -0.36172378 -0.25514486
-0.378581 -0.22177203 0.3480454 -0.24694882 -0.031534217 0.15656884 -0.20758532 -0.1866574
-0.3735803 0.46652976 -0.33557525 -0.3982586 0.008098875 0.24819915 -0.35543635 -0.30016574
-0.107455716 -0.11659746 -0.18367706 -0.084790155 -0.17702371 0.07731873 0.00048021658 -0.32830116
-0.27209067 0.13799387 -0.32382655 -0.48133937 0.19219686 -0.27563465 -0.009214622 -0.34338924
-0.22100773 -0.32209393 -0.18736124 -0.15042266 -0.014372896 0.08703803 0.25931254 -0.16245651
-0.3534273 0.54855126 -0.5698011 -0.32839727 -0.020963507 -0.029981632 -0.13372499 0.12978895
-0.001987303 -0.3555783 -0.41115886 -0.16485971 -0.30115688 0.38308364 -0.0555057 0.16658695
0.39186698 0.22492927 0.2811086 -0.2956789 -0.9263539 -0.8077978 0.35855204 -0.6545628
-0.21080293 0.16121387 0.053045597 -1.0175396 -0.6436637 -0.5398716 0.1879219 -0.14554894

bias f4 [250]
00000000: 721a 21be 2980 8bbb 0a48 463d 0876 35be
00000010: f871 963c 4d41 f93d 9a96 dbbd cedc a23e
00000020: b3fb 82bd c47b 153e a55e 183e 60bc 003e
00000030: 3709 74be 79d2 a83d 0621 24bf 240a 0f3e
00000040: 2d22 9e3d c5e9 133e e4e0 17bd b60f 6dbe
00000050: 0af5 78be aa38 503c 8f29 6bbd 2852 623c
00000060: a935 03be 4b94 da3d bcb9 e9bf 2f83 ab3d
00000070: e0bc 60bd 1f5d 8bbd 1100 a1bd 7e47 0bbd
00000080: b602 e5bf 127c e4bf 3a1d 493d 96b6 a83c
00000090: b787 88bd cd64 cbbf fe69 383e 0be3 a2bd
000000a0: c547 de3d ffc2 6d3c 3155 273e e0bb 923d
000000b0: 2908 df3d 234b e43d 47df 8bbe cf5f a23d
000000c0: 58a9 a3bf 1094 323d 330e c4be fb6f b5be
000000d0: 74f4 24bd 9865 3a3e e1e1 4abd de73 353e
000000e0: bd94 7a3d c760 02be 4120 4dbc a86b acbd
000000f0: ad79 0ebe 5f6c 133e d6a7 233e f575 8ebe
00000100: c8d1 063d 6225 d63c 3372 843c 03af e53c
00000110: 857d 0e3d 4d5a 17bf a9a8 a9bd b5a3 0b3e
00000120: 0adc d5bc 7c45 bcbd 577b 3fbd 6ced 45be
00000130: ea47 e73c 377f 81bf 6d75 2c3e bd33 6cbe
00000140: 9356 163e f30b ecbd bc94 c4be 2c59 4ebe
00000150: d501 94be 6c54 3a3e c9d4 b7be 9422 b3bc
00000160: 5c5c 6fbd 9815 aebe 3b0f 953c 24a1 13be
00000170: 2a7f 8bbe 87af 8dbd caf0 edbd 9fee 0e3d
00000180: d610 2abc 57d8 be3d 077c 933d 37f0 00be
00000190: 508d aa3d 81db f93c 9a4f ba3d 187f c5bd
000001a0: 5090 1bbd 8e27 b6be bb4c db3d fdff 8e3d
000001b0: 4a4c 5e3d f659 61bd 8a12 c7be 3f29 d83d
000001c0: 866d 0ac0 f658 2fbe a52e 10be d744 8fbf
000001d0: f5fb e4bf fc3f 813d 0232 55be c6f3 d1be
000001e0: a2f7 b0bb 9aab 8abe 87f6 70be 0eb1 f93d
000001f0: e9f6 c2be 58ad fc3d 2fb9 f13d 8804 26bd
00000200: 8682 cf3d 1c56 1dbd a126 af3d 9f87 d73d
00000210: 6ae7 a1bd 700d 5b3d dc59 8dbd 326c 283d
00000220: 57e0 cfbe 06a1 023d 5f0d babe 0788 cc3d
00000230: c5f1 07bd 6290 9d3d b1fd 88bf 3a53 1c3e
00000240: cd7e 093c 9de5 8a3c f182 36be f808 813d
00000250: a6a2 8bbd 389e ec3d 319a c1be a391 eabf
00000260: 8a81 d4bf c621 fcbe 5d3d 563d 1d12 2d3e
00000270: d25c 0d3e 26d2 e03d b4a6 a2b9 011f 353d
00000280: 283c f63d 22a4 a1be 2726 fe3d 3f41 18bf
00000290: 77df 5fbe 1cff 75be 321c 433d 5eab 7abd
000002a0: 4bd7 2ebc 48c3 ddbd 2de1 c13d 6e16 e4bd
000002b0: 7d37 1abe 65a2 a8be 9bfa ebbe 21fc b43a
000002c0: 3f95 8abd 3c57 04be 817d 89bd 5978 03c0
000002d0: 2ea8 bbbc feb2 953d 6422 7ebf a796 243e
000002e0: 89f4 88bd 68bd 11bf e632 343e fb5f 93bd
000002f0: a7b0 223e b21b 2ebe a970 143e 320d 213e
00000300: d78c ccbe 3dda 9dbe 33b1 d9bf aae1 2d3c
00000310: 84d1 9e3c 06f3 4dbe 2611 fb3d 6632 313d
00000320: 51af eabe e90f 79bf 63ac 31bd 32f5 1c3e
00000330: 7929 733d 771e 40bc 3091 e9ba c213 6d3d
00000340: 3bda 36be d431 2a3d 83e5 143e b312 7bbe
00000350: 6c6f 79bd f921 b1be a15e 1e3e fe56 ea3a
00000360: 62cf 90be d82b 9f3d fc70 4abe e3a7 fbbd
00000370: 5bdf a6be 88dd 453d 2432 dc3c 7204 8fbf
00000380: a3c9 bcbe 34bb 673d 6428 dfbf 30e2 5a3e
00000390: e66a 10bd 0a6e 1b3d 9cd9 d43d d590 843d
000003a0: 7bb4 e5be 9a57 f43d ccbb 3fbf c7ac 923c
000003b0: 6b76 1d3d 6a34 2c3d 1a5e 053d 6a35 3cbe
000003c0: 8cf1 1bbf 8485 e53d e8cf c7bf e8f0 1abe
000003d0: 3c34 e03d 6da2 503d 3405 f83d 80e0 79be
000003e0: 6308 13bf 8086 cd3d
-0.15732744 -0.0042572212 0.048408546 -0.17720807 0.018364891 0.12170658 -0.10722084 0.31809086
-0.06395664 0.14597994 0.14879854 0.1257186 -0.2383164 0.082432695 -0.6411289 0.13968712
0.07721362 0.14444645 -0.037079707 -0.23150524 -0.24312225 0.012708822 -0.05741268 0.013813533
-0.12813438 0.10672816 -1.8259807 0.08374631 -0.054867625 -0.06804871 -0.07861341 -0.034003727
-1.7891452 -1.7850363 0.04910014 0.020594876 -0.066665106 -1.5890137 0.18009183 -0.07953461
0.10853533 0.014511823 0.16341092 0.071647406 0.10890228 0.11147144 -0.27318785 0.0792843
-1.2786055 0.043598235 -0.38292083 -0.35436997 -0.04027219 0.18202817 -0.04953182 0.17719981
0.061177004 -0.1273223 -0.012519897 -0.08418971 -0.13913603 0.14396809 0.15981993 -0.2782437
0.032914907 0.026140872 0.016167736 0.028037554 0.034787674 -0.59122163 -0.082841225 0.13636668
-0.0261059 -0.091929406 -0.046748485 -0.1932885 0.028232533 -1.0116948 0.1684167 -0.23066612
0.14681463 -0.11525717 -0.38394725 -0.20151204 -0.28907648 0.18196267 -0.3590453 -0.021867074
-0.05843769 -0.3400085 0.018195739 -0.14416939 -0.27245456 -0.06918245 -0.116181925 0.034895536
-0.010379991 0.09318607 0.07201391 -0.12591635 0.083277345 0.030500175 0.09097214 -0.09643382
-0.037979424 -0.35577053 0.107079946 0.0698242 0.054271974 -0.055017434 -0.38881332 0.10554742
-2.1629348 -0.1712378 -0.14080293 -1.1192883 -1.7889391 0.06311032 -0.20819858 -0.41006297
-0.005400614 -0.27084047 -0.23531543 0.121919736 -0.38079002 0.1233775 0.11802899 -0.040531665
0.10132317 -0.0384122 0.0855229 0.105239145 -0.07905467 0.053479612 -0.06901905 0.041118808
-0.40600845 0.031891845 -0.36338326 0.09986883 -0.033189554 0.076935545 -1.070242 0.15266123
0.008392048 0.016955191 -0.17823388 0.06300539 -0.06818132 0.11553615 -0.3781295 -1.8325695
-1.6602032 -0.49244517 0.052304614 0.16901441 0.1380494 0.10977583 -0.0003102325 0.04421902
0.12023193 -0.31570536 0.12409621 -0.5947456 -0.21862589 -0.24023098 0.04763431 -0.061198585
-0.010671447 -0.108282626 0.09466777 -0.111370906 -0.1506023 -0.32936397 -0.46089634 0.001380805
-0.06766748 -0.12923902 -0.06713391 -2.0542204 -0.022907343 0.07309531 -0.99271226 0.16073094
-0.066872664 -0.56929636 0.17597541 -0.07196041 0.158877 -0.17002752 0.14496101 0.1572769
-0.39951202 -0.30830565 -1.7007202 0.010612885 0.019387014 -0.20112237 0.1225913 0.043260954
-0.4583688 -0.972899 -0.04337729 0.1532791 0.059365723 -0.011726013 -0.0017819759 0.05788017
-0.17856686 0.041551426 0.14540677 -0.24518852 -0.060897276 -0.34596232 0.15465786 0.0017878709
-0.2828322 0.077720344 -0.19769663 -0.12287881 -0.32592282 0.04830697 0.026879378 -1.1173232
-0.36872587 0.056575015 -1.7434201 0.21375346 -0.035258196 0.03794674 0.10393068 0.06472937
-0.44864258 0.11930771 -0.7489593 0.017904652 0.03844301 0.042042173 0.032560445 -0.18379751
-0.60915446 0.11207107 -1.5610323 -0.15130961 0.10947463 0.05093615 0.121103674 -0.24402046
-0.5743467 0.100354195

weight f4 [100, 250]
00000000: 919f 933e 70ca 003e e40f 44be 50eb c73e
00000010: ddcb 413e 4899 fcbb 62b5 ed3e b3be 563e
00000020: ee1b bdbe 89bf ce3b d6a9 0d3e 7426 13bd
00000030: b525 d43e 7331 56bd 2336 f63d 0bde 87bd
00000040: e98a 5e3e 1a1e 303d 8afb 483e 585b 72bd
00000050: dc27 8c3e be04 943d 5781 b03c 00d1 713e
00000060: 62ea e63d 518f 623e 35d7 52bc 0b1c 7d3e
00000070: 1dab 833e f658 15be dda4 533e de3c ad3e
00000080: c3da 10bd ffea bbbb af0b c7bb b85a b33e
00000090: 8c90 b23d d73e 5b3d 335c e03d 7531 91be
000000a0: c28f e1bd 52f8 b1be 09d7 62be 120f 14be
000000b0: 347c 30bd e098 d33e e669 9c3e d05f 793e
000000c0: 8520 37bd e314 b0be bf17 653e d0d5 493e
000000d0: 4295 ad3e a848 e3bd 289e 993e 91ac 343e
000000e0: 9f54 3c3e 2f44 20bd c1cc a4be 2fe9 bdbc
000000f0: 32c1 043d e210 143e 2e61 d83d d977 d43d
00000100: b54a 923e 28b6 0d3e 4f1e 443e c460 803e
00000110: 3927 f9bd 3889 2b3e e940 3d3d 4fdb 003e
00000120: 4246 57bc a0f6 0c3e 5ead 6b3e 3212 63be
00000130: 4f48 81be aec5 00bd a9ff f0bc 5880 ddbd
00000140: e6bc 56bd 7802 7e3e 4152 173e 7131 cd3c
00000150: 9963 cc3e 312a 3f3d 8bbe f6bd 5ee3 7d3e
00000160: e980 9dbe 7982 edbd 6da6 b13e e9c4 5dbe
00000170: 87cb 403e 4aff 863e 36cc 9f3e c37d c43d
00000180: b5fe c0bd cc12 b13e a681 ab3e d0a0 0a3e
00000190: 4110 1b3e 9ad5 12be b126 febe 0ba3 56bc
000001a0: 5f05 de3d 9b09 c73e 7168 febd 6485 cb3d
000001b0: 73cd 003f 1d1a 563d 20be 5b3d 726c 563d
000001c0: 07a2 36be 2d86 c93e 8ba7 693c cc38 523c
000001d0: 2687 df3c 6d62 473c b35f b23e 9048 9b3e
000001e0: 6def 883e cac2 cebd 6152 c4be bb79 cbbe
000001f0: f600 db3e b388 ecbe 93f3 583e 1007 583e
00000200: 9bed d23e aa9c bdbd de9a e5be a14e 1abe
00000210: 6359 b93e 364a 34be 119e 893e 357a 33bc
00000220: 20bc c53e b562 c93d 4f64 9fbe 3c50 693e
00000230: eec1 273e 6f9c d83d 6865 7abc 30fb 623e
00000240: 1203 7e3e c8d1 c5be 95c8 4c3e 2892 803e
00000250: d8a2 2a3d adcc e7be 87b7 133e 935b e3bc
00000260: fedf d63c 96c3 3e3d f2a2 8e3c e488 b23e
00000270: 4eb5 db3d 5f1e a3be 7959 5c3d 3a51 2a3e
00000280: c028 f0be 4eb8 7bbc bb2a ac3d 7990 abbd
00000290: 8184 04be 063e eb3d 2281 b73e 2334 34bf
000002a0: 4988 bb3e f7fd b9ba 45f3 2b3d 72aa 6e3e
000002b0: 7f72 43bd ffcb b13e 1e3e 45bd 374f b4bd
000002c0: 5672 f33e 836d d33d 6c27 cbbe eba3 82bd
000002d0: 5eb0 91be 525d 943e f045 723d f8f0 09bd
000002e0: fe09 903d 9f9b be3e ea09 d63e c7e8 883e
000002f0: bc5c b7bc 9091 83be 8afc a93e 9c74 383e
00000300: c997 313e 9698 b63e 5c46 b5bc 9d14 df3e
00000310: e93c 73be 7325 0c3e e1e7 823d 61a7 67bd
00000320: 810f 553e 5c0f febd 612a 12bf ca52 0f3e
00000330: 864f a73d 4f8f 133e 11e6 3cbe e6c4 eebd
00000340: 68da f13e e9ac 0e3e c6bc cabe 9783 a2bd
00000350: 6809 6b3d 620b 6c3e fcf0 933e de75 fbbd
00000360: b899 813e 4b76 c7be 7553 5e3c ac2a 4fbf
00000370: eba7 b63d eecd ae3e 3e12 5d3e 0a42 1abe
00000380: f3f6 34be 6075 d73e d3df b23c 4025 11be
00000390: 489a 6b3e 2c83 bbbe f183 5a3d b929 f2be
000003a0: 5006 813e 3e3d 1abe 2dc4 383d 50d2 473e
000003b0: 1ad6 6e3e 5f9e 083e d840 d7be a7f3 d23e
000003c0: a529 913c bec2 053c 3758 9dbd cae3 753e
000003d0: addb 1b3e aa72 953e 1245 353e 3ba2 c93e
000003e0: ffc5 883e 5638 693e 4464 2a3c 86b1 f43e
000003f0: c1c1 ecbd 274c 5dbe 2b81 fa3d c1e3 94be
0.28832677 0.12577224 -0.19146687 0.39046717 0.18925424 -0.0077087022 0.46427447 0.20971183
-0.3693537 0.006309454 0.13834319 -0.035925344 0.41435018 -0.052293252 0.120220445 -0.06634148
0.21732678 0.042997457 0.19627205 -0.059169143 0.2737416 0.07227467 0.021546049 0.23614883
0.11275174 0.22124983 -0.012868692 0.24717729 0.25716487 -0.14584717 0.20668359 0.338355
-0.035364877 -0.005734801 -0.006074391 0.3503015 0.087189764 0.053526726 0.109550856 -0.28358045
-0.11013748 -0.34759766 -0.22152342 -0.14458874 -0.0430872 0.41327572 0.30549544 0.24352956
-0.044708747 -0.34390935 0.2237234 0.19710469 0.33902937 -0.110978425 0.30003476 0.17643954
0.18391655 -0.039127525 -0.32187465 -0.02318248 0.032410808 0.14459565 0.105654106 0.103744216
0.28572622 0.13839018 0.19152187 0.25073826 -0.12165684 0.16751564 0.04620448 0.1258366
-0.013139309 0.13765955 0.23015353 -0.2217491 -0.2525048 -0.031438522 -0.029418783 -0.10815495
-0.05242624 0.24805629 0.14777471 0.02504799 0.39919737 0.046671096 -0.12048062 0.24793765
-0.30762413 -0.11597151 0.34697285 -0.21657147 0.1882764 0.26366645 0.31210488 0.095943
-0.094235815 0.34584653 0.3349735 0.13537908 0.15142919 -0.14339295 -0.49638894 -0.013100396
0.10840868 0.38874516 -0.12422264 0.099375516 0.5031349 0.052270997 0.053648114 0.052349515
-0.17835246 0.3936018 0.014261137 0.012830924 0.027286123 0.012169463 0.34838638 0.30328798
0.26745167 -0.10095747 -0.383441 -0.3974131 0.4277417 -0.46198043 0.21186666 0.21096444
0.41196904 -0.09258397 -0.44844717 -0.15069057 0.3620101 -0.17606434 0.26878408 -0.010954429
0.3862009 0.0983328 -0.31131217 0.22784513 0.16382572 0.10576712 -0.015282966 0.22166133
0.24805859 -0.38636613 0.19998391 0.25111508 0.041659206 -0.45273343 0.14425479 -0.027753627
0.026229855 0.046573244 0.017411683 0.34870064 0.107279405 -0.3185911 0.053796265 0.16632548
-0.4690609 -0.015363766 0.08406588 -0.08377165 -0.12941171 0.114864394 0.35840708 -0.70392054
0.36627415 -0.0014190067 0.041980047 0.23307207 -0.047716614 0.3472595 -0.048154943 -0.088041715
0.4754817 0.10323622 -0.39678514 -0.06378921 -0.2845487 0.28977448 0.05914873 -0.03367707
0.07033156 0.37228104 0.4180444 0.26740095 -0.022383086 -0.25696993 0.33200485 0.18013233
0.17343058 0.3566329 -0.022128277 0.43570414 -0.23753704 0.1368616 0.06391884 -0.05655611
0.20806696 -0.12405273 -0.57095915 0.13996425 0.08169465 0.14410137 -0.18447138 -0.11658649
0.47236943 0.13933147 -0.39597148 -0.07935255 0.057382017 0.23051217 0.28894794 -0.12278341
0.2531259 -0.38957438 0.013569702 -0.8092449 0.089187466 0.34141487 0.2158899 -0.15064254
-0.17672329 0.42081738 0.021835243 -0.14174366 0.23008072 -0.36623514 0.053348485 -0.47297457
0.2520013 -0.15062425 0.045108963 0.19513822 0.23323861 0.13341664 -0.4204166 0.41201517
0.017720053 0.008164106 -0.07682841 0.24012676 0.15220518 0.29189044 0.1770213 0.39381585
0.2671356 0.22775397 0.010399882 0.4779169 -0.11560393 -0.21611081 0.12231668 -0.29080012

bias f4 [100]
00000000: 70f7 fb3c 1372 d33d 41d1 eebc e8e2 99be
00000010: e6ea 1bbd ddab 8dbe 6d1b 453e 59b8 bb3c
00000020: 0d59 71be d4e8 313e 6f69 97bd dcf6 6c3e
00000030: a55e 22be f9b3 9bbe 2d33 873e c29f 413e
00000040: a992 9a3e b758 81be c171 3f3d a175 e8be
00000050: 8e07 f23d 4760 893e f344 8d3a 7d31 63be
00000060: 5f46 40be 7715 573e 8dbf d03d f065 1dbe
00000070: 7800 8e3b a325 99bc aec8 e5be 8fdc e33d
00000080: 796a 43bd 1bf9 ecbc ac1d dd3b 9f99 723e
00000090: 8543 abbd 81de 3d3e d672 983e 59fa 963d
000000a0: 189c 983d 9cbe 34bc 8563 8d3d 9505 dbbe
000000b0: 93ed 7b3e fa24 a93c 6e74 50be 3407 3e3d
000000c0: 1785 4b3d 031a e73d 6292 093e 079d d1bc
000000d0: ef08 8fbe 3de6 24be 25d1 b43d 3ff9 443e
000000e0: cfb9 a0be fe67 7fbe 368f 433e 0f57 4b3e
000000f0: 20a7 9abe 48ca af3d d879 14be 9273 f33c
00000100: 2b94 ae3d d5a5 403e 65b4 8ebd 1ceb f03d
00000110: d264 34bd 535b df3d a1cb 743e a090 7d3b
00000120: d1bb 853e 2f8c 563e 4c8a 3b3c 671f 18bc
00000130: c5a5 a8bc be63 85bd fd33 ae3d 39a7 c43d
00000140: c371 debd 3cc4 8fbe be59 9dbe 1b79 91be
00000150: b859 413e 1843 283e 55a7 9fbc feb2 8cbe
00000160: 44e6 663e 32c9 293e 49fd a9be 5092 b73d
00000170: 31c0 33be a5ff 813e 8fa1 a1bd c338 44be
00000180: 4c79 673c ac08 8a3b 9e8d 403d a40a b0bd
0.030757636 0.10324492 -0.029152514 -0.30055928 -0.038065813 -0.27670184 0.19248743 0.022915052
-0.23569126 0.17373973 -0.07393157 0.23141044 -0.15856417 -0.30410746 0.26406232 0.18908599
0.30190018 -0.25262997 0.046739344 -0.45402244 0.11817847 0.26831266 0.0010777995 -0.22186847
-0.18776844 0.21004282 0.101927854 -0.15370917 0.004333552 -0.018694704 -0.4487967 0.111260526
-0.047708962 -0.028927376 0.006747922 0.23691414 -0.08362488 0.1854191 0.29775113 0.07371969
0.074516475 -0.011031773 0.069037475 -0.42777696 0.24602346 0.020647515 -0.20356914 0.04639359
0.04968747 0.11284258 0.13434747 -0.025587572 -0.27936503 -0.16103454 0.08828954 0.19235705
-0.3139176 -0.24942014 0.190976 0.19857429 -0.3020563 0.08583504 -0.14499605 0.029718194
0.085243545 0.1881326 -0.06968001 0.117635936 -0.044041462 0.109060906 0.23905803 0.003869094
0.26119855 0.20951913 0.011446547 -0.009284831 -0.020586858 -0.06513165 0.0850601 0.09602208
-0.10861542 -0.28079402 -0.3073253 -0.2841271 0.18881881 0.16431844 -0.01948897 -0.2748031
0.22548777 0.16580656 -0.33201054 0.08963454 -0.17553784 0.25390354 -0.07892143 -0.19162278
0.0141280405 0.0042124595 0.047010057 -0.085957795

weight f4 [9, 100]
00000000: 0462 10be dab3 78be b40b ccbe d4e4 9ebe
00000010: 1ee8 9fbe c417 abbd 307f dd3d 492e adbd
00000020: f407 35bf dbce b03d d743 fabe 5a75 0b3d
00000030: 31fb a3bd 8fed 993c 2e15 b8bb 90a6 a6bc
00000040: 5592 7a3d abb2 37bf b17f c1bc eeb1 32bf
00000050: 8b1e 6cbd 5cc6 25be c377 27be 027f 24bf
00000060: b883 61bf 6fa8 6c3d 3460 cdbd e0eb 26be
00000070: 46a4 cfbe 0742 5ebe 2f86 b1be 6140 9ebe
00000080: edd1 b1be 6e7d b1be 81bc 51be b88b 413e
00000090: 8868 fdbc 2020 0dbe 0586 9e3d 08d6 bebe
000000a0: 0cd7 a5bd 4d89 5fbe d60b 81be 4170 8ebe
000000b0: 716a bd3d 46b8 3cbe 9d3d e7be 04c2 99be
000000c0: e989 2ebe cda2 523d 5b45 17bd 467c cdbe
000000d0: c0ff 8cbe 0422 76bd 2868 023e ae7f 193d
000000e0: a940 92be bbf2 7abd e0e0 f9bd 9b2e 813d
000000f0: 950d 04bf 82e2 9dbe 9263 eabe 77c9 ddbe
00000100: ab25 a4be e68f 353d 1155 84bc 57e9 13be
00000110: 1c69 e7be 39bc 88be 60d7 033e 8474 e7bd
00000120: 2623 11bd 8f1e 113e a48e 3cbd c3f5 e3be
00000130: e0f8 f7be 1ad3 87be 9bd5 4ebe 31ad 16be
00000140: 6d24 d6be 5045 d0bf b9a2 a6be af47 40be
00000150: 60a5 bfbc 3124 643d 99f8 4dbe 48f3 dcbd
00000160: a29d d03d 60ed c5bc 8e3e 79be a092 08bb
00000170: 6540 8cbf 9d28 473e 32be c5be c8cb 8cbe
00000180: 3424 cdbe 4cac 3cbc b14e adbe 5971 87be
00000190: 6e04 d5bc b804 fabc 86b1 31bc 3fcf aebe
000001a0: 598a 8fbe f252 be3c 469c a83d 25ba 3ebe
000001b0: dda2 34bf f7c7 173c 842f 7bbe e673 50bc
000001c0: 6a1d 1cbf 7a95 7fbe 01ce 3abd 6cbe 47be
000001d0: 3f5b 44bd ff4b 98be b4db 0bbd 4fdc c8be
000001e0: 3064 d5bb b145 2bbe 858d 9e3b 2d03 c6be
000001f0: 7b86 01bf ef40 82be 5864 ca3b 5acb c5be
00000200: 0c4a 95be 91c6 7abe 65f5 18bf d6d5 44be
00000210: 8975 34be a184 11bd bcec 0b3d 5116 3bbe
00000220: d529 c0be f8a8 9abd 7de8 1b3c da21 e2bd
00000230: c930 7dbd ede5 7abe 7d72 ba3d dfdb 1cbf
00000240: 1402 793d 3aed 96bd a3c9 4ebf adc6 90be
00000250: ed60 12be f29c 363d bebc 83be 6241 b23c
00000260: 7167 7bbe 61ad 63be 9d9f 97be 7fa2 50bb
00000270: f68b 6fbf 2022 f8be aae5 f6bd 54a4 dd3d
00000280: 7dba efbd 2526 92bd 056a f8bd c989 ebbc
00000290: 908f 16be 6650 61bd 02ea ce3c cf07 5ebe
000002a0: 89d4 07be 8cd6 d1bd 2d49 d8bd a231 143c
000002b0: 844c 36be 5ce2 953d 73f3 2d3e ac50 37be
000002c0: ca14 a3be 85e2 c2be 3b8e 16be bc89 aebe
000002d0: ae80 b5be bfa4 4cbf 048a 20bf 767e d2be
000002e0: aca6 eabd b861 a4bd 35f9 53bd d6a9 3bbe
000002f0: b579 283d 3a8c 70bd d163 8bbe 81cf 16be
00000300: 1fb9 d4be 925b 56be fd2b 2abe a83a 20be
00000310: ba08 5cbe 7764 bbbb 7d1f a3be 6f7c 88be
00000320: ae54 8bbc 18cb 07be 4815 d33c 4b53 8fbe
00000330: 7beb 3cbe 3f39 c4bd 737e 5bbd 8acc d8be
00000340: e038 dbbe cbbe d5be 9d85 eabb 2f3e 70bd
00000350: cd09 8bbe d772 bbbe a66d a9bd 634f 24bd
00000360: 45ed 07be a059 a1be fbc8 89bc 7c16 d8be
00000370: 4ca0 f3bc 6595 69be a48a 913d e47e 8dbe
00000380: 55bc d33e 6845 41be 8bd9 553d 057e 47be
00000390: 26e5 a9be ff21 e2be c89b d8be 1d3b 8dbd
000003a0: 78ce 19bf faad 57bd 1330 713c 60de 0ebd
000003b0: d47a 33be 330b b6bc a2dd 8bbd c0c5 f0bc
000003c0: 108e a4be 2393 17be c2d8 69be cdf9 c3be
000003d0: d1e8 f13a e60b febd 9742 bbbe 894a a7be
000003e0: 70c4 2cbd 35aa 59bd 489b f4bd c86f e13c
000003f0: cb4a 86be 568c 8cbe b07d dbbe 1cb4 fdbd
-0.1409989 -0.24287358 -0.3985268 -0.31033957 -0.3123178 -0.08354142 0.10815275 -0.08456094
-0.7071526 0.086332045 -0.48879883 0.034047462 -0.08006895 0.018790035 -0.005617759 -0.020343095
0.06117471 -0.71757 -0.023620458 -0.6980275 -0.057646316 -0.1618895 -0.16354279 -0.642563
-0.8809161 0.05777782 -0.10028115 -0.16300917 -0.40555018 -0.21704875 -0.34672686 -0.30908492
-0.34730473 -0.34666008 -0.20482065 0.18900955 -0.030933633 -0.13781786 0.07740406 -0.37272668
-0.080976576 -0.2182972 -0.25204343 -0.27820018 0.09248818 -0.1842967 -0.45164195 -0.30030835
-0.17044796 0.05142479 -0.036931377 -0.40133876 -0.27538872 -0.060091034 0.12735045 0.03747528
-0.28564957 -0.061266642 -0.122010946 0.063077174 -0.51583225 -0.30836874 -0.4577909 -0.43317768
-0.32059988 0.044326685 -0.016153844 -0.14444481 -0.4519738 -0.26706102 0.12875128 -0.113015205
-0.03543391 0.14171813 -0.04603447 -0.4452344 -0.48432064 -0.26528245 -0.20198672 -0.14714505
-0.41824666 -1.6271152 -0.32546023 -0.18777345 -0.023394287 0.055698577 -0.20114364 -0.1078859
0.10186316 -0.02416104 -0.24340269 -0.0020839348 -1.0957152 0.19449086 -0.3862167 -0.27499223
-0.40066683 -0.011515688 -0.338491 -0.26453665 -0.026003089 -0.030519828 -0.010845548 -0.3414249
-0.28035238 0.02323291 0.08232932 -0.18625696 -0.7056101 0.009263984 -0.24529845 -0.012722945
-0.6098238 -0.24959365 -0.045606617 -0.19506234 -0.04793858 -0.2974548 -0.034145072 -0.39230582
-0.0065121874 -0.16725804 0.004838648 -0.38674298 -0.50595826 -0.25440165 0.0061765127 -0.38631707
-0.29158056 -0.2448981 -0.5974944 -0.19222197 -0.17622961 -0.035526875 0.034161314 -0.18270232
-0.37531915 -0.075517595 0.009515879 -0.11041613 -0.061814103 -0.24501772 0.09103868 -0.61272997
0.060792997 -0.07369466 -0.80776423 -0.28276578 -0.14294787 0.04458327 -0.25729936 0.021759693
-0.24551179 -0.22234108 -0.29613963 -0.0031835136 -0.9357294 -0.48463535 -0.12055524 0.10822359
-0.11705492 -0.07136182 -0.121295966 -0.028752225 -0.14703202 -0.055008315 0.025258068 -0.21682666
-0.1326467 -0.10246 -0.10560832 0.0090450365 -0.17802626 0.07318565 0.169874 -0.17901868
-0.31851798 -0.38063446 -0.14702694 -0.34089458 -0.35449737 -0.7993888 -0.62710595 -0.41112107
-0.114575714 -0.08026451 -0.051751334 -0.18326506 0.041131694 -0.05872748 -0.2722459 -0.14727594
-0.41547486 -0.20933369 -0.16618343 -0.15647376 -0.21487704 -0.0057187635 -0.3185996 -0.26657435
-0.017008152 -0.13261068 0.025766984 -0.27993235 -0.18449204 -0.09581231 -0.05358739 -0.4234355
-0.4281683 -0.41747126 -0.007157041 -0.058653053 -0.27155915 -0.36611053 -0.08272867 -0.04011477
-0.13274105 -0.3151369 -0.016819468 -0.42204654 -0.029739521 -0.22810896 0.07106522 -0.27635872
0.41354623 -0.18874133 0.05220942 -0.19481666 -0.3318264 -0.44166562 -0.42306352 -0.068960406
-0.6008067 -0.05265615 0.014720934 -0.034880042 -0.17527324 -0.022222137 -0.068293825 -0.02939117
-0.32139635 -0.14802222 -0.22836593 -0.3827652 0.0018456226 -0.12404613 -0.36574242 -0.32674053
-0.042179525 -0.053140838 -0.1194368 0.027519122 -0.26228938 -0.27450818 -0.4286933 -0.12387869

bias f4 [9]
00000000: f613 7f3d e5c0 0d3d c345 15bc 39e2 47bd
00000010: 9f64 5b3b 6574 79bd d8d9 98bc 4d23 073d
00000020: 543f b23c
0.062274896 0.034607787 -0.009110871 -0.048799727 0.0033476723 -0.060902018 -0.018658563 0.03299265
0.021758713
